{"format": "graph-model", "generatedBy": "2.3.1", "convertedBy": "TensorFlow.js Converter v2.4.0", "userDefinedMetadata": {"signature": {"outputs": {"output/softmax/Reshape_1:0": {"name": "output/softmax/Reshape_1:0"}}}}, "modelTopology": {"node": [{"name": "MMNet/dec_block3/branch1/depthwise_conv_dilation/SpaceToBatchND/block_shape", "op": "Const", "attr": {"value": {"tensor": {"dtype": "DT_INT32", "tensorShape": {"dim": [{"size": "2"}]}}}, "dtype": {"type": "DT_INT32"}}}, {"name": "MMNet/dec_block3/branch1/depthwise_conv_dilation/SpaceToBatchND/paddings", "op": "Const", "attr": {"dtype": {"type": "DT_INT32"}, "value": {"tensor": {"dtype": "DT_INT32", "tensorShape": {"dim": [{"size": "2"}, {"size": "2"}]}}}}}, {"name": "MMNet/dec_block3/branch1/depthwise_conv_dilation/depthwise_weights", "op": "Const", "attr": {"dtype": {"type": "DT_FLOAT"}, "value": {"tensor": {"dtype": "DT_FLOAT", "tensorShape": {"dim": [{"size": "3"}, {"size": "3"}, {"size": "40"}, {"size": "1"}]}}}}}, {"name": "MMNet/dec_block3/branch1/depthwise_conv_dilation/BatchToSpaceND/block_shape", "op": "Const", "attr": {"value": {"tensor": {"dtype": "DT_INT32", "tensorShape": {"dim": [{"size": "2"}]}}}, "dtype": {"type": "DT_INT32"}}}, {"name": "MMNet/dec_block3/branch1/depthwise_conv_dilation/BatchToSpaceND/crops", "op": "Const", "attr": {"value": {"tensor": {"dtype": "DT_INT32", "tensorShape": {"dim": [{"size": "2"}, {"size": "2"}]}}}, "dtype": {"type": "DT_INT32"}}}, {"name": "MMNet/dec_block2/branch1/depthwise_conv_dilation/SpaceToBatchND/block_shape", "op": "Const", "attr": {"value": {"tensor": {"dtype": "DT_INT32", "tensorShape": {"dim": [{"size": "2"}]}}}, "dtype": {"type": "DT_INT32"}}}, {"name": "MMNet/dec_block2/branch1/depthwise_conv_dilation/SpaceToBatchND/paddings", "op": "Const", "attr": {"dtype": {"type": "DT_INT32"}, "value": {"tensor": {"dtype": "DT_INT32", "tensorShape": {"dim": [{"size": "2"}, {"size": "2"}]}}}}}, {"name": "MMNet/dec_block2/branch1/depthwise_conv_dilation/depthwise_weights", "op": "Const", "attr": {"dtype": {"type": "DT_FLOAT"}, "value": {"tensor": {"dtype": "DT_FLOAT", "tensorShape": {"dim": [{"size": "3"}, {"size": "3"}, {"size": "40"}, {"size": "1"}]}}}}}, {"name": "MMNet/dec_block2/branch1/depthwise_conv_dilation/BatchToSpaceND/block_shape", "op": "Const", "attr": {"dtype": {"type": "DT_INT32"}, "value": {"tensor": {"dtype": "DT_INT32", "tensorShape": {"dim": [{"size": "2"}]}}}}}, {"name": "MMNet/dec_block2/branch1/depthwise_conv_dilation/BatchToSpaceND/crops", "op": "Const", "attr": {"dtype": {"type": "DT_INT32"}, "value": {"tensor": {"dtype": "DT_INT32", "tensorShape": {"dim": [{"size": "2"}, {"size": "2"}]}}}}}, {"name": "MMNet/enc_block7/branch1/depthwise_conv_dilation/SpaceToBatchND/block_shape", "op": "Const", "attr": {"value": {"tensor": {"dtype": "DT_INT32", "tensorShape": {"dim": [{"size": "2"}]}}}, "dtype": {"type": "DT_INT32"}}}, {"name": "MMNet/enc_block7/branch1/depthwise_conv_dilation/SpaceToBatchND/paddings", "op": "Const", "attr": {"dtype": {"type": "DT_INT32"}, "value": {"tensor": {"dtype": "DT_INT32", "tensorShape": {"dim": [{"size": "2"}, {"size": "2"}]}}}}}, {"name": "MMNet/enc_block7/branch1/depthwise_conv_dilation/depthwise_weights", "op": "Const", "attr": {"dtype": {"type": "DT_FLOAT"}, "value": {"tensor": {"dtype": "DT_FLOAT", "tensorShape": {"dim": [{"size": "3"}, {"size": "3"}, {"size": "64"}, {"size": "1"}]}}}}}, {"name": "MMNet/enc_block7/branch1/depthwise_conv_dilation/BatchToSpaceND/block_shape", "op": "Const", "attr": {"dtype": {"type": "DT_INT32"}, "value": {"tensor": {"dtype": "DT_INT32", "tensorShape": {"dim": [{"size": "2"}]}}}}}, {"name": "MMNet/enc_block7/branch1/depthwise_conv_dilation/BatchToSpaceND/crops", "op": "Const", "attr": {"dtype": {"type": "DT_INT32"}, "value": {"tensor": {"dtype": "DT_INT32", "tensorShape": {"dim": [{"size": "2"}, {"size": "2"}]}}}}}, {"name": "MMNet/enc_block6/branch1/depthwise_conv_dilation/SpaceToBatchND/block_shape", "op": "Const", "attr": {"dtype": {"type": "DT_INT32"}, "value": {"tensor": {"dtype": "DT_INT32", "tensorShape": {"dim": [{"size": "2"}]}}}}}, {"name": "MMNet/enc_block6/branch1/depthwise_conv_dilation/SpaceToBatchND/paddings", "op": "Const", "attr": {"dtype": {"type": "DT_INT32"}, "value": {"tensor": {"dtype": "DT_INT32", "tensorShape": {"dim": [{"size": "2"}, {"size": "2"}]}}}}}, {"name": "MMNet/enc_block6/branch1/depthwise_conv_dilation/depthwise_weights", "op": "Const", "attr": {"dtype": {"type": "DT_FLOAT"}, "value": {"tensor": {"dtype": "DT_FLOAT", "tensorShape": {"dim": [{"size": "3"}, {"size": "3"}, {"size": "64"}, {"size": "1"}]}}}}}, {"name": "MMNet/enc_block6/branch1/depthwise_conv_dilation/BatchToSpaceND/block_shape", "op": "Const", "attr": {"value": {"tensor": {"dtype": "DT_INT32", "tensorShape": {"dim": [{"size": "2"}]}}}, "dtype": {"type": "DT_INT32"}}}, {"name": "MMNet/enc_block6/branch1/depthwise_conv_dilation/BatchToSpaceND/crops", "op": "Const", "attr": {"dtype": {"type": "DT_INT32"}, "value": {"tensor": {"dtype": "DT_INT32", "tensorShape": {"dim": [{"size": "2"}, {"size": "2"}]}}}}}, {"name": "MMNet/enc_block5/branch1/depthwise_conv_dilation/SpaceToBatchND/block_shape", "op": "Const", "attr": {"value": {"tensor": {"dtype": "DT_INT32", "tensorShape": {"dim": [{"size": "2"}]}}}, "dtype": {"type": "DT_INT32"}}}, {"name": "MMNet/enc_block5/branch1/depthwise_conv_dilation/SpaceToBatchND/paddings", "op": "Const", "attr": {"dtype": {"type": "DT_INT32"}, "value": {"tensor": {"dtype": "DT_INT32", "tensorShape": {"dim": [{"size": "2"}, {"size": "2"}]}}}}}, {"name": "MMNet/enc_block5/branch1/depthwise_conv_dilation/depthwise_weights", "op": "Const", "attr": {"value": {"tensor": {"dtype": "DT_FLOAT", "tensorShape": {"dim": [{"size": "3"}, {"size": "3"}, {"size": "64"}, {"size": "1"}]}}}, "dtype": {"type": "DT_FLOAT"}}}, {"name": "MMNet/enc_block5/branch1/depthwise_conv_dilation/BatchToSpaceND/block_shape", "op": "Const", "attr": {"value": {"tensor": {"dtype": "DT_INT32", "tensorShape": {"dim": [{"size": "2"}]}}}, "dtype": {"type": "DT_INT32"}}}, {"name": "MMNet/enc_block5/branch1/depthwise_conv_dilation/BatchToSpaceND/crops", "op": "Const", "attr": {"value": {"tensor": {"dtype": "DT_INT32", "tensorShape": {"dim": [{"size": "2"}, {"size": "2"}]}}}, "dtype": {"type": "DT_INT32"}}}, {"name": "MMNet/enc_block5/branch2/depthwise_conv_dilation/SpaceToBatchND/block_shape", "op": "Const", "attr": {"value": {"tensor": {"dtype": "DT_INT32", "tensorShape": {"dim": [{"size": "2"}]}}}, "dtype": {"type": "DT_INT32"}}}, {"name": "MMNet/enc_block5/branch2/depthwise_conv_dilation/SpaceToBatchND/paddings", "op": "Const", "attr": {"value": {"tensor": {"dtype": "DT_INT32", "tensorShape": {"dim": [{"size": "2"}, {"size": "2"}]}}}, "dtype": {"type": "DT_INT32"}}}, {"name": "MMNet/enc_block5/branch2/depthwise_conv_dilation/depthwise_weights", "op": "Const", "attr": {"dtype": {"type": "DT_FLOAT"}, "value": {"tensor": {"dtype": "DT_FLOAT", "tensorShape": {"dim": [{"size": "3"}, {"size": "3"}, {"size": "64"}, {"size": "1"}]}}}}}, {"name": "MMNet/enc_block5/branch2/depthwise_conv_dilation/BatchToSpaceND/block_shape", "op": "Const", "attr": {"dtype": {"type": "DT_INT32"}, "value": {"tensor": {"dtype": "DT_INT32", "tensorShape": {"dim": [{"size": "2"}]}}}}}, {"name": "MMNet/enc_block5/branch2/depthwise_conv_dilation/BatchToSpaceND/crops", "op": "Const", "attr": {"dtype": {"type": "DT_INT32"}, "value": {"tensor": {"dtype": "DT_INT32", "tensorShape": {"dim": [{"size": "2"}, {"size": "2"}]}}}}}, {"name": "MMNet/enc_block5/merge/concat/axis", "op": "Const", "attr": {"value": {"tensor": {"dtype": "DT_INT32", "tensorShape": {}}}, "dtype": {"type": "DT_INT32"}}}, {"name": "MMNet/enc_block6/branch2/depthwise_conv_dilation/SpaceToBatchND/block_shape", "op": "Const", "attr": {"value": {"tensor": {"dtype": "DT_INT32", "tensorShape": {"dim": [{"size": "2"}]}}}, "dtype": {"type": "DT_INT32"}}}, {"name": "MMNet/enc_block6/branch2/depthwise_conv_dilation/SpaceToBatchND/paddings", "op": "Const", "attr": {"dtype": {"type": "DT_INT32"}, "value": {"tensor": {"dtype": "DT_INT32", "tensorShape": {"dim": [{"size": "2"}, {"size": "2"}]}}}}}, {"name": "MMNet/enc_block6/branch2/depthwise_conv_dilation/depthwise_weights", "op": "Const", "attr": {"value": {"tensor": {"dtype": "DT_FLOAT", "tensorShape": {"dim": [{"size": "3"}, {"size": "3"}, {"size": "64"}, {"size": "1"}]}}}, "dtype": {"type": "DT_FLOAT"}}}, {"name": "MMNet/enc_block6/branch2/depthwise_conv_dilation/BatchToSpaceND/block_shape", "op": "Const", "attr": {"value": {"tensor": {"dtype": "DT_INT32", "tensorShape": {"dim": [{"size": "2"}]}}}, "dtype": {"type": "DT_INT32"}}}, {"name": "MMNet/enc_block6/branch2/depthwise_conv_dilation/BatchToSpaceND/crops", "op": "Const", "attr": {"value": {"tensor": {"dtype": "DT_INT32", "tensorShape": {"dim": [{"size": "2"}, {"size": "2"}]}}}, "dtype": {"type": "DT_INT32"}}}, {"name": "MMNet/enc_block6/merge/concat/axis", "op": "Const", "attr": {"dtype": {"type": "DT_INT32"}, "value": {"tensor": {"dtype": "DT_INT32", "tensorShape": {}}}}}, {"name": "MMNet/enc_block7/branch2/depthwise_conv_dilation/SpaceToBatchND/block_shape", "op": "Const", "attr": {"dtype": {"type": "DT_INT32"}, "value": {"tensor": {"dtype": "DT_INT32", "tensorShape": {"dim": [{"size": "2"}]}}}}}, {"name": "MMNet/enc_block7/branch2/depthwise_conv_dilation/SpaceToBatchND/paddings", "op": "Const", "attr": {"dtype": {"type": "DT_INT32"}, "value": {"tensor": {"dtype": "DT_INT32", "tensorShape": {"dim": [{"size": "2"}, {"size": "2"}]}}}}}, {"name": "MMNet/enc_block7/branch2/depthwise_conv_dilation/depthwise_weights", "op": "Const", "attr": {"value": {"tensor": {"dtype": "DT_FLOAT", "tensorShape": {"dim": [{"size": "3"}, {"size": "3"}, {"size": "64"}, {"size": "1"}]}}}, "dtype": {"type": "DT_FLOAT"}}}, {"name": "MMNet/enc_block7/branch2/depthwise_conv_dilation/BatchToSpaceND/block_shape", "op": "Const", "attr": {"dtype": {"type": "DT_INT32"}, "value": {"tensor": {"dtype": "DT_INT32", "tensorShape": {"dim": [{"size": "2"}]}}}}}, {"name": "MMNet/enc_block7/branch2/depthwise_conv_dilation/BatchToSpaceND/crops", "op": "Const", "attr": {"value": {"tensor": {"dtype": "DT_INT32", "tensorShape": {"dim": [{"size": "2"}, {"size": "2"}]}}}, "dtype": {"type": "DT_INT32"}}}, {"name": "MMNet/enc_block7/merge/concat/axis", "op": "Const", "attr": {"value": {"tensor": {"dtype": "DT_INT32", "tensorShape": {}}}, "dtype": {"type": "DT_INT32"}}}, {"name": "MMNet/enc_block8/branch1/depthwise_conv_dilation/SpaceToBatchND/block_shape", "op": "Const", "attr": {"dtype": {"type": "DT_INT32"}, "value": {"tensor": {"dtype": "DT_INT32", "tensorShape": {"dim": [{"size": "2"}]}}}}}, {"name": "MMNet/enc_block8/branch1/depthwise_conv_dilation/SpaceToBatchND/paddings", "op": "Const", "attr": {"value": {"tensor": {"dtype": "DT_INT32", "tensorShape": {"dim": [{"size": "2"}, {"size": "2"}]}}}, "dtype": {"type": "DT_INT32"}}}, {"name": "MMNet/enc_block8/branch1/depthwise_conv_dilation/depthwise_weights", "op": "Const", "attr": {"dtype": {"type": "DT_FLOAT"}, "value": {"tensor": {"dtype": "DT_FLOAT", "tensorShape": {"dim": [{"size": "3"}, {"size": "3"}, {"size": "80"}, {"size": "1"}]}}}}}, {"name": "MMNet/enc_block8/branch1/depthwise_conv_dilation/BatchToSpaceND/block_shape", "op": "Const", "attr": {"dtype": {"type": "DT_INT32"}, "value": {"tensor": {"dtype": "DT_INT32", "tensorShape": {"dim": [{"size": "2"}]}}}}}, {"name": "MMNet/enc_block8/branch1/depthwise_conv_dilation/BatchToSpaceND/crops", "op": "Const", "attr": {"dtype": {"type": "DT_INT32"}, "value": {"tensor": {"dtype": "DT_INT32", "tensorShape": {"dim": [{"size": "2"}, {"size": "2"}]}}}}}, {"name": "MMNet/enc_block8/merge/concat/axis", "op": "Const", "attr": {"value": {"tensor": {"dtype": "DT_INT32", "tensorShape": {}}}, "dtype": {"type": "DT_INT32"}}}, {"name": "MMNet/enc_block9/branch1/depthwise_conv_dilation/SpaceToBatchND/block_shape", "op": "Const", "attr": {"dtype": {"type": "DT_INT32"}, "value": {"tensor": {"dtype": "DT_INT32", "tensorShape": {"dim": [{"size": "2"}]}}}}}, {"name": "MMNet/enc_block9/branch1/depthwise_conv_dilation/SpaceToBatchND/paddings", "op": "Const", "attr": {"dtype": {"type": "DT_INT32"}, "value": {"tensor": {"dtype": "DT_INT32", "tensorShape": {"dim": [{"size": "2"}, {"size": "2"}]}}}}}, {"name": "MMNet/enc_block9/branch1/depthwise_conv_dilation/depthwise_weights", "op": "Const", "attr": {"value": {"tensor": {"dtype": "DT_FLOAT", "tensorShape": {"dim": [{"size": "3"}, {"size": "3"}, {"size": "120"}, {"size": "1"}]}}}, "dtype": {"type": "DT_FLOAT"}}}, {"name": "MMNet/enc_block9/branch1/depthwise_conv_dilation/BatchToSpaceND/block_shape", "op": "Const", "attr": {"value": {"tensor": {"dtype": "DT_INT32", "tensorShape": {"dim": [{"size": "2"}]}}}, "dtype": {"type": "DT_INT32"}}}, {"name": "MMNet/enc_block9/branch1/depthwise_conv_dilation/BatchToSpaceND/crops", "op": "Const", "attr": {"dtype": {"type": "DT_INT32"}, "value": {"tensor": {"dtype": "DT_INT32", "tensorShape": {"dim": [{"size": "2"}, {"size": "2"}]}}}}}, {"name": "MMNet/enc_block9/merge/concat/axis", "op": "Const", "attr": {"dtype": {"type": "DT_INT32"}, "value": {"tensor": {"dtype": "DT_INT32", "tensorShape": {}}}}}, {"name": "MMNet/dec_block0/resize_bilinear_0/size", "op": "Const", "attr": {"value": {"tensor": {"dtype": "DT_INT32", "tensorShape": {"dim": [{"size": "2"}]}}}, "dtype": {"type": "DT_INT32"}}}, {"name": "MMNet/enc_block4/branch1/depthwise_conv_dilation/SpaceToBatchND/block_shape", "op": "Const", "attr": {"dtype": {"type": "DT_INT32"}, "value": {"tensor": {"dtype": "DT_INT32", "tensorShape": {"dim": [{"size": "2"}]}}}}}, {"name": "MMNet/enc_block4/branch1/depthwise_conv_dilation/SpaceToBatchND/paddings", "op": "Const", "attr": {"value": {"tensor": {"dtype": "DT_INT32", "tensorShape": {"dim": [{"size": "2"}, {"size": "2"}]}}}, "dtype": {"type": "DT_INT32"}}}, {"name": "MMNet/enc_block4/branch1/depthwise_conv_dilation/depthwise_weights", "op": "Const", "attr": {"value": {"tensor": {"dtype": "DT_FLOAT", "tensorShape": {"dim": [{"size": "3"}, {"size": "3"}, {"size": "32"}, {"size": "1"}]}}}, "dtype": {"type": "DT_FLOAT"}}}, {"name": "MMNet/enc_block4/branch1/depthwise_conv_dilation/BatchToSpaceND/block_shape", "op": "Const", "attr": {"value": {"tensor": {"dtype": "DT_INT32", "tensorShape": {"dim": [{"size": "2"}]}}}, "dtype": {"type": "DT_INT32"}}}, {"name": "MMNet/enc_block4/branch1/depthwise_conv_dilation/BatchToSpaceND/crops", "op": "Const", "attr": {"value": {"tensor": {"dtype": "DT_INT32", "tensorShape": {"dim": [{"size": "2"}, {"size": "2"}]}}}, "dtype": {"type": "DT_INT32"}}}, {"name": "MMNet/enc_block3/branch1/depthwise_conv_dilation/SpaceToBatchND/block_shape", "op": "Const", "attr": {"value": {"tensor": {"dtype": "DT_INT32", "tensorShape": {"dim": [{"size": "2"}]}}}, "dtype": {"type": "DT_INT32"}}}, {"name": "MMNet/enc_block3/branch1/depthwise_conv_dilation/SpaceToBatchND/paddings", "op": "Const", "attr": {"dtype": {"type": "DT_INT32"}, "value": {"tensor": {"dtype": "DT_INT32", "tensorShape": {"dim": [{"size": "2"}, {"size": "2"}]}}}}}, {"name": "MMNet/enc_block3/branch1/depthwise_conv_dilation/depthwise_weights", "op": "Const", "attr": {"value": {"tensor": {"dtype": "DT_FLOAT", "tensorShape": {"dim": [{"size": "3"}, {"size": "3"}, {"size": "24"}, {"size": "1"}]}}}, "dtype": {"type": "DT_FLOAT"}}}, {"name": "MMNet/enc_block3/branch1/depthwise_conv_dilation/BatchToSpaceND/block_shape", "op": "Const", "attr": {"value": {"tensor": {"dtype": "DT_INT32", "tensorShape": {"dim": [{"size": "2"}]}}}, "dtype": {"type": "DT_INT32"}}}, {"name": "MMNet/enc_block3/branch1/depthwise_conv_dilation/BatchToSpaceND/crops", "op": "Const", "attr": {"dtype": {"type": "DT_INT32"}, "value": {"tensor": {"dtype": "DT_INT32", "tensorShape": {"dim": [{"size": "2"}, {"size": "2"}]}}}}}, {"name": "MMNet/enc_block3/branch2/depthwise_conv_dilation/SpaceToBatchND/block_shape", "op": "Const", "attr": {"value": {"tensor": {"dtype": "DT_INT32", "tensorShape": {"dim": [{"size": "2"}]}}}, "dtype": {"type": "DT_INT32"}}}, {"name": "MMNet/enc_block3/branch2/depthwise_conv_dilation/SpaceToBatchND/paddings", "op": "Const", "attr": {"value": {"tensor": {"dtype": "DT_INT32", "tensorShape": {"dim": [{"size": "2"}, {"size": "2"}]}}}, "dtype": {"type": "DT_INT32"}}}, {"name": "MMNet/enc_block3/branch2/depthwise_conv_dilation/depthwise_weights", "op": "Const", "attr": {"value": {"tensor": {"dtype": "DT_FLOAT", "tensorShape": {"dim": [{"size": "3"}, {"size": "3"}, {"size": "24"}, {"size": "1"}]}}}, "dtype": {"type": "DT_FLOAT"}}}, {"name": "MMNet/enc_block3/branch2/depthwise_conv_dilation/BatchToSpaceND/block_shape", "op": "Const", "attr": {"dtype": {"type": "DT_INT32"}, "value": {"tensor": {"dtype": "DT_INT32", "tensorShape": {"dim": [{"size": "2"}]}}}}}, {"name": "MMNet/enc_block3/branch2/depthwise_conv_dilation/BatchToSpaceND/crops", "op": "Const", "attr": {"dtype": {"type": "DT_INT32"}, "value": {"tensor": {"dtype": "DT_INT32", "tensorShape": {"dim": [{"size": "2"}, {"size": "2"}]}}}}}, {"name": "MMNet/enc_block2/branch1/depthwise_conv_dilation/SpaceToBatchND/block_shape", "op": "Const", "attr": {"dtype": {"type": "DT_INT32"}, "value": {"tensor": {"dtype": "DT_INT32", "tensorShape": {"dim": [{"size": "2"}]}}}}}, {"name": "MMNet/enc_block2/branch1/depthwise_conv_dilation/SpaceToBatchND/paddings", "op": "Const", "attr": {"dtype": {"type": "DT_INT32"}, "value": {"tensor": {"dtype": "DT_INT32", "tensorShape": {"dim": [{"size": "2"}, {"size": "2"}]}}}}}, {"name": "MMNet/enc_block2/branch1/depthwise_conv_dilation/depthwise_weights", "op": "Const", "attr": {"value": {"tensor": {"dtype": "DT_FLOAT", "tensorShape": {"dim": [{"size": "3"}, {"size": "3"}, {"size": "24"}, {"size": "1"}]}}}, "dtype": {"type": "DT_FLOAT"}}}, {"name": "MMNet/enc_block2/branch1/depthwise_conv_dilation/BatchToSpaceND/block_shape", "op": "Const", "attr": {"dtype": {"type": "DT_INT32"}, "value": {"tensor": {"dtype": "DT_INT32", "tensorShape": {"dim": [{"size": "2"}]}}}}}, {"name": "MMNet/enc_block2/branch1/depthwise_conv_dilation/BatchToSpaceND/crops", "op": "Const", "attr": {"dtype": {"type": "DT_INT32"}, "value": {"tensor": {"dtype": "DT_INT32", "tensorShape": {"dim": [{"size": "2"}, {"size": "2"}]}}}}}, {"name": "MMNet/enc_block2/branch2/depthwise_conv_dilation/SpaceToBatchND/block_shape", "op": "Const", "attr": {"value": {"tensor": {"dtype": "DT_INT32", "tensorShape": {"dim": [{"size": "2"}]}}}, "dtype": {"type": "DT_INT32"}}}, {"name": "MMNet/enc_block2/branch2/depthwise_conv_dilation/SpaceToBatchND/paddings", "op": "Const", "attr": {"value": {"tensor": {"dtype": "DT_INT32", "tensorShape": {"dim": [{"size": "2"}, {"size": "2"}]}}}, "dtype": {"type": "DT_INT32"}}}, {"name": "MMNet/enc_block2/branch2/depthwise_conv_dilation/depthwise_weights", "op": "Const", "attr": {"dtype": {"type": "DT_FLOAT"}, "value": {"tensor": {"dtype": "DT_FLOAT", "tensorShape": {"dim": [{"size": "3"}, {"size": "3"}, {"size": "24"}, {"size": "1"}]}}}}}, {"name": "MMNet/enc_block2/branch2/depthwise_conv_dilation/BatchToSpaceND/block_shape", "op": "Const", "attr": {"value": {"tensor": {"dtype": "DT_INT32", "tensorShape": {"dim": [{"size": "2"}]}}}, "dtype": {"type": "DT_INT32"}}}, {"name": "MMNet/enc_block2/branch2/depthwise_conv_dilation/BatchToSpaceND/crops", "op": "Const", "attr": {"dtype": {"type": "DT_INT32"}, "value": {"tensor": {"dtype": "DT_INT32", "tensorShape": {"dim": [{"size": "2"}, {"size": "2"}]}}}}}, {"name": "MMNet/enc_block1/branch1/depthwise_conv_dilation/SpaceToBatchND/block_shape", "op": "Const", "attr": {"value": {"tensor": {"dtype": "DT_INT32", "tensorShape": {"dim": [{"size": "2"}]}}}, "dtype": {"type": "DT_INT32"}}}, {"name": "MMNet/enc_block1/branch1/depthwise_conv_dilation/SpaceToBatchND/paddings", "op": "Const", "attr": {"value": {"tensor": {"dtype": "DT_INT32", "tensorShape": {"dim": [{"size": "2"}, {"size": "2"}]}}}, "dtype": {"type": "DT_INT32"}}}, {"name": "MMNet/enc_block1/branch1/depthwise_conv_dilation/depthwise_weights", "op": "Const", "attr": {"value": {"tensor": {"dtype": "DT_FLOAT", "tensorShape": {"dim": [{"size": "3"}, {"size": "3"}, {"size": "16"}, {"size": "1"}]}}}, "dtype": {"type": "DT_FLOAT"}}}, {"name": "MMNet/enc_block1/branch1/depthwise_conv_dilation/BatchToSpaceND/block_shape", "op": "Const", "attr": {"value": {"tensor": {"dtype": "DT_INT32", "tensorShape": {"dim": [{"size": "2"}]}}}, "dtype": {"type": "DT_INT32"}}}, {"name": "MMNet/enc_block1/branch1/depthwise_conv_dilation/BatchToSpaceND/crops", "op": "Const", "attr": {"value": {"tensor": {"dtype": "DT_INT32", "tensorShape": {"dim": [{"size": "2"}, {"size": "2"}]}}}, "dtype": {"type": "DT_INT32"}}}, {"name": "MMNet/enc_block1/branch2/depthwise_conv_dilation/SpaceToBatchND/block_shape", "op": "Const", "attr": {"value": {"tensor": {"dtype": "DT_INT32", "tensorShape": {"dim": [{"size": "2"}]}}}, "dtype": {"type": "DT_INT32"}}}, {"name": "MMNet/enc_block1/branch2/depthwise_conv_dilation/SpaceToBatchND/paddings", "op": "Const", "attr": {"value": {"tensor": {"dtype": "DT_INT32", "tensorShape": {"dim": [{"size": "2"}, {"size": "2"}]}}}, "dtype": {"type": "DT_INT32"}}}, {"name": "MMNet/enc_block1/branch2/depthwise_conv_dilation/depthwise_weights", "op": "Const", "attr": {"value": {"tensor": {"dtype": "DT_FLOAT", "tensorShape": {"dim": [{"size": "3"}, {"size": "3"}, {"size": "16"}, {"size": "1"}]}}}, "dtype": {"type": "DT_FLOAT"}}}, {"name": "MMNet/enc_block1/branch2/depthwise_conv_dilation/BatchToSpaceND/block_shape", "op": "Const", "attr": {"dtype": {"type": "DT_INT32"}, "value": {"tensor": {"dtype": "DT_INT32", "tensorShape": {"dim": [{"size": "2"}]}}}}}, {"name": "MMNet/enc_block1/branch2/depthwise_conv_dilation/BatchToSpaceND/crops", "op": "Const", "attr": {"value": {"tensor": {"dtype": "DT_INT32", "tensorShape": {"dim": [{"size": "2"}, {"size": "2"}]}}}, "dtype": {"type": "DT_INT32"}}}, {"name": "MMNet/enc_block1/branch3/depthwise_conv_dilation/SpaceToBatchND/block_shape", "op": "Const", "attr": {"dtype": {"type": "DT_INT32"}, "value": {"tensor": {"dtype": "DT_INT32", "tensorShape": {"dim": [{"size": "2"}]}}}}}, {"name": "MMNet/enc_block1/branch3/depthwise_conv_dilation/SpaceToBatchND/paddings", "op": "Const", "attr": {"dtype": {"type": "DT_INT32"}, "value": {"tensor": {"dtype": "DT_INT32", "tensorShape": {"dim": [{"size": "2"}, {"size": "2"}]}}}}}, {"name": "MMNet/enc_block1/branch3/depthwise_conv_dilation/depthwise_weights", "op": "Const", "attr": {"dtype": {"type": "DT_FLOAT"}, "value": {"tensor": {"dtype": "DT_FLOAT", "tensorShape": {"dim": [{"size": "3"}, {"size": "3"}, {"size": "16"}, {"size": "1"}]}}}}}, {"name": "MMNet/enc_block1/branch3/depthwise_conv_dilation/BatchToSpaceND/block_shape", "op": "Const", "attr": {"dtype": {"type": "DT_INT32"}, "value": {"tensor": {"dtype": "DT_INT32", "tensorShape": {"dim": [{"size": "2"}]}}}}}, {"name": "MMNet/enc_block1/branch3/depthwise_conv_dilation/BatchToSpaceND/crops", "op": "Const", "attr": {"value": {"tensor": {"dtype": "DT_INT32", "tensorShape": {"dim": [{"size": "2"}, {"size": "2"}]}}}, "dtype": {"type": "DT_INT32"}}}, {"name": "MMNet/enc_block1/merge/concat/axis", "op": "Const", "attr": {"value": {"tensor": {"dtype": "DT_INT32", "tensorShape": {}}}, "dtype": {"type": "DT_INT32"}}}, {"name": "MMNet/enc_block2/branch3/depthwise_conv_dilation/SpaceToBatchND/block_shape", "op": "Const", "attr": {"value": {"tensor": {"dtype": "DT_INT32", "tensorShape": {"dim": [{"size": "2"}]}}}, "dtype": {"type": "DT_INT32"}}}, {"name": "MMNet/enc_block2/branch3/depthwise_conv_dilation/SpaceToBatchND/paddings", "op": "Const", "attr": {"dtype": {"type": "DT_INT32"}, "value": {"tensor": {"dtype": "DT_INT32", "tensorShape": {"dim": [{"size": "2"}, {"size": "2"}]}}}}}, {"name": "MMNet/enc_block2/branch3/depthwise_conv_dilation/depthwise_weights", "op": "Const", "attr": {"value": {"tensor": {"dtype": "DT_FLOAT", "tensorShape": {"dim": [{"size": "3"}, {"size": "3"}, {"size": "24"}, {"size": "1"}]}}}, "dtype": {"type": "DT_FLOAT"}}}, {"name": "MMNet/enc_block2/branch3/depthwise_conv_dilation/BatchToSpaceND/block_shape", "op": "Const", "attr": {"dtype": {"type": "DT_INT32"}, "value": {"tensor": {"dtype": "DT_INT32", "tensorShape": {"dim": [{"size": "2"}]}}}}}, {"name": "MMNet/enc_block2/branch3/depthwise_conv_dilation/BatchToSpaceND/crops", "op": "Const", "attr": {"value": {"tensor": {"dtype": "DT_INT32", "tensorShape": {"dim": [{"size": "2"}, {"size": "2"}]}}}, "dtype": {"type": "DT_INT32"}}}, {"name": "MMNet/enc_block2/merge/concat/axis", "op": "Const", "attr": {"dtype": {"type": "DT_INT32"}, "value": {"tensor": {"dtype": "DT_INT32", "tensorShape": {}}}}}, {"name": "MMNet/enc_block3/branch3/depthwise_conv_dilation/SpaceToBatchND/block_shape", "op": "Const", "attr": {"dtype": {"type": "DT_INT32"}, "value": {"tensor": {"dtype": "DT_INT32", "tensorShape": {"dim": [{"size": "2"}]}}}}}, {"name": "MMNet/enc_block3/branch3/depthwise_conv_dilation/SpaceToBatchND/paddings", "op": "Const", "attr": {"value": {"tensor": {"dtype": "DT_INT32", "tensorShape": {"dim": [{"size": "2"}, {"size": "2"}]}}}, "dtype": {"type": "DT_INT32"}}}, {"name": "MMNet/enc_block3/branch3/depthwise_conv_dilation/depthwise_weights", "op": "Const", "attr": {"dtype": {"type": "DT_FLOAT"}, "value": {"tensor": {"dtype": "DT_FLOAT", "tensorShape": {"dim": [{"size": "3"}, {"size": "3"}, {"size": "24"}, {"size": "1"}]}}}}}, {"name": "MMNet/enc_block3/branch3/depthwise_conv_dilation/BatchToSpaceND/block_shape", "op": "Const", "attr": {"value": {"tensor": {"dtype": "DT_INT32", "tensorShape": {"dim": [{"size": "2"}]}}}, "dtype": {"type": "DT_INT32"}}}, {"name": "MMNet/enc_block3/branch3/depthwise_conv_dilation/BatchToSpaceND/crops", "op": "Const", "attr": {"dtype": {"type": "DT_INT32"}, "value": {"tensor": {"dtype": "DT_INT32", "tensorShape": {"dim": [{"size": "2"}, {"size": "2"}]}}}}}, {"name": "MMNet/enc_block3/merge/concat/axis", "op": "Const", "attr": {"dtype": {"type": "DT_INT32"}, "value": {"tensor": {"dtype": "DT_INT32", "tensorShape": {}}}}}, {"name": "MMNet/enc_block4/branch2/depthwise_conv_dilation/SpaceToBatchND/block_shape", "op": "Const", "attr": {"dtype": {"type": "DT_INT32"}, "value": {"tensor": {"dtype": "DT_INT32", "tensorShape": {"dim": [{"size": "2"}]}}}}}, {"name": "MMNet/enc_block4/branch2/depthwise_conv_dilation/SpaceToBatchND/paddings", "op": "Const", "attr": {"dtype": {"type": "DT_INT32"}, "value": {"tensor": {"dtype": "DT_INT32", "tensorShape": {"dim": [{"size": "2"}, {"size": "2"}]}}}}}, {"name": "MMNet/enc_block4/branch2/depthwise_conv_dilation/depthwise_weights", "op": "Const", "attr": {"value": {"tensor": {"dtype": "DT_FLOAT", "tensorShape": {"dim": [{"size": "3"}, {"size": "3"}, {"size": "32"}, {"size": "1"}]}}}, "dtype": {"type": "DT_FLOAT"}}}, {"name": "MMNet/enc_block4/branch2/depthwise_conv_dilation/BatchToSpaceND/block_shape", "op": "Const", "attr": {"value": {"tensor": {"dtype": "DT_INT32", "tensorShape": {"dim": [{"size": "2"}]}}}, "dtype": {"type": "DT_INT32"}}}, {"name": "MMNet/enc_block4/branch2/depthwise_conv_dilation/BatchToSpaceND/crops", "op": "Const", "attr": {"value": {"tensor": {"dtype": "DT_INT32", "tensorShape": {"dim": [{"size": "2"}, {"size": "2"}]}}}, "dtype": {"type": "DT_INT32"}}}, {"name": "MMNet/enc_block4/merge/concat/axis", "op": "Const", "attr": {"value": {"tensor": {"dtype": "DT_INT32", "tensorShape": {}}}, "dtype": {"type": "DT_INT32"}}}, {"name": "MMNet/dec_block0/shortcut/concat/axis", "op": "Const", "attr": {"dtype": {"type": "DT_INT32"}, "value": {"tensor": {"dtype": "DT_INT32", "tensorShape": {}}}}}, {"name": "MMNet/dec_block1/resize_bilinear_0/size", "op": "Const", "attr": {"dtype": {"type": "DT_INT32"}, "value": {"tensor": {"dtype": "DT_INT32", "tensorShape": {"dim": [{"size": "2"}]}}}}}, {"name": "MMNet/enc_block0/branch1/depthwise_conv_dilation/SpaceToBatchND/block_shape", "op": "Const", "attr": {"dtype": {"type": "DT_INT32"}, "value": {"tensor": {"dtype": "DT_INT32", "tensorShape": {"dim": [{"size": "2"}]}}}}}, {"name": "MMNet/enc_block0/branch1/depthwise_conv_dilation/SpaceToBatchND/paddings", "op": "Const", "attr": {"value": {"tensor": {"dtype": "DT_INT32", "tensorShape": {"dim": [{"size": "2"}, {"size": "2"}]}}}, "dtype": {"type": "DT_INT32"}}}, {"name": "MMNet/enc_block0/branch1/depthwise_conv_dilation/depthwise_weights", "op": "Const", "attr": {"value": {"tensor": {"dtype": "DT_FLOAT", "tensorShape": {"dim": [{"size": "3"}, {"size": "3"}, {"size": "16"}, {"size": "1"}]}}}, "dtype": {"type": "DT_FLOAT"}}}, {"name": "MMNet/enc_block0/branch1/depthwise_conv_dilation/BatchToSpaceND/block_shape", "op": "Const", "attr": {"dtype": {"type": "DT_INT32"}, "value": {"tensor": {"dtype": "DT_INT32", "tensorShape": {"dim": [{"size": "2"}]}}}}}, {"name": "MMNet/enc_block0/branch1/depthwise_conv_dilation/BatchToSpaceND/crops", "op": "Const", "attr": {"value": {"tensor": {"dtype": "DT_INT32", "tensorShape": {"dim": [{"size": "2"}, {"size": "2"}]}}}, "dtype": {"type": "DT_INT32"}}}, {"name": "MMNet/enc_block0/branch2/depthwise_conv_dilation/SpaceToBatchND/block_shape", "op": "Const", "attr": {"dtype": {"type": "DT_INT32"}, "value": {"tensor": {"dtype": "DT_INT32", "tensorShape": {"dim": [{"size": "2"}]}}}}}, {"name": "MMNet/enc_block0/branch2/depthwise_conv_dilation/SpaceToBatchND/paddings", "op": "Const", "attr": {"dtype": {"type": "DT_INT32"}, "value": {"tensor": {"dtype": "DT_INT32", "tensorShape": {"dim": [{"size": "2"}, {"size": "2"}]}}}}}, {"name": "MMNet/enc_block0/branch2/depthwise_conv_dilation/depthwise_weights", "op": "Const", "attr": {"value": {"tensor": {"dtype": "DT_FLOAT", "tensorShape": {"dim": [{"size": "3"}, {"size": "3"}, {"size": "16"}, {"size": "1"}]}}}, "dtype": {"type": "DT_FLOAT"}}}, {"name": "MMNet/enc_block0/branch2/depthwise_conv_dilation/BatchToSpaceND/block_shape", "op": "Const", "attr": {"value": {"tensor": {"dtype": "DT_INT32", "tensorShape": {"dim": [{"size": "2"}]}}}, "dtype": {"type": "DT_INT32"}}}, {"name": "MMNet/enc_block0/branch2/depthwise_conv_dilation/BatchToSpaceND/crops", "op": "Const", "attr": {"value": {"tensor": {"dtype": "DT_INT32", "tensorShape": {"dim": [{"size": "2"}, {"size": "2"}]}}}, "dtype": {"type": "DT_INT32"}}}, {"name": "image_holder", "op": "Placeholder", "attr": {"dtype": {"type": "DT_FLOAT"}, "shape": {"shape": {"dim": [{"size": "1"}, {"size": "256"}, {"size": "256"}, {"size": "3"}]}}}}, {"name": "MMNet/enc_block0/branch3/depthwise_conv_dilation/SpaceToBatchND/block_shape", "op": "Const", "attr": {"dtype": {"type": "DT_INT32"}, "value": {"tensor": {"dtype": "DT_INT32", "tensorShape": {"dim": [{"size": "2"}]}}}}}, {"name": "MMNet/enc_block0/branch3/depthwise_conv_dilation/SpaceToBatchND/paddings", "op": "Const", "attr": {"dtype": {"type": "DT_INT32"}, "value": {"tensor": {"dtype": "DT_INT32", "tensorShape": {"dim": [{"size": "2"}, {"size": "2"}]}}}}}, {"name": "MMNet/enc_block0/branch3/depthwise_conv_dilation/depthwise_weights", "op": "Const", "attr": {"value": {"tensor": {"dtype": "DT_FLOAT", "tensorShape": {"dim": [{"size": "3"}, {"size": "3"}, {"size": "16"}, {"size": "1"}]}}}, "dtype": {"type": "DT_FLOAT"}}}, {"name": "MMNet/enc_block0/branch3/depthwise_conv_dilation/BatchToSpaceND/block_shape", "op": "Const", "attr": {"dtype": {"type": "DT_INT32"}, "value": {"tensor": {"dtype": "DT_INT32", "tensorShape": {"dim": [{"size": "2"}]}}}}}, {"name": "MMNet/enc_block0/branch3/depthwise_conv_dilation/BatchToSpaceND/crops", "op": "Const", "attr": {"dtype": {"type": "DT_INT32"}, "value": {"tensor": {"dtype": "DT_INT32", "tensorShape": {"dim": [{"size": "2"}, {"size": "2"}]}}}}}, {"name": "MMNet/enc_block0/merge/concat/axis", "op": "Const", "attr": {"dtype": {"type": "DT_INT32"}, "value": {"tensor": {"dtype": "DT_INT32", "tensorShape": {}}}}}, {"name": "MMNet/dec_block1/shortcut/concat/axis", "op": "Const", "attr": {"dtype": {"type": "DT_INT32"}, "value": {"tensor": {"dtype": "DT_INT32", "tensorShape": {}}}}}, {"name": "MMNet/dec_block2/branch2/depthwise_conv_dilation/SpaceToBatchND/block_shape", "op": "Const", "attr": {"dtype": {"type": "DT_INT32"}, "value": {"tensor": {"dtype": "DT_INT32", "tensorShape": {"dim": [{"size": "2"}]}}}}}, {"name": "MMNet/dec_block2/branch2/depthwise_conv_dilation/SpaceToBatchND/paddings", "op": "Const", "attr": {"dtype": {"type": "DT_INT32"}, "value": {"tensor": {"dtype": "DT_INT32", "tensorShape": {"dim": [{"size": "2"}, {"size": "2"}]}}}}}, {"name": "MMNet/dec_block2/branch2/depthwise_conv_dilation/depthwise_weights", "op": "Const", "attr": {"value": {"tensor": {"dtype": "DT_FLOAT", "tensorShape": {"dim": [{"size": "3"}, {"size": "3"}, {"size": "40"}, {"size": "1"}]}}}, "dtype": {"type": "DT_FLOAT"}}}, {"name": "MMNet/dec_block2/branch2/depthwise_conv_dilation/BatchToSpaceND/block_shape", "op": "Const", "attr": {"value": {"tensor": {"dtype": "DT_INT32", "tensorShape": {"dim": [{"size": "2"}]}}}, "dtype": {"type": "DT_INT32"}}}, {"name": "MMNet/dec_block2/branch2/depthwise_conv_dilation/BatchToSpaceND/crops", "op": "Const", "attr": {"dtype": {"type": "DT_INT32"}, "value": {"tensor": {"dtype": "DT_INT32", "tensorShape": {"dim": [{"size": "2"}, {"size": "2"}]}}}}}, {"name": "MMNet/dec_block2/merge/concat/axis", "op": "Const", "attr": {"value": {"tensor": {"dtype": "DT_INT32", "tensorShape": {}}}, "dtype": {"type": "DT_INT32"}}}, {"name": "MMNet/dec_block3/branch2/depthwise_conv_dilation/SpaceToBatchND/block_shape", "op": "Const", "attr": {"dtype": {"type": "DT_INT32"}, "value": {"tensor": {"dtype": "DT_INT32", "tensorShape": {"dim": [{"size": "2"}]}}}}}, {"name": "MMNet/dec_block3/branch2/depthwise_conv_dilation/SpaceToBatchND/paddings", "op": "Const", "attr": {"dtype": {"type": "DT_INT32"}, "value": {"tensor": {"dtype": "DT_INT32", "tensorShape": {"dim": [{"size": "2"}, {"size": "2"}]}}}}}, {"name": "MMNet/dec_block3/branch2/depthwise_conv_dilation/depthwise_weights", "op": "Const", "attr": {"dtype": {"type": "DT_FLOAT"}, "value": {"tensor": {"dtype": "DT_FLOAT", "tensorShape": {"dim": [{"size": "3"}, {"size": "3"}, {"size": "40"}, {"size": "1"}]}}}}}, {"name": "MMNet/dec_block3/branch2/depthwise_conv_dilation/BatchToSpaceND/block_shape", "op": "Const", "attr": {"dtype": {"type": "DT_INT32"}, "value": {"tensor": {"dtype": "DT_INT32", "tensorShape": {"dim": [{"size": "2"}]}}}}}, {"name": "MMNet/dec_block3/branch2/depthwise_conv_dilation/BatchToSpaceND/crops", "op": "Const", "attr": {"value": {"tensor": {"dtype": "DT_INT32", "tensorShape": {"dim": [{"size": "2"}, {"size": "2"}]}}}, "dtype": {"type": "DT_INT32"}}}, {"name": "MMNet/dec_block3/merge/concat/axis", "op": "Const", "attr": {"dtype": {"type": "DT_INT32"}, "value": {"tensor": {"dtype": "DT_INT32", "tensorShape": {}}}}}, {"name": "MMNet/dec_block4/resize_bilinear_0/size", "op": "Const", "attr": {"dtype": {"type": "DT_INT32"}, "value": {"tensor": {"dtype": "DT_INT32", "tensorShape": {"dim": [{"size": "2"}]}}}}}, {"name": "MMNet/dec_block4/resize_bilinear_1/size", "op": "Const", "attr": {"dtype": {"type": "DT_INT32"}, "value": {"tensor": {"dtype": "DT_INT32", "tensorShape": {"dim": [{"size": "2"}]}}}}}, {"name": "MMNet/final_block/pointwise_conv/weights", "op": "Const", "attr": {"dtype": {"type": "DT_FLOAT"}, "value": {"tensor": {"dtype": "DT_FLOAT", "tensorShape": {"dim": [{"size": "1"}, {"size": "1"}, {"size": "16"}, {"size": "2"}]}}}}}, {"name": "MMNet/final_block/pointwise_conv/biases", "op": "Const", "attr": {"dtype": {"type": "DT_FLOAT"}, "value": {"tensor": {"dtype": "DT_FLOAT", "tensorShape": {"dim": [{"size": "2"}]}}}}}, {"name": "output/softmax/Reshape/shape", "op": "Const", "attr": {"dtype": {"type": "DT_INT32"}, "value": {"tensor": {"dtype": "DT_INT32", "tensorShape": {"dim": [{"size": "2"}]}}}}}, {"name": "output/softmax/Shape", "op": "Const", "attr": {"dtype": {"type": "DT_INT32"}, "value": {"tensor": {"dtype": "DT_INT32", "tensorShape": {"dim": [{"size": "4"}]}}}}}, {"name": "MMNet/init_block/conv/Conv2D_weights", "op": "Const", "attr": {"dtype": {"type": "DT_FLOAT"}, "value": {"tensor": {"dtype": "DT_FLOAT", "tensorShape": {"dim": [{"size": "3"}, {"size": "3"}, {"size": "3"}, {"size": "32"}]}}}}}, {"name": "MMNet/enc_block5/branch1/depthwise_conv_dilation/BatchNorm/FusedBatchNorm/Scaled", "op": "Const", "attr": {"dtype": {"type": "DT_FLOAT"}, "value": {"tensor": {"dtype": "DT_FLOAT", "tensorShape": {"dim": [{"size": "64"}]}}}}}, {"name": "MMNet/init_block/conv/Conv2D_bn_offset", "op": "Const", "attr": {"dtype": {"type": "DT_FLOAT"}, "value": {"tensor": {"dtype": "DT_FLOAT", "tensorShape": {"dim": [{"size": "32"}]}}}}}, {"name": "MMNet/enc_block0/branch0/pointwise_conv/Conv2D_weights", "op": "Const", "attr": {"value": {"tensor": {"dtype": "DT_FLOAT", "tensorShape": {"dim": [{"size": "1"}, {"size": "1"}, {"size": "32"}, {"size": "16"}]}}}, "dtype": {"type": "DT_FLOAT"}}}, {"name": "MMNet/enc_block0/branch0/pointwise_conv/Conv2D_bn_offset", "op": "Const", "attr": {"dtype": {"type": "DT_FLOAT"}, "value": {"tensor": {"dtype": "DT_FLOAT", "tensorShape": {"dim": [{"size": "16"}]}}}}}, {"name": "MMNet/enc_block5/branch1/depthwise_conv_dilation/BatchNorm/FusedBatchNorm/Offset", "op": "Const", "attr": {"value": {"tensor": {"dtype": "DT_FLOAT", "tensorShape": {"dim": [{"size": "64"}]}}}, "dtype": {"type": "DT_FLOAT"}}}, {"name": "MMNet/enc_block0/branch1/pointwise_conv/Conv2D_weights", "op": "Const", "attr": {"value": {"tensor": {"dtype": "DT_FLOAT", "tensorShape": {"dim": [{"size": "1"}, {"size": "1"}, {"size": "32"}, {"size": "16"}]}}}, "dtype": {"type": "DT_FLOAT"}}}, {"name": "MMNet/enc_block0/branch1/pointwise_conv/Conv2D_bn_offset", "op": "Const", "attr": {"dtype": {"type": "DT_FLOAT"}, "value": {"tensor": {"dtype": "DT_FLOAT", "tensorShape": {"dim": [{"size": "16"}]}}}}}, {"name": "MMNet/enc_block0/branch2/pointwise_conv/Conv2D_weights", "op": "Const", "attr": {"dtype": {"type": "DT_FLOAT"}, "value": {"tensor": {"dtype": "DT_FLOAT", "tensorShape": {"dim": [{"size": "1"}, {"size": "1"}, {"size": "32"}, {"size": "16"}]}}}}}, {"name": "MMNet/enc_block0/branch2/pointwise_conv/Conv2D_bn_offset", "op": "Const", "attr": {"dtype": {"type": "DT_FLOAT"}, "value": {"tensor": {"dtype": "DT_FLOAT", "tensorShape": {"dim": [{"size": "16"}]}}}}}, {"name": "MMNet/enc_block4/branch2/depthwise_conv_dilation/BatchNorm/FusedBatchNorm/Scaled", "op": "Const", "attr": {"value": {"tensor": {"dtype": "DT_FLOAT", "tensorShape": {"dim": [{"size": "32"}]}}}, "dtype": {"type": "DT_FLOAT"}}}, {"name": "MMNet/enc_block0/branch3/pointwise_conv/Conv2D_weights", "op": "Const", "attr": {"value": {"tensor": {"dtype": "DT_FLOAT", "tensorShape": {"dim": [{"size": "1"}, {"size": "1"}, {"size": "32"}, {"size": "16"}]}}}, "dtype": {"type": "DT_FLOAT"}}}, {"name": "MMNet/enc_block0/branch3/pointwise_conv/Conv2D_bn_offset", "op": "Const", "attr": {"value": {"tensor": {"dtype": "DT_FLOAT", "tensorShape": {"dim": [{"size": "16"}]}}}, "dtype": {"type": "DT_FLOAT"}}}, {"name": "MMNet/enc_block0/branch0/depthwise_conv_stride/DepthwiseConv2dNative_weights", "op": "Const", "attr": {"dtype": {"type": "DT_FLOAT"}, "value": {"tensor": {"dtype": "DT_FLOAT", "tensorShape": {"dim": [{"size": "3"}, {"size": "3"}, {"size": "16"}, {"size": "1"}]}}}}}, {"name": "MMNet/enc_block0/branch0/depthwise_conv_stride/DepthwiseConv2dNative_bn_offset", "op": "Const", "attr": {"value": {"tensor": {"dtype": "DT_FLOAT", "tensorShape": {"dim": [{"size": "16"}]}}}, "dtype": {"type": "DT_FLOAT"}}}, {"name": "MMNet/enc_block0/branch1/depthwise_conv_stride/DepthwiseConv2dNative_weights", "op": "Const", "attr": {"value": {"tensor": {"dtype": "DT_FLOAT", "tensorShape": {"dim": [{"size": "3"}, {"size": "3"}, {"size": "16"}, {"size": "1"}]}}}, "dtype": {"type": "DT_FLOAT"}}}, {"name": "MMNet/enc_block0/branch1/depthwise_conv_stride/DepthwiseConv2dNative_bn_offset", "op": "Const", "attr": {"value": {"tensor": {"dtype": "DT_FLOAT", "tensorShape": {"dim": [{"size": "16"}]}}}, "dtype": {"type": "DT_FLOAT"}}}, {"name": "MMNet/enc_block0/branch2/depthwise_conv_stride/DepthwiseConv2dNative_weights", "op": "Const", "attr": {"dtype": {"type": "DT_FLOAT"}, "value": {"tensor": {"dtype": "DT_FLOAT", "tensorShape": {"dim": [{"size": "3"}, {"size": "3"}, {"size": "16"}, {"size": "1"}]}}}}}, {"name": "MMNet/enc_block0/branch2/depthwise_conv_stride/DepthwiseConv2dNative_bn_offset", "op": "Const", "attr": {"dtype": {"type": "DT_FLOAT"}, "value": {"tensor": {"dtype": "DT_FLOAT", "tensorShape": {"dim": [{"size": "16"}]}}}}}, {"name": "MMNet/enc_block0/branch3/depthwise_conv_stride/DepthwiseConv2dNative_weights", "op": "Const", "attr": {"value": {"tensor": {"dtype": "DT_FLOAT", "tensorShape": {"dim": [{"size": "3"}, {"size": "3"}, {"size": "16"}, {"size": "1"}]}}}, "dtype": {"type": "DT_FLOAT"}}}, {"name": "MMNet/enc_block0/branch3/depthwise_conv_stride/DepthwiseConv2dNative_bn_offset", "op": "Const", "attr": {"value": {"tensor": {"dtype": "DT_FLOAT", "tensorShape": {"dim": [{"size": "16"}]}}}, "dtype": {"type": "DT_FLOAT"}}}, {"name": "MMNet/enc_block0/branch0/depthwise_conv_dilation/DepthwiseConv2dNative_weights", "op": "Const", "attr": {"dtype": {"type": "DT_FLOAT"}, "value": {"tensor": {"dtype": "DT_FLOAT", "tensorShape": {"dim": [{"size": "3"}, {"size": "3"}, {"size": "16"}, {"size": "1"}]}}}}}, {"name": "MMNet/enc_block0/branch0/depthwise_conv_dilation/DepthwiseConv2dNative_bn_offset", "op": "Const", "attr": {"value": {"tensor": {"dtype": "DT_FLOAT", "tensorShape": {"dim": [{"size": "16"}]}}}, "dtype": {"type": "DT_FLOAT"}}}, {"name": "MMNet/enc_block0/merge/pointwise_conv/Conv2D_weights", "op": "Const", "attr": {"value": {"tensor": {"dtype": "DT_FLOAT", "tensorShape": {"dim": [{"size": "1"}, {"size": "1"}, {"size": "64"}, {"size": "16"}]}}}, "dtype": {"type": "DT_FLOAT"}}}, {"name": "MMNet/enc_block4/branch2/depthwise_conv_dilation/BatchNorm/FusedBatchNorm/Offset", "op": "Const", "attr": {"value": {"tensor": {"dtype": "DT_FLOAT", "tensorShape": {"dim": [{"size": "32"}]}}}, "dtype": {"type": "DT_FLOAT"}}}, {"name": "MMNet/enc_block0/merge/pointwise_conv/Conv2D_bn_offset", "op": "Const", "attr": {"value": {"tensor": {"dtype": "DT_FLOAT", "tensorShape": {"dim": [{"size": "16"}]}}}, "dtype": {"type": "DT_FLOAT"}}}, {"name": "MMNet/enc_block1/branch0/pointwise_conv/Conv2D_weights", "op": "Const", "attr": {"value": {"tensor": {"dtype": "DT_FLOAT", "tensorShape": {"dim": [{"size": "1"}, {"size": "1"}, {"size": "16"}, {"size": "16"}]}}}, "dtype": {"type": "DT_FLOAT"}}}, {"name": "MMNet/enc_block1/branch0/pointwise_conv/Conv2D_bn_offset", "op": "Const", "attr": {"dtype": {"type": "DT_FLOAT"}, "value": {"tensor": {"dtype": "DT_FLOAT", "tensorShape": {"dim": [{"size": "16"}]}}}}}, {"name": "MMNet/enc_block1/branch1/pointwise_conv/Conv2D_weights", "op": "Const", "attr": {"dtype": {"type": "DT_FLOAT"}, "value": {"tensor": {"dtype": "DT_FLOAT", "tensorShape": {"dim": [{"size": "1"}, {"size": "1"}, {"size": "16"}, {"size": "16"}]}}}}}, {"name": "MMNet/enc_block1/branch1/pointwise_conv/Conv2D_bn_offset", "op": "Const", "attr": {"dtype": {"type": "DT_FLOAT"}, "value": {"tensor": {"dtype": "DT_FLOAT", "tensorShape": {"dim": [{"size": "16"}]}}}}}, {"name": "MMNet/enc_block4/branch1/depthwise_conv_dilation/BatchNorm/FusedBatchNorm/Scaled", "op": "Const", "attr": {"value": {"tensor": {"dtype": "DT_FLOAT", "tensorShape": {"dim": [{"size": "32"}]}}}, "dtype": {"type": "DT_FLOAT"}}}, {"name": "MMNet/enc_block1/branch2/pointwise_conv/Conv2D_weights", "op": "Const", "attr": {"dtype": {"type": "DT_FLOAT"}, "value": {"tensor": {"dtype": "DT_FLOAT", "tensorShape": {"dim": [{"size": "1"}, {"size": "1"}, {"size": "16"}, {"size": "16"}]}}}}}, {"name": "MMNet/enc_block1/branch2/pointwise_conv/Conv2D_bn_offset", "op": "Const", "attr": {"dtype": {"type": "DT_FLOAT"}, "value": {"tensor": {"dtype": "DT_FLOAT", "tensorShape": {"dim": [{"size": "16"}]}}}}}, {"name": "MMNet/enc_block1/branch3/pointwise_conv/Conv2D_weights", "op": "Const", "attr": {"value": {"tensor": {"dtype": "DT_FLOAT", "tensorShape": {"dim": [{"size": "1"}, {"size": "1"}, {"size": "16"}, {"size": "16"}]}}}, "dtype": {"type": "DT_FLOAT"}}}, {"name": "MMNet/enc_block4/branch1/depthwise_conv_dilation/BatchNorm/FusedBatchNorm/Offset", "op": "Const", "attr": {"value": {"tensor": {"dtype": "DT_FLOAT", "tensorShape": {"dim": [{"size": "32"}]}}}, "dtype": {"type": "DT_FLOAT"}}}, {"name": "MMNet/enc_block1/branch3/pointwise_conv/Conv2D_bn_offset", "op": "Const", "attr": {"dtype": {"type": "DT_FLOAT"}, "value": {"tensor": {"dtype": "DT_FLOAT", "tensorShape": {"dim": [{"size": "16"}]}}}}}, {"name": "MMNet/dec_block1/shortcut/depthwise_conv/DepthwiseConv2dNative_weights", "op": "Const", "attr": {"value": {"tensor": {"dtype": "DT_FLOAT", "tensorShape": {"dim": [{"size": "3"}, {"size": "3"}, {"size": "16"}, {"size": "1"}]}}}, "dtype": {"type": "DT_FLOAT"}}}, {"name": "MMNet/dec_block1/shortcut/depthwise_conv/DepthwiseConv2dNative_bn_offset", "op": "Const", "attr": {"value": {"tensor": {"dtype": "DT_FLOAT", "tensorShape": {"dim": [{"size": "16"}]}}}, "dtype": {"type": "DT_FLOAT"}}}, {"name": "MMNet/enc_block1/branch0/depthwise_conv_dilation/DepthwiseConv2dNative_weights", "op": "Const", "attr": {"value": {"tensor": {"dtype": "DT_FLOAT", "tensorShape": {"dim": [{"size": "3"}, {"size": "3"}, {"size": "16"}, {"size": "1"}]}}}, "dtype": {"type": "DT_FLOAT"}}}, {"name": "MMNet/enc_block1/branch0/depthwise_conv_dilation/DepthwiseConv2dNative_bn_offset", "op": "Const", "attr": {"dtype": {"type": "DT_FLOAT"}, "value": {"tensor": {"dtype": "DT_FLOAT", "tensorShape": {"dim": [{"size": "16"}]}}}}}, {"name": "MMNet/dec_block1/shortcut/pointwise_conv/Conv2D_weights", "op": "Const", "attr": {"value": {"tensor": {"dtype": "DT_FLOAT", "tensorShape": {"dim": [{"size": "1"}, {"size": "1"}, {"size": "16"}, {"size": "40"}]}}}, "dtype": {"type": "DT_FLOAT"}}}, {"name": "MMNet/dec_block1/shortcut/pointwise_conv/Conv2D_bn_offset", "op": "Const", "attr": {"dtype": {"type": "DT_FLOAT"}, "value": {"tensor": {"dtype": "DT_FLOAT", "tensorShape": {"dim": [{"size": "40"}]}}}}}, {"name": "MMNet/enc_block1/merge/pointwise_conv/Conv2D_weights", "op": "Const", "attr": {"value": {"tensor": {"dtype": "DT_FLOAT", "tensorShape": {"dim": [{"size": "1"}, {"size": "1"}, {"size": "64"}, {"size": "24"}]}}}, "dtype": {"type": "DT_FLOAT"}}}, {"name": "MMNet/enc_block3/branch3/depthwise_conv_dilation/BatchNorm/FusedBatchNorm/Scaled", "op": "Const", "attr": {"dtype": {"type": "DT_FLOAT"}, "value": {"tensor": {"dtype": "DT_FLOAT", "tensorShape": {"dim": [{"size": "24"}]}}}}}, {"name": "MMNet/enc_block1/merge/pointwise_conv/Conv2D_bn_offset", "op": "Const", "attr": {"dtype": {"type": "DT_FLOAT"}, "value": {"tensor": {"dtype": "DT_FLOAT", "tensorShape": {"dim": [{"size": "24"}]}}}}}, {"name": "MMNet/enc_block2/branch0/pointwise_conv/Conv2D_weights", "op": "Const", "attr": {"dtype": {"type": "DT_FLOAT"}, "value": {"tensor": {"dtype": "DT_FLOAT", "tensorShape": {"dim": [{"size": "1"}, {"size": "1"}, {"size": "24"}, {"size": "24"}]}}}}}, {"name": "MMNet/enc_block2/branch0/pointwise_conv/Conv2D_bn_offset", "op": "Const", "attr": {"value": {"tensor": {"dtype": "DT_FLOAT", "tensorShape": {"dim": [{"size": "24"}]}}}, "dtype": {"type": "DT_FLOAT"}}}, {"name": "MMNet/enc_block2/branch1/pointwise_conv/Conv2D_weights", "op": "Const", "attr": {"dtype": {"type": "DT_FLOAT"}, "value": {"tensor": {"dtype": "DT_FLOAT", "tensorShape": {"dim": [{"size": "1"}, {"size": "1"}, {"size": "24"}, {"size": "24"}]}}}}}, {"name": "MMNet/enc_block3/branch3/depthwise_conv_dilation/BatchNorm/FusedBatchNorm/Offset", "op": "Const", "attr": {"dtype": {"type": "DT_FLOAT"}, "value": {"tensor": {"dtype": "DT_FLOAT", "tensorShape": {"dim": [{"size": "24"}]}}}}}, {"name": "MMNet/enc_block2/branch1/pointwise_conv/Conv2D_bn_offset", "op": "Const", "attr": {"dtype": {"type": "DT_FLOAT"}, "value": {"tensor": {"dtype": "DT_FLOAT", "tensorShape": {"dim": [{"size": "24"}]}}}}}, {"name": "MMNet/enc_block2/branch2/pointwise_conv/Conv2D_weights", "op": "Const", "attr": {"value": {"tensor": {"dtype": "DT_FLOAT", "tensorShape": {"dim": [{"size": "1"}, {"size": "1"}, {"size": "24"}, {"size": "24"}]}}}, "dtype": {"type": "DT_FLOAT"}}}, {"name": "MMNet/enc_block2/branch2/pointwise_conv/Conv2D_bn_offset", "op": "Const", "attr": {"value": {"tensor": {"dtype": "DT_FLOAT", "tensorShape": {"dim": [{"size": "24"}]}}}, "dtype": {"type": "DT_FLOAT"}}}, {"name": "MMNet/enc_block2/branch3/pointwise_conv/Conv2D_weights", "op": "Const", "attr": {"value": {"tensor": {"dtype": "DT_FLOAT", "tensorShape": {"dim": [{"size": "1"}, {"size": "1"}, {"size": "24"}, {"size": "24"}]}}}, "dtype": {"type": "DT_FLOAT"}}}, {"name": "MMNet/enc_block3/branch2/depthwise_conv_dilation/BatchNorm/FusedBatchNorm/Scaled", "op": "Const", "attr": {"value": {"tensor": {"dtype": "DT_FLOAT", "tensorShape": {"dim": [{"size": "24"}]}}}, "dtype": {"type": "DT_FLOAT"}}}, {"name": "MMNet/enc_block2/branch3/pointwise_conv/Conv2D_bn_offset", "op": "Const", "attr": {"dtype": {"type": "DT_FLOAT"}, "value": {"tensor": {"dtype": "DT_FLOAT", "tensorShape": {"dim": [{"size": "24"}]}}}}}, {"name": "MMNet/enc_block2/branch0/depthwise_conv_dilation/DepthwiseConv2dNative_weights", "op": "Const", "attr": {"dtype": {"type": "DT_FLOAT"}, "value": {"tensor": {"dtype": "DT_FLOAT", "tensorShape": {"dim": [{"size": "3"}, {"size": "3"}, {"size": "24"}, {"size": "1"}]}}}}}, {"name": "MMNet/enc_block2/branch0/depthwise_conv_dilation/DepthwiseConv2dNative_bn_offset", "op": "Const", "attr": {"dtype": {"type": "DT_FLOAT"}, "value": {"tensor": {"dtype": "DT_FLOAT", "tensorShape": {"dim": [{"size": "24"}]}}}}}, {"name": "MMNet/enc_block2/merge/pointwise_conv/Conv2D_weights", "op": "Const", "attr": {"dtype": {"type": "DT_FLOAT"}, "value": {"tensor": {"dtype": "DT_FLOAT", "tensorShape": {"dim": [{"size": "1"}, {"size": "1"}, {"size": "96"}, {"size": "24"}]}}}}}, {"name": "MMNet/enc_block2/merge/pointwise_conv/Conv2D_bn_offset", "op": "Const", "attr": {"value": {"tensor": {"dtype": "DT_FLOAT", "tensorShape": {"dim": [{"size": "24"}]}}}, "dtype": {"type": "DT_FLOAT"}}}, {"name": "MMNet/enc_block3/branch0/pointwise_conv/Conv2D_weights", "op": "Const", "attr": {"value": {"tensor": {"dtype": "DT_FLOAT", "tensorShape": {"dim": [{"size": "1"}, {"size": "1"}, {"size": "24"}, {"size": "24"}]}}}, "dtype": {"type": "DT_FLOAT"}}}, {"name": "MMNet/enc_block3/branch2/depthwise_conv_dilation/BatchNorm/FusedBatchNorm/Offset", "op": "Const", "attr": {"value": {"tensor": {"dtype": "DT_FLOAT", "tensorShape": {"dim": [{"size": "24"}]}}}, "dtype": {"type": "DT_FLOAT"}}}, {"name": "MMNet/enc_block3/branch0/pointwise_conv/Conv2D_bn_offset", "op": "Const", "attr": {"dtype": {"type": "DT_FLOAT"}, "value": {"tensor": {"dtype": "DT_FLOAT", "tensorShape": {"dim": [{"size": "24"}]}}}}}, {"name": "MMNet/enc_block3/branch1/pointwise_conv/Conv2D_weights", "op": "Const", "attr": {"dtype": {"type": "DT_FLOAT"}, "value": {"tensor": {"dtype": "DT_FLOAT", "tensorShape": {"dim": [{"size": "1"}, {"size": "1"}, {"size": "24"}, {"size": "24"}]}}}}}, {"name": "MMNet/enc_block3/branch1/pointwise_conv/Conv2D_bn_offset", "op": "Const", "attr": {"value": {"tensor": {"dtype": "DT_FLOAT", "tensorShape": {"dim": [{"size": "24"}]}}}, "dtype": {"type": "DT_FLOAT"}}}, {"name": "MMNet/enc_block3/branch2/pointwise_conv/Conv2D_weights", "op": "Const", "attr": {"value": {"tensor": {"dtype": "DT_FLOAT", "tensorShape": {"dim": [{"size": "1"}, {"size": "1"}, {"size": "24"}, {"size": "24"}]}}}, "dtype": {"type": "DT_FLOAT"}}}, {"name": "MMNet/enc_block3/branch1/depthwise_conv_dilation/BatchNorm/FusedBatchNorm/Scaled", "op": "Const", "attr": {"dtype": {"type": "DT_FLOAT"}, "value": {"tensor": {"dtype": "DT_FLOAT", "tensorShape": {"dim": [{"size": "24"}]}}}}}, {"name": "MMNet/enc_block3/branch2/pointwise_conv/Conv2D_bn_offset", "op": "Const", "attr": {"dtype": {"type": "DT_FLOAT"}, "value": {"tensor": {"dtype": "DT_FLOAT", "tensorShape": {"dim": [{"size": "24"}]}}}}}, {"name": "MMNet/enc_block3/branch3/pointwise_conv/Conv2D_weights", "op": "Const", "attr": {"value": {"tensor": {"dtype": "DT_FLOAT", "tensorShape": {"dim": [{"size": "1"}, {"size": "1"}, {"size": "24"}, {"size": "24"}]}}}, "dtype": {"type": "DT_FLOAT"}}}, {"name": "MMNet/enc_block3/branch3/pointwise_conv/Conv2D_bn_offset", "op": "Const", "attr": {"value": {"tensor": {"dtype": "DT_FLOAT", "tensorShape": {"dim": [{"size": "24"}]}}}, "dtype": {"type": "DT_FLOAT"}}}, {"name": "MMNet/enc_block3/branch1/depthwise_conv_dilation/BatchNorm/FusedBatchNorm/Offset", "op": "Const", "attr": {"dtype": {"type": "DT_FLOAT"}, "value": {"tensor": {"dtype": "DT_FLOAT", "tensorShape": {"dim": [{"size": "24"}]}}}}}, {"name": "MMNet/enc_block3/branch0/depthwise_conv_dilation/DepthwiseConv2dNative_weights", "op": "Const", "attr": {"value": {"tensor": {"dtype": "DT_FLOAT", "tensorShape": {"dim": [{"size": "3"}, {"size": "3"}, {"size": "24"}, {"size": "1"}]}}}, "dtype": {"type": "DT_FLOAT"}}}, {"name": "MMNet/enc_block3/branch0/depthwise_conv_dilation/DepthwiseConv2dNative_bn_offset", "op": "Const", "attr": {"dtype": {"type": "DT_FLOAT"}, "value": {"tensor": {"dtype": "DT_FLOAT", "tensorShape": {"dim": [{"size": "24"}]}}}}}, {"name": "MMNet/enc_block3/merge/pointwise_conv/Conv2D_weights", "op": "Const", "attr": {"dtype": {"type": "DT_FLOAT"}, "value": {"tensor": {"dtype": "DT_FLOAT", "tensorShape": {"dim": [{"size": "1"}, {"size": "1"}, {"size": "96"}, {"size": "24"}]}}}}}, {"name": "MMNet/enc_block3/merge/pointwise_conv/Conv2D_bn_offset", "op": "Const", "attr": {"dtype": {"type": "DT_FLOAT"}, "value": {"tensor": {"dtype": "DT_FLOAT", "tensorShape": {"dim": [{"size": "24"}]}}}}}, {"name": "MMNet/enc_block4/branch0/pointwise_conv/Conv2D_weights", "op": "Const", "attr": {"value": {"tensor": {"dtype": "DT_FLOAT", "tensorShape": {"dim": [{"size": "1"}, {"size": "1"}, {"size": "24"}, {"size": "32"}]}}}, "dtype": {"type": "DT_FLOAT"}}}, {"name": "MMNet/enc_block4/branch0/pointwise_conv/Conv2D_bn_offset", "op": "Const", "attr": {"value": {"tensor": {"dtype": "DT_FLOAT", "tensorShape": {"dim": [{"size": "32"}]}}}, "dtype": {"type": "DT_FLOAT"}}}, {"name": "MMNet/enc_block4/branch1/pointwise_conv/Conv2D_weights", "op": "Const", "attr": {"dtype": {"type": "DT_FLOAT"}, "value": {"tensor": {"dtype": "DT_FLOAT", "tensorShape": {"dim": [{"size": "1"}, {"size": "1"}, {"size": "24"}, {"size": "32"}]}}}}}, {"name": "MMNet/enc_block2/branch3/depthwise_conv_dilation/BatchNorm/FusedBatchNorm/Scaled", "op": "Const", "attr": {"dtype": {"type": "DT_FLOAT"}, "value": {"tensor": {"dtype": "DT_FLOAT", "tensorShape": {"dim": [{"size": "24"}]}}}}}, {"name": "MMNet/enc_block4/branch1/pointwise_conv/Conv2D_bn_offset", "op": "Const", "attr": {"value": {"tensor": {"dtype": "DT_FLOAT", "tensorShape": {"dim": [{"size": "32"}]}}}, "dtype": {"type": "DT_FLOAT"}}}, {"name": "MMNet/enc_block4/branch2/pointwise_conv/Conv2D_weights", "op": "Const", "attr": {"dtype": {"type": "DT_FLOAT"}, "value": {"tensor": {"dtype": "DT_FLOAT", "tensorShape": {"dim": [{"size": "1"}, {"size": "1"}, {"size": "24"}, {"size": "32"}]}}}}}, {"name": "MMNet/enc_block4/branch2/pointwise_conv/Conv2D_bn_offset", "op": "Const", "attr": {"dtype": {"type": "DT_FLOAT"}, "value": {"tensor": {"dtype": "DT_FLOAT", "tensorShape": {"dim": [{"size": "32"}]}}}}}, {"name": "MMNet/enc_block2/branch3/depthwise_conv_dilation/BatchNorm/FusedBatchNorm/Offset", "op": "Const", "attr": {"dtype": {"type": "DT_FLOAT"}, "value": {"tensor": {"dtype": "DT_FLOAT", "tensorShape": {"dim": [{"size": "24"}]}}}}}, {"name": "MMNet/enc_block4/branch0/depthwise_conv_stride/DepthwiseConv2dNative_weights", "op": "Const", "attr": {"value": {"tensor": {"dtype": "DT_FLOAT", "tensorShape": {"dim": [{"size": "3"}, {"size": "3"}, {"size": "32"}, {"size": "1"}]}}}, "dtype": {"type": "DT_FLOAT"}}}, {"name": "MMNet/enc_block4/branch0/depthwise_conv_stride/DepthwiseConv2dNative_bn_offset", "op": "Const", "attr": {"value": {"tensor": {"dtype": "DT_FLOAT", "tensorShape": {"dim": [{"size": "32"}]}}}, "dtype": {"type": "DT_FLOAT"}}}, {"name": "MMNet/enc_block4/branch1/depthwise_conv_stride/DepthwiseConv2dNative_weights", "op": "Const", "attr": {"dtype": {"type": "DT_FLOAT"}, "value": {"tensor": {"dtype": "DT_FLOAT", "tensorShape": {"dim": [{"size": "3"}, {"size": "3"}, {"size": "32"}, {"size": "1"}]}}}}}, {"name": "MMNet/enc_block4/branch1/depthwise_conv_stride/DepthwiseConv2dNative_bn_offset", "op": "Const", "attr": {"value": {"tensor": {"dtype": "DT_FLOAT", "tensorShape": {"dim": [{"size": "32"}]}}}, "dtype": {"type": "DT_FLOAT"}}}, {"name": "MMNet/enc_block4/branch2/depthwise_conv_stride/DepthwiseConv2dNative_weights", "op": "Const", "attr": {"value": {"tensor": {"dtype": "DT_FLOAT", "tensorShape": {"dim": [{"size": "3"}, {"size": "3"}, {"size": "32"}, {"size": "1"}]}}}, "dtype": {"type": "DT_FLOAT"}}}, {"name": "MMNet/enc_block4/branch2/depthwise_conv_stride/DepthwiseConv2dNative_bn_offset", "op": "Const", "attr": {"value": {"tensor": {"dtype": "DT_FLOAT", "tensorShape": {"dim": [{"size": "32"}]}}}, "dtype": {"type": "DT_FLOAT"}}}, {"name": "MMNet/enc_block4/branch0/depthwise_conv_dilation/DepthwiseConv2dNative_weights", "op": "Const", "attr": {"value": {"tensor": {"dtype": "DT_FLOAT", "tensorShape": {"dim": [{"size": "3"}, {"size": "3"}, {"size": "32"}, {"size": "1"}]}}}, "dtype": {"type": "DT_FLOAT"}}}, {"name": "MMNet/enc_block4/branch0/depthwise_conv_dilation/DepthwiseConv2dNative_bn_offset", "op": "Const", "attr": {"value": {"tensor": {"dtype": "DT_FLOAT", "tensorShape": {"dim": [{"size": "32"}]}}}, "dtype": {"type": "DT_FLOAT"}}}, {"name": "MMNet/enc_block4/merge/pointwise_conv/Conv2D_weights", "op": "Const", "attr": {"value": {"tensor": {"dtype": "DT_FLOAT", "tensorShape": {"dim": [{"size": "1"}, {"size": "1"}, {"size": "96"}, {"size": "40"}]}}}, "dtype": {"type": "DT_FLOAT"}}}, {"name": "MMNet/enc_block4/merge/pointwise_conv/Conv2D_bn_offset", "op": "Const", "attr": {"value": {"tensor": {"dtype": "DT_FLOAT", "tensorShape": {"dim": [{"size": "40"}]}}}, "dtype": {"type": "DT_FLOAT"}}}, {"name": "MMNet/enc_block5/branch0/pointwise_conv/Conv2D_weights", "op": "Const", "attr": {"value": {"tensor": {"dtype": "DT_FLOAT", "tensorShape": {"dim": [{"size": "1"}, {"size": "1"}, {"size": "40"}, {"size": "64"}]}}}, "dtype": {"type": "DT_FLOAT"}}}, {"name": "MMNet/enc_block5/branch0/pointwise_conv/Conv2D_bn_offset", "op": "Const", "attr": {"value": {"tensor": {"dtype": "DT_FLOAT", "tensorShape": {"dim": [{"size": "64"}]}}}, "dtype": {"type": "DT_FLOAT"}}}, {"name": "MMNet/enc_block5/branch1/pointwise_conv/Conv2D_weights", "op": "Const", "attr": {"value": {"tensor": {"dtype": "DT_FLOAT", "tensorShape": {"dim": [{"size": "1"}, {"size": "1"}, {"size": "40"}, {"size": "64"}]}}}, "dtype": {"type": "DT_FLOAT"}}}, {"name": "MMNet/enc_block2/branch2/depthwise_conv_dilation/BatchNorm/FusedBatchNorm/Scaled", "op": "Const", "attr": {"dtype": {"type": "DT_FLOAT"}, "value": {"tensor": {"dtype": "DT_FLOAT", "tensorShape": {"dim": [{"size": "24"}]}}}}}, {"name": "MMNet/enc_block5/branch1/pointwise_conv/Conv2D_bn_offset", "op": "Const", "attr": {"value": {"tensor": {"dtype": "DT_FLOAT", "tensorShape": {"dim": [{"size": "64"}]}}}, "dtype": {"type": "DT_FLOAT"}}}, {"name": "MMNet/enc_block5/branch2/pointwise_conv/Conv2D_weights", "op": "Const", "attr": {"value": {"tensor": {"dtype": "DT_FLOAT", "tensorShape": {"dim": [{"size": "1"}, {"size": "1"}, {"size": "40"}, {"size": "64"}]}}}, "dtype": {"type": "DT_FLOAT"}}}, {"name": "MMNet/enc_block5/branch2/pointwise_conv/Conv2D_bn_offset", "op": "Const", "attr": {"value": {"tensor": {"dtype": "DT_FLOAT", "tensorShape": {"dim": [{"size": "64"}]}}}, "dtype": {"type": "DT_FLOAT"}}}, {"name": "MMNet/enc_block2/branch2/depthwise_conv_dilation/BatchNorm/FusedBatchNorm/Offset", "op": "Const", "attr": {"value": {"tensor": {"dtype": "DT_FLOAT", "tensorShape": {"dim": [{"size": "24"}]}}}, "dtype": {"type": "DT_FLOAT"}}}, {"name": "MMNet/dec_block0/shortcut/depthwise_conv/DepthwiseConv2dNative_weights", "op": "Const", "attr": {"value": {"tensor": {"dtype": "DT_FLOAT", "tensorShape": {"dim": [{"size": "3"}, {"size": "3"}, {"size": "40"}, {"size": "1"}]}}}, "dtype": {"type": "DT_FLOAT"}}}, {"name": "MMNet/dec_block0/shortcut/depthwise_conv/DepthwiseConv2dNative_bn_offset", "op": "Const", "attr": {"dtype": {"type": "DT_FLOAT"}, "value": {"tensor": {"dtype": "DT_FLOAT", "tensorShape": {"dim": [{"size": "40"}]}}}}}, {"name": "MMNet/enc_block5/branch0/depthwise_conv_dilation/DepthwiseConv2dNative_weights", "op": "Const", "attr": {"value": {"tensor": {"dtype": "DT_FLOAT", "tensorShape": {"dim": [{"size": "3"}, {"size": "3"}, {"size": "64"}, {"size": "1"}]}}}, "dtype": {"type": "DT_FLOAT"}}}, {"name": "MMNet/enc_block5/branch0/depthwise_conv_dilation/DepthwiseConv2dNative_bn_offset", "op": "Const", "attr": {"dtype": {"type": "DT_FLOAT"}, "value": {"tensor": {"dtype": "DT_FLOAT", "tensorShape": {"dim": [{"size": "64"}]}}}}}, {"name": "MMNet/dec_block0/shortcut/pointwise_conv/Conv2D_weights", "op": "Const", "attr": {"dtype": {"type": "DT_FLOAT"}, "value": {"tensor": {"dtype": "DT_FLOAT", "tensorShape": {"dim": [{"size": "1"}, {"size": "1"}, {"size": "40"}, {"size": "64"}]}}}}}, {"name": "MMNet/dec_block0/shortcut/pointwise_conv/Conv2D_bn_offset", "op": "Const", "attr": {"value": {"tensor": {"dtype": "DT_FLOAT", "tensorShape": {"dim": [{"size": "64"}]}}}, "dtype": {"type": "DT_FLOAT"}}}, {"name": "MMNet/enc_block5/merge/pointwise_conv/Conv2D_weights", "op": "Const", "attr": {"value": {"tensor": {"dtype": "DT_FLOAT", "tensorShape": {"dim": [{"size": "1"}, {"size": "1"}, {"size": "192"}, {"size": "40"}]}}}, "dtype": {"type": "DT_FLOAT"}}}, {"name": "MMNet/enc_block5/merge/pointwise_conv/Conv2D_bn_offset", "op": "Const", "attr": {"value": {"tensor": {"dtype": "DT_FLOAT", "tensorShape": {"dim": [{"size": "40"}]}}}, "dtype": {"type": "DT_FLOAT"}}}, {"name": "MMNet/enc_block6/branch0/pointwise_conv/Conv2D_weights", "op": "Const", "attr": {"value": {"tensor": {"dtype": "DT_FLOAT", "tensorShape": {"dim": [{"size": "1"}, {"size": "1"}, {"size": "40"}, {"size": "64"}]}}}, "dtype": {"type": "DT_FLOAT"}}}, {"name": "MMNet/enc_block2/branch1/depthwise_conv_dilation/BatchNorm/FusedBatchNorm/Scaled", "op": "Const", "attr": {"dtype": {"type": "DT_FLOAT"}, "value": {"tensor": {"dtype": "DT_FLOAT", "tensorShape": {"dim": [{"size": "24"}]}}}}}, {"name": "MMNet/enc_block6/branch0/pointwise_conv/Conv2D_bn_offset", "op": "Const", "attr": {"dtype": {"type": "DT_FLOAT"}, "value": {"tensor": {"dtype": "DT_FLOAT", "tensorShape": {"dim": [{"size": "64"}]}}}}}, {"name": "MMNet/enc_block6/branch1/pointwise_conv/Conv2D_weights", "op": "Const", "attr": {"value": {"tensor": {"dtype": "DT_FLOAT", "tensorShape": {"dim": [{"size": "1"}, {"size": "1"}, {"size": "40"}, {"size": "64"}]}}}, "dtype": {"type": "DT_FLOAT"}}}, {"name": "MMNet/enc_block6/branch1/pointwise_conv/Conv2D_bn_offset", "op": "Const", "attr": {"value": {"tensor": {"dtype": "DT_FLOAT", "tensorShape": {"dim": [{"size": "64"}]}}}, "dtype": {"type": "DT_FLOAT"}}}, {"name": "MMNet/enc_block2/branch1/depthwise_conv_dilation/BatchNorm/FusedBatchNorm/Offset", "op": "Const", "attr": {"dtype": {"type": "DT_FLOAT"}, "value": {"tensor": {"dtype": "DT_FLOAT", "tensorShape": {"dim": [{"size": "24"}]}}}}}, {"name": "MMNet/enc_block6/branch2/pointwise_conv/Conv2D_weights", "op": "Const", "attr": {"value": {"tensor": {"dtype": "DT_FLOAT", "tensorShape": {"dim": [{"size": "1"}, {"size": "1"}, {"size": "40"}, {"size": "64"}]}}}, "dtype": {"type": "DT_FLOAT"}}}, {"name": "MMNet/enc_block6/branch2/pointwise_conv/Conv2D_bn_offset", "op": "Const", "attr": {"value": {"tensor": {"dtype": "DT_FLOAT", "tensorShape": {"dim": [{"size": "64"}]}}}, "dtype": {"type": "DT_FLOAT"}}}, {"name": "MMNet/enc_block6/branch0/depthwise_conv_dilation/DepthwiseConv2dNative_weights", "op": "Const", "attr": {"dtype": {"type": "DT_FLOAT"}, "value": {"tensor": {"dtype": "DT_FLOAT", "tensorShape": {"dim": [{"size": "3"}, {"size": "3"}, {"size": "64"}, {"size": "1"}]}}}}}, {"name": "MMNet/enc_block6/branch0/depthwise_conv_dilation/DepthwiseConv2dNative_bn_offset", "op": "Const", "attr": {"value": {"tensor": {"dtype": "DT_FLOAT", "tensorShape": {"dim": [{"size": "64"}]}}}, "dtype": {"type": "DT_FLOAT"}}}, {"name": "MMNet/enc_block6/merge/pointwise_conv/Conv2D_weights", "op": "Const", "attr": {"dtype": {"type": "DT_FLOAT"}, "value": {"tensor": {"dtype": "DT_FLOAT", "tensorShape": {"dim": [{"size": "1"}, {"size": "1"}, {"size": "192"}, {"size": "40"}]}}}}}, {"name": "MMNet/enc_block6/merge/pointwise_conv/Conv2D_bn_offset", "op": "Const", "attr": {"dtype": {"type": "DT_FLOAT"}, "value": {"tensor": {"dtype": "DT_FLOAT", "tensorShape": {"dim": [{"size": "40"}]}}}}}, {"name": "MMNet/enc_block7/branch0/pointwise_conv/Conv2D_weights", "op": "Const", "attr": {"value": {"tensor": {"dtype": "DT_FLOAT", "tensorShape": {"dim": [{"size": "1"}, {"size": "1"}, {"size": "40"}, {"size": "64"}]}}}, "dtype": {"type": "DT_FLOAT"}}}, {"name": "MMNet/enc_block1/branch3/depthwise_conv_dilation/BatchNorm/FusedBatchNorm/Scaled", "op": "Const", "attr": {"dtype": {"type": "DT_FLOAT"}, "value": {"tensor": {"dtype": "DT_FLOAT", "tensorShape": {"dim": [{"size": "16"}]}}}}}, {"name": "MMNet/enc_block7/branch0/pointwise_conv/Conv2D_bn_offset", "op": "Const", "attr": {"value": {"tensor": {"dtype": "DT_FLOAT", "tensorShape": {"dim": [{"size": "64"}]}}}, "dtype": {"type": "DT_FLOAT"}}}, {"name": "MMNet/enc_block7/branch1/pointwise_conv/Conv2D_weights", "op": "Const", "attr": {"dtype": {"type": "DT_FLOAT"}, "value": {"tensor": {"dtype": "DT_FLOAT", "tensorShape": {"dim": [{"size": "1"}, {"size": "1"}, {"size": "40"}, {"size": "64"}]}}}}}, {"name": "MMNet/enc_block7/branch1/pointwise_conv/Conv2D_bn_offset", "op": "Const", "attr": {"value": {"tensor": {"dtype": "DT_FLOAT", "tensorShape": {"dim": [{"size": "64"}]}}}, "dtype": {"type": "DT_FLOAT"}}}, {"name": "MMNet/enc_block1/branch3/depthwise_conv_dilation/BatchNorm/FusedBatchNorm/Offset", "op": "Const", "attr": {"value": {"tensor": {"dtype": "DT_FLOAT", "tensorShape": {"dim": [{"size": "16"}]}}}, "dtype": {"type": "DT_FLOAT"}}}, {"name": "MMNet/enc_block7/branch2/pointwise_conv/Conv2D_weights", "op": "Const", "attr": {"dtype": {"type": "DT_FLOAT"}, "value": {"tensor": {"dtype": "DT_FLOAT", "tensorShape": {"dim": [{"size": "1"}, {"size": "1"}, {"size": "40"}, {"size": "64"}]}}}}}, {"name": "MMNet/enc_block7/branch2/pointwise_conv/Conv2D_bn_offset", "op": "Const", "attr": {"value": {"tensor": {"dtype": "DT_FLOAT", "tensorShape": {"dim": [{"size": "64"}]}}}, "dtype": {"type": "DT_FLOAT"}}}, {"name": "MMNet/enc_block7/branch0/depthwise_conv_dilation/DepthwiseConv2dNative_weights", "op": "Const", "attr": {"value": {"tensor": {"dtype": "DT_FLOAT", "tensorShape": {"dim": [{"size": "3"}, {"size": "3"}, {"size": "64"}, {"size": "1"}]}}}, "dtype": {"type": "DT_FLOAT"}}}, {"name": "MMNet/enc_block7/branch0/depthwise_conv_dilation/DepthwiseConv2dNative_bn_offset", "op": "Const", "attr": {"value": {"tensor": {"dtype": "DT_FLOAT", "tensorShape": {"dim": [{"size": "64"}]}}}, "dtype": {"type": "DT_FLOAT"}}}, {"name": "MMNet/enc_block7/merge/pointwise_conv/Conv2D_weights", "op": "Const", "attr": {"dtype": {"type": "DT_FLOAT"}, "value": {"tensor": {"dtype": "DT_FLOAT", "tensorShape": {"dim": [{"size": "1"}, {"size": "1"}, {"size": "192"}, {"size": "40"}]}}}}}, {"name": "MMNet/enc_block7/merge/pointwise_conv/Conv2D_bn_offset", "op": "Const", "attr": {"value": {"tensor": {"dtype": "DT_FLOAT", "tensorShape": {"dim": [{"size": "40"}]}}}, "dtype": {"type": "DT_FLOAT"}}}, {"name": "MMNet/enc_block8/branch0/pointwise_conv/Conv2D_weights", "op": "Const", "attr": {"dtype": {"type": "DT_FLOAT"}, "value": {"tensor": {"dtype": "DT_FLOAT", "tensorShape": {"dim": [{"size": "1"}, {"size": "1"}, {"size": "40"}, {"size": "80"}]}}}}}, {"name": "MMNet/enc_block1/branch2/depthwise_conv_dilation/BatchNorm/FusedBatchNorm/Scaled", "op": "Const", "attr": {"value": {"tensor": {"dtype": "DT_FLOAT", "tensorShape": {"dim": [{"size": "16"}]}}}, "dtype": {"type": "DT_FLOAT"}}}, {"name": "MMNet/enc_block8/branch0/pointwise_conv/Conv2D_bn_offset", "op": "Const", "attr": {"value": {"tensor": {"dtype": "DT_FLOAT", "tensorShape": {"dim": [{"size": "80"}]}}}, "dtype": {"type": "DT_FLOAT"}}}, {"name": "MMNet/enc_block8/branch1/pointwise_conv/Conv2D_weights", "op": "Const", "attr": {"value": {"tensor": {"dtype": "DT_FLOAT", "tensorShape": {"dim": [{"size": "1"}, {"size": "1"}, {"size": "40"}, {"size": "80"}]}}}, "dtype": {"type": "DT_FLOAT"}}}, {"name": "MMNet/enc_block8/branch1/pointwise_conv/Conv2D_bn_offset", "op": "Const", "attr": {"dtype": {"type": "DT_FLOAT"}, "value": {"tensor": {"dtype": "DT_FLOAT", "tensorShape": {"dim": [{"size": "80"}]}}}}}, {"name": "MMNet/enc_block1/branch2/depthwise_conv_dilation/BatchNorm/FusedBatchNorm/Offset", "op": "Const", "attr": {"dtype": {"type": "DT_FLOAT"}, "value": {"tensor": {"dtype": "DT_FLOAT", "tensorShape": {"dim": [{"size": "16"}]}}}}}, {"name": "MMNet/enc_block8/branch0/depthwise_conv_stride/DepthwiseConv2dNative_weights", "op": "Const", "attr": {"value": {"tensor": {"dtype": "DT_FLOAT", "tensorShape": {"dim": [{"size": "3"}, {"size": "3"}, {"size": "80"}, {"size": "1"}]}}}, "dtype": {"type": "DT_FLOAT"}}}, {"name": "MMNet/enc_block8/branch0/depthwise_conv_stride/DepthwiseConv2dNative_bn_offset", "op": "Const", "attr": {"dtype": {"type": "DT_FLOAT"}, "value": {"tensor": {"dtype": "DT_FLOAT", "tensorShape": {"dim": [{"size": "80"}]}}}}}, {"name": "MMNet/enc_block8/branch1/depthwise_conv_stride/DepthwiseConv2dNative_weights", "op": "Const", "attr": {"value": {"tensor": {"dtype": "DT_FLOAT", "tensorShape": {"dim": [{"size": "3"}, {"size": "3"}, {"size": "80"}, {"size": "1"}]}}}, "dtype": {"type": "DT_FLOAT"}}}, {"name": "MMNet/enc_block8/branch1/depthwise_conv_stride/DepthwiseConv2dNative_bn_offset", "op": "Const", "attr": {"value": {"tensor": {"dtype": "DT_FLOAT", "tensorShape": {"dim": [{"size": "80"}]}}}, "dtype": {"type": "DT_FLOAT"}}}, {"name": "MMNet/enc_block8/branch0/depthwise_conv_dilation/DepthwiseConv2dNative_weights", "op": "Const", "attr": {"value": {"tensor": {"dtype": "DT_FLOAT", "tensorShape": {"dim": [{"size": "3"}, {"size": "3"}, {"size": "80"}, {"size": "1"}]}}}, "dtype": {"type": "DT_FLOAT"}}}, {"name": "MMNet/enc_block8/branch0/depthwise_conv_dilation/DepthwiseConv2dNative_bn_offset", "op": "Const", "attr": {"value": {"tensor": {"dtype": "DT_FLOAT", "tensorShape": {"dim": [{"size": "80"}]}}}, "dtype": {"type": "DT_FLOAT"}}}, {"name": "MMNet/enc_block8/merge/pointwise_conv/Conv2D_weights", "op": "Const", "attr": {"dtype": {"type": "DT_FLOAT"}, "value": {"tensor": {"dtype": "DT_FLOAT", "tensorShape": {"dim": [{"size": "1"}, {"size": "1"}, {"size": "160"}, {"size": "80"}]}}}}}, {"name": "MMNet/enc_block8/merge/pointwise_conv/Conv2D_bn_offset", "op": "Const", "attr": {"value": {"tensor": {"dtype": "DT_FLOAT", "tensorShape": {"dim": [{"size": "80"}]}}}, "dtype": {"type": "DT_FLOAT"}}}, {"name": "MMNet/enc_block9/branch0/pointwise_conv/Conv2D_weights", "op": "Const", "attr": {"value": {"tensor": {"dtype": "DT_FLOAT", "tensorShape": {"dim": [{"size": "1"}, {"size": "1"}, {"size": "80"}, {"size": "120"}]}}}, "dtype": {"type": "DT_FLOAT"}}}, {"name": "MMNet/enc_block9/branch0/pointwise_conv/Conv2D_bn_offset", "op": "Const", "attr": {"value": {"tensor": {"dtype": "DT_FLOAT", "tensorShape": {"dim": [{"size": "120"}]}}}, "dtype": {"type": "DT_FLOAT"}}}, {"name": "MMNet/enc_block9/branch1/pointwise_conv/Conv2D_weights", "op": "Const", "attr": {"value": {"tensor": {"dtype": "DT_FLOAT", "tensorShape": {"dim": [{"size": "1"}, {"size": "1"}, {"size": "80"}, {"size": "120"}]}}}, "dtype": {"type": "DT_FLOAT"}}}, {"name": "MMNet/enc_block1/branch1/depthwise_conv_dilation/BatchNorm/FusedBatchNorm/Scaled", "op": "Const", "attr": {"value": {"tensor": {"dtype": "DT_FLOAT", "tensorShape": {"dim": [{"size": "16"}]}}}, "dtype": {"type": "DT_FLOAT"}}}, {"name": "MMNet/enc_block9/branch1/pointwise_conv/Conv2D_bn_offset", "op": "Const", "attr": {"dtype": {"type": "DT_FLOAT"}, "value": {"tensor": {"dtype": "DT_FLOAT", "tensorShape": {"dim": [{"size": "120"}]}}}}}, {"name": "MMNet/enc_block9/branch0/depthwise_conv_dilation/DepthwiseConv2dNative_weights", "op": "Const", "attr": {"dtype": {"type": "DT_FLOAT"}, "value": {"tensor": {"dtype": "DT_FLOAT", "tensorShape": {"dim": [{"size": "3"}, {"size": "3"}, {"size": "120"}, {"size": "1"}]}}}}}, {"name": "MMNet/enc_block9/branch0/depthwise_conv_dilation/DepthwiseConv2dNative_bn_offset", "op": "Const", "attr": {"value": {"tensor": {"dtype": "DT_FLOAT", "tensorShape": {"dim": [{"size": "120"}]}}}, "dtype": {"type": "DT_FLOAT"}}}, {"name": "MMNet/enc_block9/merge/pointwise_conv/Conv2D_weights", "op": "Const", "attr": {"dtype": {"type": "DT_FLOAT"}, "value": {"tensor": {"dtype": "DT_FLOAT", "tensorShape": {"dim": [{"size": "1"}, {"size": "1"}, {"size": "240"}, {"size": "80"}]}}}}}, {"name": "MMNet/enc_block9/merge/pointwise_conv/Conv2D_bn_offset", "op": "Const", "attr": {"value": {"tensor": {"dtype": "DT_FLOAT", "tensorShape": {"dim": [{"size": "80"}]}}}, "dtype": {"type": "DT_FLOAT"}}}, {"name": "MMNet/enc_block1/branch1/depthwise_conv_dilation/BatchNorm/FusedBatchNorm/Offset", "op": "Const", "attr": {"dtype": {"type": "DT_FLOAT"}, "value": {"tensor": {"dtype": "DT_FLOAT", "tensorShape": {"dim": [{"size": "16"}]}}}}}, {"name": "MMNet/dec_block0/pointwise_conv/Conv2D_weights", "op": "Const", "attr": {"value": {"tensor": {"dtype": "DT_FLOAT", "tensorShape": {"dim": [{"size": "1"}, {"size": "1"}, {"size": "80"}, {"size": "64"}]}}}, "dtype": {"type": "DT_FLOAT"}}}, {"name": "MMNet/dec_block0/pointwise_conv/Conv2D_bn_offset", "op": "Const", "attr": {"dtype": {"type": "DT_FLOAT"}, "value": {"tensor": {"dtype": "DT_FLOAT", "tensorShape": {"dim": [{"size": "64"}]}}}}}, {"name": "MMNet/dec_block1/pointwise_conv/Conv2D_weights", "op": "Const", "attr": {"value": {"tensor": {"dtype": "DT_FLOAT", "tensorShape": {"dim": [{"size": "1"}, {"size": "1"}, {"size": "128"}, {"size": "40"}]}}}, "dtype": {"type": "DT_FLOAT"}}}, {"name": "MMNet/dec_block1/pointwise_conv/Conv2D_bn_offset", "op": "Const", "attr": {"dtype": {"type": "DT_FLOAT"}, "value": {"tensor": {"dtype": "DT_FLOAT", "tensorShape": {"dim": [{"size": "40"}]}}}}}, {"name": "MMNet/enc_block0/branch3/depthwise_conv_dilation/BatchNorm/FusedBatchNorm/Scaled", "op": "Const", "attr": {"dtype": {"type": "DT_FLOAT"}, "value": {"tensor": {"dtype": "DT_FLOAT", "tensorShape": {"dim": [{"size": "16"}]}}}}}, {"name": "MMNet/dec_block2/branch0/pointwise_conv/Conv2D_weights", "op": "Const", "attr": {"dtype": {"type": "DT_FLOAT"}, "value": {"tensor": {"dtype": "DT_FLOAT", "tensorShape": {"dim": [{"size": "1"}, {"size": "1"}, {"size": "80"}, {"size": "40"}]}}}}}, {"name": "MMNet/dec_block2/branch0/pointwise_conv/Conv2D_bn_offset", "op": "Const", "attr": {"value": {"tensor": {"dtype": "DT_FLOAT", "tensorShape": {"dim": [{"size": "40"}]}}}, "dtype": {"type": "DT_FLOAT"}}}, {"name": "MMNet/dec_block2/branch1/pointwise_conv/Conv2D_weights", "op": "Const", "attr": {"dtype": {"type": "DT_FLOAT"}, "value": {"tensor": {"dtype": "DT_FLOAT", "tensorShape": {"dim": [{"size": "1"}, {"size": "1"}, {"size": "80"}, {"size": "40"}]}}}}}, {"name": "MMNet/enc_block0/branch3/depthwise_conv_dilation/BatchNorm/FusedBatchNorm/Offset", "op": "Const", "attr": {"dtype": {"type": "DT_FLOAT"}, "value": {"tensor": {"dtype": "DT_FLOAT", "tensorShape": {"dim": [{"size": "16"}]}}}}}, {"name": "MMNet/dec_block2/branch1/pointwise_conv/Conv2D_bn_offset", "op": "Const", "attr": {"value": {"tensor": {"dtype": "DT_FLOAT", "tensorShape": {"dim": [{"size": "40"}]}}}, "dtype": {"type": "DT_FLOAT"}}}, {"name": "MMNet/dec_block2/branch2/pointwise_conv/Conv2D_weights", "op": "Const", "attr": {"dtype": {"type": "DT_FLOAT"}, "value": {"tensor": {"dtype": "DT_FLOAT", "tensorShape": {"dim": [{"size": "1"}, {"size": "1"}, {"size": "80"}, {"size": "40"}]}}}}}, {"name": "MMNet/dec_block2/branch2/pointwise_conv/Conv2D_bn_offset", "op": "Const", "attr": {"dtype": {"type": "DT_FLOAT"}, "value": {"tensor": {"dtype": "DT_FLOAT", "tensorShape": {"dim": [{"size": "40"}]}}}}}, {"name": "MMNet/dec_block2/branch0/depthwise_conv_dilation/DepthwiseConv2dNative_weights", "op": "Const", "attr": {"dtype": {"type": "DT_FLOAT"}, "value": {"tensor": {"dtype": "DT_FLOAT", "tensorShape": {"dim": [{"size": "3"}, {"size": "3"}, {"size": "40"}, {"size": "1"}]}}}}}, {"name": "MMNet/dec_block2/branch0/depthwise_conv_dilation/DepthwiseConv2dNative_bn_offset", "op": "Const", "attr": {"value": {"tensor": {"dtype": "DT_FLOAT", "tensorShape": {"dim": [{"size": "40"}]}}}, "dtype": {"type": "DT_FLOAT"}}}, {"name": "MMNet/dec_block2/merge/pointwise_conv/Conv2D_weights", "op": "Const", "attr": {"dtype": {"type": "DT_FLOAT"}, "value": {"tensor": {"dtype": "DT_FLOAT", "tensorShape": {"dim": [{"size": "1"}, {"size": "1"}, {"size": "120"}, {"size": "40"}]}}}}}, {"name": "MMNet/enc_block0/branch2/depthwise_conv_dilation/BatchNorm/FusedBatchNorm/Scaled", "op": "Const", "attr": {"value": {"tensor": {"dtype": "DT_FLOAT", "tensorShape": {"dim": [{"size": "16"}]}}}, "dtype": {"type": "DT_FLOAT"}}}, {"name": "MMNet/dec_block2/merge/pointwise_conv/Conv2D_bn_offset", "op": "Const", "attr": {"dtype": {"type": "DT_FLOAT"}, "value": {"tensor": {"dtype": "DT_FLOAT", "tensorShape": {"dim": [{"size": "40"}]}}}}}, {"name": "MMNet/dec_block3/branch0/pointwise_conv/Conv2D_weights", "op": "Const", "attr": {"dtype": {"type": "DT_FLOAT"}, "value": {"tensor": {"dtype": "DT_FLOAT", "tensorShape": {"dim": [{"size": "1"}, {"size": "1"}, {"size": "40"}, {"size": "40"}]}}}}}, {"name": "MMNet/dec_block3/branch0/pointwise_conv/Conv2D_bn_offset", "op": "Const", "attr": {"value": {"tensor": {"dtype": "DT_FLOAT", "tensorShape": {"dim": [{"size": "40"}]}}}, "dtype": {"type": "DT_FLOAT"}}}, {"name": "MMNet/dec_block3/branch1/pointwise_conv/Conv2D_weights", "op": "Const", "attr": {"value": {"tensor": {"dtype": "DT_FLOAT", "tensorShape": {"dim": [{"size": "1"}, {"size": "1"}, {"size": "40"}, {"size": "40"}]}}}, "dtype": {"type": "DT_FLOAT"}}}, {"name": "MMNet/enc_block0/branch2/depthwise_conv_dilation/BatchNorm/FusedBatchNorm/Offset", "op": "Const", "attr": {"value": {"tensor": {"dtype": "DT_FLOAT", "tensorShape": {"dim": [{"size": "16"}]}}}, "dtype": {"type": "DT_FLOAT"}}}, {"name": "MMNet/dec_block3/branch1/pointwise_conv/Conv2D_bn_offset", "op": "Const", "attr": {"value": {"tensor": {"dtype": "DT_FLOAT", "tensorShape": {"dim": [{"size": "40"}]}}}, "dtype": {"type": "DT_FLOAT"}}}, {"name": "MMNet/dec_block3/branch2/pointwise_conv/Conv2D_weights", "op": "Const", "attr": {"dtype": {"type": "DT_FLOAT"}, "value": {"tensor": {"dtype": "DT_FLOAT", "tensorShape": {"dim": [{"size": "1"}, {"size": "1"}, {"size": "40"}, {"size": "40"}]}}}}}, {"name": "MMNet/dec_block3/branch2/pointwise_conv/Conv2D_bn_offset", "op": "Const", "attr": {"dtype": {"type": "DT_FLOAT"}, "value": {"tensor": {"dtype": "DT_FLOAT", "tensorShape": {"dim": [{"size": "40"}]}}}}}, {"name": "MMNet/dec_block3/branch0/depthwise_conv_dilation/DepthwiseConv2dNative_weights", "op": "Const", "attr": {"value": {"tensor": {"dtype": "DT_FLOAT", "tensorShape": {"dim": [{"size": "3"}, {"size": "3"}, {"size": "40"}, {"size": "1"}]}}}, "dtype": {"type": "DT_FLOAT"}}}, {"name": "MMNet/dec_block3/branch0/depthwise_conv_dilation/DepthwiseConv2dNative_bn_offset", "op": "Const", "attr": {"dtype": {"type": "DT_FLOAT"}, "value": {"tensor": {"dtype": "DT_FLOAT", "tensorShape": {"dim": [{"size": "40"}]}}}}}, {"name": "MMNet/dec_block3/merge/pointwise_conv/Conv2D_weights", "op": "Const", "attr": {"value": {"tensor": {"dtype": "DT_FLOAT", "tensorShape": {"dim": [{"size": "1"}, {"size": "1"}, {"size": "120"}, {"size": "40"}]}}}, "dtype": {"type": "DT_FLOAT"}}}, {"name": "MMNet/enc_block0/branch1/depthwise_conv_dilation/BatchNorm/FusedBatchNorm/Scaled", "op": "Const", "attr": {"value": {"tensor": {"dtype": "DT_FLOAT", "tensorShape": {"dim": [{"size": "16"}]}}}, "dtype": {"type": "DT_FLOAT"}}}, {"name": "MMNet/dec_block3/merge/pointwise_conv/Conv2D_bn_offset", "op": "Const", "attr": {"dtype": {"type": "DT_FLOAT"}, "value": {"tensor": {"dtype": "DT_FLOAT", "tensorShape": {"dim": [{"size": "40"}]}}}}}, {"name": "MMNet/dec_block4/pointwise_conv/Conv2D_weights", "op": "Const", "attr": {"value": {"tensor": {"dtype": "DT_FLOAT", "tensorShape": {"dim": [{"size": "1"}, {"size": "1"}, {"size": "40"}, {"size": "16"}]}}}, "dtype": {"type": "DT_FLOAT"}}}, {"name": "MMNet/dec_block4/pointwise_conv/Conv2D_bn_offset", "op": "Const", "attr": {"dtype": {"type": "DT_FLOAT"}, "value": {"tensor": {"dtype": "DT_FLOAT", "tensorShape": {"dim": [{"size": "16"}]}}}}}, {"name": "MMNet/enc_block0/branch1/depthwise_conv_dilation/BatchNorm/FusedBatchNorm/Offset", "op": "Const", "attr": {"value": {"tensor": {"dtype": "DT_FLOAT", "tensorShape": {"dim": [{"size": "16"}]}}}, "dtype": {"type": "DT_FLOAT"}}}, {"name": "MMNet/dec_block3/branch2/depthwise_conv_dilation/BatchNorm/FusedBatchNorm/Scaled", "op": "Const", "attr": {"dtype": {"type": "DT_FLOAT"}, "value": {"tensor": {"dtype": "DT_FLOAT", "tensorShape": {"dim": [{"size": "40"}]}}}}}, {"name": "MMNet/dec_block3/branch2/depthwise_conv_dilation/BatchNorm/FusedBatchNorm/Offset", "op": "Const", "attr": {"value": {"tensor": {"dtype": "DT_FLOAT", "tensorShape": {"dim": [{"size": "40"}]}}}, "dtype": {"type": "DT_FLOAT"}}}, {"name": "MMNet/dec_block3/branch1/depthwise_conv_dilation/BatchNorm/FusedBatchNorm/Scaled", "op": "Const", "attr": {"dtype": {"type": "DT_FLOAT"}, "value": {"tensor": {"dtype": "DT_FLOAT", "tensorShape": {"dim": [{"size": "40"}]}}}}}, {"name": "MMNet/dec_block3/branch1/depthwise_conv_dilation/BatchNorm/FusedBatchNorm/Offset", "op": "Const", "attr": {"value": {"tensor": {"dtype": "DT_FLOAT", "tensorShape": {"dim": [{"size": "40"}]}}}, "dtype": {"type": "DT_FLOAT"}}}, {"name": "MMNet/dec_block2/branch2/depthwise_conv_dilation/BatchNorm/FusedBatchNorm/Scaled", "op": "Const", "attr": {"dtype": {"type": "DT_FLOAT"}, "value": {"tensor": {"dtype": "DT_FLOAT", "tensorShape": {"dim": [{"size": "40"}]}}}}}, {"name": "MMNet/dec_block2/branch2/depthwise_conv_dilation/BatchNorm/FusedBatchNorm/Offset", "op": "Const", "attr": {"value": {"tensor": {"dtype": "DT_FLOAT", "tensorShape": {"dim": [{"size": "40"}]}}}, "dtype": {"type": "DT_FLOAT"}}}, {"name": "MMNet/dec_block2/branch1/depthwise_conv_dilation/BatchNorm/FusedBatchNorm/Scaled", "op": "Const", "attr": {"value": {"tensor": {"dtype": "DT_FLOAT", "tensorShape": {"dim": [{"size": "40"}]}}}, "dtype": {"type": "DT_FLOAT"}}}, {"name": "MMNet/dec_block2/branch1/depthwise_conv_dilation/BatchNorm/FusedBatchNorm/Offset", "op": "Const", "attr": {"value": {"tensor": {"dtype": "DT_FLOAT", "tensorShape": {"dim": [{"size": "40"}]}}}, "dtype": {"type": "DT_FLOAT"}}}, {"name": "MMNet/enc_block9/branch1/depthwise_conv_dilation/BatchNorm/FusedBatchNorm/Scaled", "op": "Const", "attr": {"dtype": {"type": "DT_FLOAT"}, "value": {"tensor": {"dtype": "DT_FLOAT", "tensorShape": {"dim": [{"size": "120"}]}}}}}, {"name": "MMNet/enc_block9/branch1/depthwise_conv_dilation/BatchNorm/FusedBatchNorm/Offset", "op": "Const", "attr": {"dtype": {"type": "DT_FLOAT"}, "value": {"tensor": {"dtype": "DT_FLOAT", "tensorShape": {"dim": [{"size": "120"}]}}}}}, {"name": "MMNet/enc_block8/branch1/depthwise_conv_dilation/BatchNorm/FusedBatchNorm/Scaled", "op": "Const", "attr": {"dtype": {"type": "DT_FLOAT"}, "value": {"tensor": {"dtype": "DT_FLOAT", "tensorShape": {"dim": [{"size": "80"}]}}}}}, {"name": "MMNet/enc_block8/branch1/depthwise_conv_dilation/BatchNorm/FusedBatchNorm/Offset", "op": "Const", "attr": {"value": {"tensor": {"dtype": "DT_FLOAT", "tensorShape": {"dim": [{"size": "80"}]}}}, "dtype": {"type": "DT_FLOAT"}}}, {"name": "MMNet/enc_block7/branch2/depthwise_conv_dilation/BatchNorm/FusedBatchNorm/Scaled", "op": "Const", "attr": {"dtype": {"type": "DT_FLOAT"}, "value": {"tensor": {"dtype": "DT_FLOAT", "tensorShape": {"dim": [{"size": "64"}]}}}}}, {"name": "MMNet/enc_block7/branch2/depthwise_conv_dilation/BatchNorm/FusedBatchNorm/Offset", "op": "Const", "attr": {"dtype": {"type": "DT_FLOAT"}, "value": {"tensor": {"dtype": "DT_FLOAT", "tensorShape": {"dim": [{"size": "64"}]}}}}}, {"name": "MMNet/enc_block7/branch1/depthwise_conv_dilation/BatchNorm/FusedBatchNorm/Scaled", "op": "Const", "attr": {"dtype": {"type": "DT_FLOAT"}, "value": {"tensor": {"dtype": "DT_FLOAT", "tensorShape": {"dim": [{"size": "64"}]}}}}}, {"name": "MMNet/enc_block7/branch1/depthwise_conv_dilation/BatchNorm/FusedBatchNorm/Offset", "op": "Const", "attr": {"value": {"tensor": {"dtype": "DT_FLOAT", "tensorShape": {"dim": [{"size": "64"}]}}}, "dtype": {"type": "DT_FLOAT"}}}, {"name": "MMNet/enc_block6/branch2/depthwise_conv_dilation/BatchNorm/FusedBatchNorm/Scaled", "op": "Const", "attr": {"dtype": {"type": "DT_FLOAT"}, "value": {"tensor": {"dtype": "DT_FLOAT", "tensorShape": {"dim": [{"size": "64"}]}}}}}, {"name": "MMNet/enc_block6/branch2/depthwise_conv_dilation/BatchNorm/FusedBatchNorm/Offset", "op": "Const", "attr": {"value": {"tensor": {"dtype": "DT_FLOAT", "tensorShape": {"dim": [{"size": "64"}]}}}, "dtype": {"type": "DT_FLOAT"}}}, {"name": "MMNet/enc_block6/branch1/depthwise_conv_dilation/BatchNorm/FusedBatchNorm/Scaled", "op": "Const", "attr": {"value": {"tensor": {"dtype": "DT_FLOAT", "tensorShape": {"dim": [{"size": "64"}]}}}, "dtype": {"type": "DT_FLOAT"}}}, {"name": "MMNet/enc_block6/branch1/depthwise_conv_dilation/BatchNorm/FusedBatchNorm/Offset", "op": "Const", "attr": {"value": {"tensor": {"dtype": "DT_FLOAT", "tensorShape": {"dim": [{"size": "64"}]}}}, "dtype": {"type": "DT_FLOAT"}}}, {"name": "MMNet/enc_block5/branch2/depthwise_conv_dilation/BatchNorm/FusedBatchNorm/Scaled", "op": "Const", "attr": {"value": {"tensor": {"dtype": "DT_FLOAT", "tensorShape": {"dim": [{"size": "64"}]}}}, "dtype": {"type": "DT_FLOAT"}}}, {"name": "MMNet/enc_block5/branch2/depthwise_conv_dilation/BatchNorm/FusedBatchNorm/Offset", "op": "Const", "attr": {"dtype": {"type": "DT_FLOAT"}, "value": {"tensor": {"dtype": "DT_FLOAT", "tensorShape": {"dim": [{"size": "64"}]}}}}}, {"name": "MMNet/init_block/conv/Relu6", "op": "_FusedConv2D", "input": ["image_holder", "MMNet/init_block/conv/Conv2D_weights", "MMNet/init_block/conv/Conv2D_bn_offset"], "device": "/device:CPU:0", "attr": {"use_cudnn_on_gpu": {"b": true}, "strides": {"list": {"i": ["1", "2", "2", "1"]}}, "fused_ops": {"list": {"s": ["Qmlhc0FkZA==", "UmVsdTY="]}}, "padding": {"s": "U0FNRQ=="}, "data_format": {"s": "TkhXQw=="}, "T": {"type": "DT_FLOAT"}, "explicit_paddings": {"list": {}}, "dilations": {"list": {"i": ["1", "1", "1", "1"]}}, "epsilon": {"f": 0.0}, "num_args": {"i": "1"}}}, {"name": "MMNet/enc_block0/branch0/pointwise_conv/Relu6", "op": "_FusedConv2D", "input": ["MMNet/init_block/conv/Relu6", "MMNet/enc_block0/branch0/pointwise_conv/Conv2D_weights", "MMNet/enc_block0/branch0/pointwise_conv/Conv2D_bn_offset"], "device": "/device:CPU:0", "attr": {"use_cudnn_on_gpu": {"b": true}, "data_format": {"s": "TkhXQw=="}, "num_args": {"i": "1"}, "fused_ops": {"list": {"s": ["Qmlhc0FkZA==", "UmVsdTY="]}}, "explicit_paddings": {"list": {}}, "epsilon": {"f": 0.0}, "strides": {"list": {"i": ["1", "1", "1", "1"]}}, "T": {"type": "DT_FLOAT"}, "padding": {"s": "U0FNRQ=="}, "dilations": {"list": {"i": ["1", "1", "1", "1"]}}}}, {"name": "MMNet/enc_block0/branch1/pointwise_conv/Relu6", "op": "_FusedConv2D", "input": ["MMNet/init_block/conv/Relu6", "MMNet/enc_block0/branch1/pointwise_conv/Conv2D_weights", "MMNet/enc_block0/branch1/pointwise_conv/Conv2D_bn_offset"], "device": "/device:CPU:0", "attr": {"epsilon": {"f": 0.0}, "use_cudnn_on_gpu": {"b": true}, "dilations": {"list": {"i": ["1", "1", "1", "1"]}}, "fused_ops": {"list": {"s": ["Qmlhc0FkZA==", "UmVsdTY="]}}, "T": {"type": "DT_FLOAT"}, "strides": {"list": {"i": ["1", "1", "1", "1"]}}, "explicit_paddings": {"list": {}}, "data_format": {"s": "TkhXQw=="}, "num_args": {"i": "1"}, "padding": {"s": "U0FNRQ=="}}}, {"name": "MMNet/enc_block0/branch2/pointwise_conv/Relu6", "op": "_FusedConv2D", "input": ["MMNet/init_block/conv/Relu6", "MMNet/enc_block0/branch2/pointwise_conv/Conv2D_weights", "MMNet/enc_block0/branch2/pointwise_conv/Conv2D_bn_offset"], "device": "/device:CPU:0", "attr": {"data_format": {"s": "TkhXQw=="}, "strides": {"list": {"i": ["1", "1", "1", "1"]}}, "use_cudnn_on_gpu": {"b": true}, "fused_ops": {"list": {"s": ["Qmlhc0FkZA==", "UmVsdTY="]}}, "dilations": {"list": {"i": ["1", "1", "1", "1"]}}, "num_args": {"i": "1"}, "explicit_paddings": {"list": {}}, "epsilon": {"f": 0.0}, "T": {"type": "DT_FLOAT"}, "padding": {"s": "U0FNRQ=="}}}, {"name": "MMNet/enc_block0/branch3/pointwise_conv/Relu6", "op": "_FusedConv2D", "input": ["MMNet/init_block/conv/Relu6", "MMNet/enc_block0/branch3/pointwise_conv/Conv2D_weights", "MMNet/enc_block0/branch3/pointwise_conv/Conv2D_bn_offset"], "device": "/device:CPU:0", "attr": {"num_args": {"i": "1"}, "use_cudnn_on_gpu": {"b": true}, "dilations": {"list": {"i": ["1", "1", "1", "1"]}}, "strides": {"list": {"i": ["1", "1", "1", "1"]}}, "epsilon": {"f": 0.0}, "fused_ops": {"list": {"s": ["Qmlhc0FkZA==", "UmVsdTY="]}}, "T": {"type": "DT_FLOAT"}, "padding": {"s": "U0FNRQ=="}, "data_format": {"s": "TkhXQw=="}, "explicit_paddings": {"list": {}}}}, {"name": "MMNet/enc_block0/branch0/depthwise_conv_stride/DepthwiseConv2dNative", "op": "FusedDepthwiseConv2dNative", "input": ["MMNet/enc_block0/branch0/pointwise_conv/Relu6", "MMNet/enc_block0/branch0/depthwise_conv_stride/DepthwiseConv2dNative_weights", "MMNet/enc_block0/branch0/depthwise_conv_stride/DepthwiseConv2dNative_bn_offset"], "attr": {"strides": {"list": {"i": ["1", "2", "2", "1"]}}, "T": {"type": "DT_FLOAT"}, "explicit_paddings": {"list": {}}, "dilations": {"list": {"i": ["1", "1", "1", "1"]}}, "data_format": {"s": "TkhXQw=="}, "fused_ops": {"list": {"s": ["Qmlhc0FkZA==", "UmVsdTY="]}}, "num_args": {"i": "1"}, "padding": {"s": "U0FNRQ=="}}}, {"name": "MMNet/enc_block0/branch1/depthwise_conv_stride/DepthwiseConv2dNative", "op": "FusedDepthwiseConv2dNative", "input": ["MMNet/enc_block0/branch1/pointwise_conv/Relu6", "MMNet/enc_block0/branch1/depthwise_conv_stride/DepthwiseConv2dNative_weights", "MMNet/enc_block0/branch1/depthwise_conv_stride/DepthwiseConv2dNative_bn_offset"], "attr": {"T": {"type": "DT_FLOAT"}, "dilations": {"list": {"i": ["1", "1", "1", "1"]}}, "fused_ops": {"list": {"s": ["Qmlhc0FkZA==", "UmVsdTY="]}}, "explicit_paddings": {"list": {}}, "strides": {"list": {"i": ["1", "2", "2", "1"]}}, "data_format": {"s": "TkhXQw=="}, "padding": {"s": "U0FNRQ=="}, "num_args": {"i": "1"}}}, {"name": "MMNet/enc_block0/branch2/depthwise_conv_stride/DepthwiseConv2dNative", "op": "FusedDepthwiseConv2dNative", "input": ["MMNet/enc_block0/branch2/pointwise_conv/Relu6", "MMNet/enc_block0/branch2/depthwise_conv_stride/DepthwiseConv2dNative_weights", "MMNet/enc_block0/branch2/depthwise_conv_stride/DepthwiseConv2dNative_bn_offset"], "attr": {"T": {"type": "DT_FLOAT"}, "fused_ops": {"list": {"s": ["Qmlhc0FkZA==", "UmVsdTY="]}}, "padding": {"s": "U0FNRQ=="}, "dilations": {"list": {"i": ["1", "1", "1", "1"]}}, "explicit_paddings": {"list": {}}, "data_format": {"s": "TkhXQw=="}, "strides": {"list": {"i": ["1", "2", "2", "1"]}}, "num_args": {"i": "1"}}}, {"name": "MMNet/enc_block0/branch3/depthwise_conv_stride/DepthwiseConv2dNative", "op": "FusedDepthwiseConv2dNative", "input": ["MMNet/enc_block0/branch3/pointwise_conv/Relu6", "MMNet/enc_block0/branch3/depthwise_conv_stride/DepthwiseConv2dNative_weights", "MMNet/enc_block0/branch3/depthwise_conv_stride/DepthwiseConv2dNative_bn_offset"], "attr": {"fused_ops": {"list": {"s": ["Qmlhc0FkZA==", "UmVsdTY="]}}, "num_args": {"i": "1"}, "dilations": {"list": {"i": ["1", "1", "1", "1"]}}, "T": {"type": "DT_FLOAT"}, "explicit_paddings": {"list": {}}, "strides": {"list": {"i": ["1", "2", "2", "1"]}}, "data_format": {"s": "TkhXQw=="}, "padding": {"s": "U0FNRQ=="}}}, {"name": "MMNet/enc_block0/branch0/depthwise_conv_dilation/DepthwiseConv2dNative", "op": "FusedDepthwiseConv2dNative", "input": ["MMNet/enc_block0/branch0/depthwise_conv_stride/DepthwiseConv2dNative", "MMNet/enc_block0/branch0/depthwise_conv_dilation/DepthwiseConv2dNative_weights", "MMNet/enc_block0/branch0/depthwise_conv_dilation/DepthwiseConv2dNative_bn_offset"], "attr": {"num_args": {"i": "1"}, "strides": {"list": {"i": ["1", "1", "1", "1"]}}, "data_format": {"s": "TkhXQw=="}, "explicit_paddings": {"list": {}}, "padding": {"s": "U0FNRQ=="}, "T": {"type": "DT_FLOAT"}, "dilations": {"list": {"i": ["1", "1", "1", "1"]}}, "fused_ops": {"list": {"s": ["Qmlhc0FkZA==", "UmVsdTY="]}}}}, {"name": "MMNet/enc_block0/branch1/depthwise_conv_dilation/SpaceToBatchND", "op": "SpaceToBatchND", "input": ["MMNet/enc_block0/branch1/depthwise_conv_stride/DepthwiseConv2dNative", "MMNet/enc_block0/branch1/depthwise_conv_dilation/SpaceToBatchND/block_shape", "MMNet/enc_block0/branch1/depthwise_conv_dilation/SpaceToBatchND/paddings"], "attr": {"Tpaddings": {"type": "DT_INT32"}, "T": {"type": "DT_FLOAT"}, "Tblock_shape": {"type": "DT_INT32"}}}, {"name": "MMNet/enc_block0/branch2/depthwise_conv_dilation/SpaceToBatchND", "op": "SpaceToBatchND", "input": ["MMNet/enc_block0/branch2/depthwise_conv_stride/DepthwiseConv2dNative", "MMNet/enc_block0/branch2/depthwise_conv_dilation/SpaceToBatchND/block_shape", "MMNet/enc_block0/branch2/depthwise_conv_dilation/SpaceToBatchND/paddings"], "attr": {"Tblock_shape": {"type": "DT_INT32"}, "T": {"type": "DT_FLOAT"}, "Tpaddings": {"type": "DT_INT32"}}}, {"name": "MMNet/enc_block0/branch3/depthwise_conv_dilation/SpaceToBatchND", "op": "SpaceToBatchND", "input": ["MMNet/enc_block0/branch3/depthwise_conv_stride/DepthwiseConv2dNative", "MMNet/enc_block0/branch3/depthwise_conv_dilation/SpaceToBatchND/block_shape", "MMNet/enc_block0/branch3/depthwise_conv_dilation/SpaceToBatchND/paddings"], "attr": {"T": {"type": "DT_FLOAT"}, "Tblock_shape": {"type": "DT_INT32"}, "Tpaddings": {"type": "DT_INT32"}}}, {"name": "MMNet/enc_block0/branch1/depthwise_conv_dilation/DepthwiseConv2dNative", "op": "DepthwiseConv2dNative", "input": ["MMNet/enc_block0/branch1/depthwise_conv_dilation/SpaceToBatchND", "MMNet/enc_block0/branch1/depthwise_conv_dilation/depthwise_weights"], "attr": {"data_format": {"s": "TkhXQw=="}, "dilations": {"list": {"i": ["1", "1", "1", "1"]}}, "padding": {"s": "VkFMSUQ="}, "strides": {"list": {"i": ["1", "1", "1", "1"]}}, "explicit_paddings": {"list": {}}, "T": {"type": "DT_FLOAT"}}}, {"name": "MMNet/enc_block0/branch2/depthwise_conv_dilation/DepthwiseConv2dNative", "op": "DepthwiseConv2dNative", "input": ["MMNet/enc_block0/branch2/depthwise_conv_dilation/SpaceToBatchND", "MMNet/enc_block0/branch2/depthwise_conv_dilation/depthwise_weights"], "attr": {"padding": {"s": "VkFMSUQ="}, "data_format": {"s": "TkhXQw=="}, "explicit_paddings": {"list": {}}, "dilations": {"list": {"i": ["1", "1", "1", "1"]}}, "T": {"type": "DT_FLOAT"}, "strides": {"list": {"i": ["1", "1", "1", "1"]}}}}, {"name": "MMNet/enc_block0/branch3/depthwise_conv_dilation/DepthwiseConv2dNative", "op": "DepthwiseConv2dNative", "input": ["MMNet/enc_block0/branch3/depthwise_conv_dilation/SpaceToBatchND", "MMNet/enc_block0/branch3/depthwise_conv_dilation/depthwise_weights"], "attr": {"padding": {"s": "VkFMSUQ="}, "explicit_paddings": {"list": {}}, "data_format": {"s": "TkhXQw=="}, "T": {"type": "DT_FLOAT"}, "strides": {"list": {"i": ["1", "1", "1", "1"]}}, "dilations": {"list": {"i": ["1", "1", "1", "1"]}}}}, {"name": "MMNet/enc_block0/branch1/depthwise_conv_dilation/BatchToSpaceND", "op": "BatchToSpaceND", "input": ["MMNet/enc_block0/branch1/depthwise_conv_dilation/DepthwiseConv2dNative", "MMNet/enc_block0/branch1/depthwise_conv_dilation/BatchToSpaceND/block_shape", "MMNet/enc_block0/branch1/depthwise_conv_dilation/BatchToSpaceND/crops"], "attr": {"Tcrops": {"type": "DT_INT32"}, "T": {"type": "DT_FLOAT"}, "Tblock_shape": {"type": "DT_INT32"}}}, {"name": "MMNet/enc_block0/branch2/depthwise_conv_dilation/BatchToSpaceND", "op": "BatchToSpaceND", "input": ["MMNet/enc_block0/branch2/depthwise_conv_dilation/DepthwiseConv2dNative", "MMNet/enc_block0/branch2/depthwise_conv_dilation/BatchToSpaceND/block_shape", "MMNet/enc_block0/branch2/depthwise_conv_dilation/BatchToSpaceND/crops"], "attr": {"T": {"type": "DT_FLOAT"}, "Tcrops": {"type": "DT_INT32"}, "Tblock_shape": {"type": "DT_INT32"}}}, {"name": "MMNet/enc_block0/branch3/depthwise_conv_dilation/BatchToSpaceND", "op": "BatchToSpaceND", "input": ["MMNet/enc_block0/branch3/depthwise_conv_dilation/DepthwiseConv2dNative", "MMNet/enc_block0/branch3/depthwise_conv_dilation/BatchToSpaceND/block_shape", "MMNet/enc_block0/branch3/depthwise_conv_dilation/BatchToSpaceND/crops"], "attr": {"T": {"type": "DT_FLOAT"}, "Tblock_shape": {"type": "DT_INT32"}, "Tcrops": {"type": "DT_INT32"}}}, {"name": "MMNet/enc_block0/branch1/depthwise_conv_dilation/BatchNorm/FusedBatchNorm/Mul", "op": "Mul", "input": ["MMNet/enc_block0/branch1/depthwise_conv_dilation/BatchToSpaceND", "MMNet/enc_block0/branch1/depthwise_conv_dilation/BatchNorm/FusedBatchNorm/Scaled"], "attr": {"T": {"type": "DT_FLOAT"}}}, {"name": "MMNet/enc_block0/branch2/depthwise_conv_dilation/BatchNorm/FusedBatchNorm/Mul", "op": "Mul", "input": ["MMNet/enc_block0/branch2/depthwise_conv_dilation/BatchToSpaceND", "MMNet/enc_block0/branch2/depthwise_conv_dilation/BatchNorm/FusedBatchNorm/Scaled"], "attr": {"T": {"type": "DT_FLOAT"}}}, {"name": "MMNet/enc_block0/branch3/depthwise_conv_dilation/BatchNorm/FusedBatchNorm/Mul", "op": "Mul", "input": ["MMNet/enc_block0/branch3/depthwise_conv_dilation/BatchToSpaceND", "MMNet/enc_block0/branch3/depthwise_conv_dilation/BatchNorm/FusedBatchNorm/Scaled"], "attr": {"T": {"type": "DT_FLOAT"}}}, {"name": "MMNet/enc_block0/branch1/depthwise_conv_dilation/BatchNorm/FusedBatchNorm", "op": "Add", "input": ["MMNet/enc_block0/branch1/depthwise_conv_dilation/BatchNorm/FusedBatchNorm/Mul", "MMNet/enc_block0/branch1/depthwise_conv_dilation/BatchNorm/FusedBatchNorm/Offset"], "attr": {"T": {"type": "DT_FLOAT"}}}, {"name": "MMNet/enc_block0/branch2/depthwise_conv_dilation/BatchNorm/FusedBatchNorm", "op": "Add", "input": ["MMNet/enc_block0/branch2/depthwise_conv_dilation/BatchNorm/FusedBatchNorm/Mul", "MMNet/enc_block0/branch2/depthwise_conv_dilation/BatchNorm/FusedBatchNorm/Offset"], "attr": {"T": {"type": "DT_FLOAT"}}}, {"name": "MMNet/enc_block0/branch3/depthwise_conv_dilation/BatchNorm/FusedBatchNorm", "op": "Add", "input": ["MMNet/enc_block0/branch3/depthwise_conv_dilation/BatchNorm/FusedBatchNorm/Mul", "MMNet/enc_block0/branch3/depthwise_conv_dilation/BatchNorm/FusedBatchNorm/Offset"], "attr": {"T": {"type": "DT_FLOAT"}}}, {"name": "MMNet/enc_block0/branch1/depthwise_conv_dilation/Relu6", "op": "Relu6", "input": ["MMNet/enc_block0/branch1/depthwise_conv_dilation/BatchNorm/FusedBatchNorm"], "attr": {"T": {"type": "DT_FLOAT"}}}, {"name": "MMNet/enc_block0/branch2/depthwise_conv_dilation/Relu6", "op": "Relu6", "input": ["MMNet/enc_block0/branch2/depthwise_conv_dilation/BatchNorm/FusedBatchNorm"], "attr": {"T": {"type": "DT_FLOAT"}}}, {"name": "MMNet/enc_block0/branch3/depthwise_conv_dilation/Relu6", "op": "Relu6", "input": ["MMNet/enc_block0/branch3/depthwise_conv_dilation/BatchNorm/FusedBatchNorm"], "attr": {"T": {"type": "DT_FLOAT"}}}, {"name": "MMNet/enc_block0/merge/concat", "op": "ConcatV2", "input": ["MMNet/enc_block0/branch0/depthwise_conv_dilation/DepthwiseConv2dNative", "MMNet/enc_block0/branch1/depthwise_conv_dilation/Relu6", "MMNet/enc_block0/branch2/depthwise_conv_dilation/Relu6", "MMNet/enc_block0/branch3/depthwise_conv_dilation/Relu6", "MMNet/enc_block0/merge/concat/axis"], "attr": {"N": {"i": "4"}, "T": {"type": "DT_FLOAT"}, "Tidx": {"type": "DT_INT32"}}}, {"name": "MMNet/enc_block0/merge/pointwise_conv/BatchNorm/FusedBatchNorm", "op": "_FusedConv2D", "input": ["MMNet/enc_block0/merge/concat", "MMNet/enc_block0/merge/pointwise_conv/Conv2D_weights", "MMNet/enc_block0/merge/pointwise_conv/Conv2D_bn_offset"], "device": "/device:CPU:0", "attr": {"padding": {"s": "U0FNRQ=="}, "explicit_paddings": {"list": {}}, "dilations": {"list": {"i": ["1", "1", "1", "1"]}}, "data_format": {"s": "TkhXQw=="}, "use_cudnn_on_gpu": {"b": true}, "epsilon": {"f": 0.0}, "num_args": {"i": "1"}, "T": {"type": "DT_FLOAT"}, "strides": {"list": {"i": ["1", "1", "1", "1"]}}, "fused_ops": {"list": {"s": ["Qmlhc0FkZA=="]}}}}, {"name": "MMNet/enc_block1/branch0/pointwise_conv/Relu6", "op": "_FusedConv2D", "input": ["MMNet/enc_block0/merge/pointwise_conv/BatchNorm/FusedBatchNorm", "MMNet/enc_block1/branch0/pointwise_conv/Conv2D_weights", "MMNet/enc_block1/branch0/pointwise_conv/Conv2D_bn_offset"], "device": "/device:CPU:0", "attr": {"dilations": {"list": {"i": ["1", "1", "1", "1"]}}, "explicit_paddings": {"list": {}}, "num_args": {"i": "1"}, "strides": {"list": {"i": ["1", "1", "1", "1"]}}, "T": {"type": "DT_FLOAT"}, "padding": {"s": "U0FNRQ=="}, "data_format": {"s": "TkhXQw=="}, "use_cudnn_on_gpu": {"b": true}, "epsilon": {"f": 0.0}, "fused_ops": {"list": {"s": ["Qmlhc0FkZA==", "UmVsdTY="]}}}}, {"name": "MMNet/enc_block1/branch1/pointwise_conv/Relu6", "op": "_FusedConv2D", "input": ["MMNet/enc_block0/merge/pointwise_conv/BatchNorm/FusedBatchNorm", "MMNet/enc_block1/branch1/pointwise_conv/Conv2D_weights", "MMNet/enc_block1/branch1/pointwise_conv/Conv2D_bn_offset"], "device": "/device:CPU:0", "attr": {"strides": {"list": {"i": ["1", "1", "1", "1"]}}, "fused_ops": {"list": {"s": ["Qmlhc0FkZA==", "UmVsdTY="]}}, "padding": {"s": "U0FNRQ=="}, "explicit_paddings": {"list": {}}, "data_format": {"s": "TkhXQw=="}, "T": {"type": "DT_FLOAT"}, "epsilon": {"f": 0.0}, "use_cudnn_on_gpu": {"b": true}, "dilations": {"list": {"i": ["1", "1", "1", "1"]}}, "num_args": {"i": "1"}}}, {"name": "MMNet/enc_block1/branch2/pointwise_conv/Relu6", "op": "_FusedConv2D", "input": ["MMNet/enc_block0/merge/pointwise_conv/BatchNorm/FusedBatchNorm", "MMNet/enc_block1/branch2/pointwise_conv/Conv2D_weights", "MMNet/enc_block1/branch2/pointwise_conv/Conv2D_bn_offset"], "device": "/device:CPU:0", "attr": {"num_args": {"i": "1"}, "explicit_paddings": {"list": {}}, "T": {"type": "DT_FLOAT"}, "dilations": {"list": {"i": ["1", "1", "1", "1"]}}, "epsilon": {"f": 0.0}, "strides": {"list": {"i": ["1", "1", "1", "1"]}}, "fused_ops": {"list": {"s": ["Qmlhc0FkZA==", "UmVsdTY="]}}, "padding": {"s": "U0FNRQ=="}, "use_cudnn_on_gpu": {"b": true}, "data_format": {"s": "TkhXQw=="}}}, {"name": "MMNet/enc_block1/branch3/pointwise_conv/Relu6", "op": "_FusedConv2D", "input": ["MMNet/enc_block0/merge/pointwise_conv/BatchNorm/FusedBatchNorm", "MMNet/enc_block1/branch3/pointwise_conv/Conv2D_weights", "MMNet/enc_block1/branch3/pointwise_conv/Conv2D_bn_offset"], "device": "/device:CPU:0", "attr": {"use_cudnn_on_gpu": {"b": true}, "epsilon": {"f": 0.0}, "num_args": {"i": "1"}, "strides": {"list": {"i": ["1", "1", "1", "1"]}}, "fused_ops": {"list": {"s": ["Qmlhc0FkZA==", "UmVsdTY="]}}, "T": {"type": "DT_FLOAT"}, "data_format": {"s": "TkhXQw=="}, "padding": {"s": "U0FNRQ=="}, "explicit_paddings": {"list": {}}, "dilations": {"list": {"i": ["1", "1", "1", "1"]}}}}, {"name": "MMNet/dec_block1/shortcut/depthwise_conv/DepthwiseConv2dNative", "op": "FusedDepthwiseConv2dNative", "input": ["MMNet/enc_block0/merge/pointwise_conv/BatchNorm/FusedBatchNorm", "MMNet/dec_block1/shortcut/depthwise_conv/DepthwiseConv2dNative_weights", "MMNet/dec_block1/shortcut/depthwise_conv/DepthwiseConv2dNative_bn_offset"], "attr": {"T": {"type": "DT_FLOAT"}, "num_args": {"i": "1"}, "padding": {"s": "U0FNRQ=="}, "strides": {"list": {"i": ["1", "1", "1", "1"]}}, "dilations": {"list": {"i": ["1", "1", "1", "1"]}}, "explicit_paddings": {"list": {}}, "fused_ops": {"list": {"s": ["Qmlhc0FkZA==", "UmVsdTY="]}}, "data_format": {"s": "TkhXQw=="}}}, {"name": "MMNet/enc_block1/branch0/depthwise_conv_dilation/DepthwiseConv2dNative", "op": "FusedDepthwiseConv2dNative", "input": ["MMNet/enc_block1/branch0/pointwise_conv/Relu6", "MMNet/enc_block1/branch0/depthwise_conv_dilation/DepthwiseConv2dNative_weights", "MMNet/enc_block1/branch0/depthwise_conv_dilation/DepthwiseConv2dNative_bn_offset"], "attr": {"data_format": {"s": "TkhXQw=="}, "fused_ops": {"list": {"s": ["Qmlhc0FkZA==", "UmVsdTY="]}}, "T": {"type": "DT_FLOAT"}, "num_args": {"i": "1"}, "explicit_paddings": {"list": {}}, "dilations": {"list": {"i": ["1", "1", "1", "1"]}}, "padding": {"s": "U0FNRQ=="}, "strides": {"list": {"i": ["1", "1", "1", "1"]}}}}, {"name": "MMNet/enc_block1/branch1/depthwise_conv_dilation/SpaceToBatchND", "op": "SpaceToBatchND", "input": ["MMNet/enc_block1/branch1/pointwise_conv/Relu6", "MMNet/enc_block1/branch1/depthwise_conv_dilation/SpaceToBatchND/block_shape", "MMNet/enc_block1/branch1/depthwise_conv_dilation/SpaceToBatchND/paddings"], "attr": {"T": {"type": "DT_FLOAT"}, "Tblock_shape": {"type": "DT_INT32"}, "Tpaddings": {"type": "DT_INT32"}}}, {"name": "MMNet/enc_block1/branch2/depthwise_conv_dilation/SpaceToBatchND", "op": "SpaceToBatchND", "input": ["MMNet/enc_block1/branch2/pointwise_conv/Relu6", "MMNet/enc_block1/branch2/depthwise_conv_dilation/SpaceToBatchND/block_shape", "MMNet/enc_block1/branch2/depthwise_conv_dilation/SpaceToBatchND/paddings"], "attr": {"Tpaddings": {"type": "DT_INT32"}, "Tblock_shape": {"type": "DT_INT32"}, "T": {"type": "DT_FLOAT"}}}, {"name": "MMNet/enc_block1/branch3/depthwise_conv_dilation/SpaceToBatchND", "op": "SpaceToBatchND", "input": ["MMNet/enc_block1/branch3/pointwise_conv/Relu6", "MMNet/enc_block1/branch3/depthwise_conv_dilation/SpaceToBatchND/block_shape", "MMNet/enc_block1/branch3/depthwise_conv_dilation/SpaceToBatchND/paddings"], "attr": {"T": {"type": "DT_FLOAT"}, "Tpaddings": {"type": "DT_INT32"}, "Tblock_shape": {"type": "DT_INT32"}}}, {"name": "MMNet/enc_block1/branch1/depthwise_conv_dilation/DepthwiseConv2dNative", "op": "DepthwiseConv2dNative", "input": ["MMNet/enc_block1/branch1/depthwise_conv_dilation/SpaceToBatchND", "MMNet/enc_block1/branch1/depthwise_conv_dilation/depthwise_weights"], "attr": {"data_format": {"s": "TkhXQw=="}, "strides": {"list": {"i": ["1", "1", "1", "1"]}}, "dilations": {"list": {"i": ["1", "1", "1", "1"]}}, "padding": {"s": "VkFMSUQ="}, "explicit_paddings": {"list": {}}, "T": {"type": "DT_FLOAT"}}}, {"name": "MMNet/enc_block1/branch2/depthwise_conv_dilation/DepthwiseConv2dNative", "op": "DepthwiseConv2dNative", "input": ["MMNet/enc_block1/branch2/depthwise_conv_dilation/SpaceToBatchND", "MMNet/enc_block1/branch2/depthwise_conv_dilation/depthwise_weights"], "attr": {"dilations": {"list": {"i": ["1", "1", "1", "1"]}}, "T": {"type": "DT_FLOAT"}, "padding": {"s": "VkFMSUQ="}, "explicit_paddings": {"list": {}}, "strides": {"list": {"i": ["1", "1", "1", "1"]}}, "data_format": {"s": "TkhXQw=="}}}, {"name": "MMNet/enc_block1/branch3/depthwise_conv_dilation/DepthwiseConv2dNative", "op": "DepthwiseConv2dNative", "input": ["MMNet/enc_block1/branch3/depthwise_conv_dilation/SpaceToBatchND", "MMNet/enc_block1/branch3/depthwise_conv_dilation/depthwise_weights"], "attr": {"padding": {"s": "VkFMSUQ="}, "dilations": {"list": {"i": ["1", "1", "1", "1"]}}, "explicit_paddings": {"list": {}}, "data_format": {"s": "TkhXQw=="}, "T": {"type": "DT_FLOAT"}, "strides": {"list": {"i": ["1", "1", "1", "1"]}}}}, {"name": "MMNet/enc_block1/branch1/depthwise_conv_dilation/BatchToSpaceND", "op": "BatchToSpaceND", "input": ["MMNet/enc_block1/branch1/depthwise_conv_dilation/DepthwiseConv2dNative", "MMNet/enc_block1/branch1/depthwise_conv_dilation/BatchToSpaceND/block_shape", "MMNet/enc_block1/branch1/depthwise_conv_dilation/BatchToSpaceND/crops"], "attr": {"T": {"type": "DT_FLOAT"}, "Tblock_shape": {"type": "DT_INT32"}, "Tcrops": {"type": "DT_INT32"}}}, {"name": "MMNet/enc_block1/branch2/depthwise_conv_dilation/BatchToSpaceND", "op": "BatchToSpaceND", "input": ["MMNet/enc_block1/branch2/depthwise_conv_dilation/DepthwiseConv2dNative", "MMNet/enc_block1/branch2/depthwise_conv_dilation/BatchToSpaceND/block_shape", "MMNet/enc_block1/branch2/depthwise_conv_dilation/BatchToSpaceND/crops"], "attr": {"Tcrops": {"type": "DT_INT32"}, "Tblock_shape": {"type": "DT_INT32"}, "T": {"type": "DT_FLOAT"}}}, {"name": "MMNet/enc_block1/branch3/depthwise_conv_dilation/BatchToSpaceND", "op": "BatchToSpaceND", "input": ["MMNet/enc_block1/branch3/depthwise_conv_dilation/DepthwiseConv2dNative", "MMNet/enc_block1/branch3/depthwise_conv_dilation/BatchToSpaceND/block_shape", "MMNet/enc_block1/branch3/depthwise_conv_dilation/BatchToSpaceND/crops"], "attr": {"T": {"type": "DT_FLOAT"}, "Tblock_shape": {"type": "DT_INT32"}, "Tcrops": {"type": "DT_INT32"}}}, {"name": "MMNet/dec_block1/shortcut/pointwise_conv/Relu6", "op": "_FusedConv2D", "input": ["MMNet/dec_block1/shortcut/depthwise_conv/DepthwiseConv2dNative", "MMNet/dec_block1/shortcut/pointwise_conv/Conv2D_weights", "MMNet/dec_block1/shortcut/pointwise_conv/Conv2D_bn_offset"], "device": "/device:CPU:0", "attr": {"num_args": {"i": "1"}, "epsilon": {"f": 0.0}, "strides": {"list": {"i": ["1", "1", "1", "1"]}}, "data_format": {"s": "TkhXQw=="}, "fused_ops": {"list": {"s": ["Qmlhc0FkZA==", "UmVsdTY="]}}, "padding": {"s": "U0FNRQ=="}, "T": {"type": "DT_FLOAT"}, "dilations": {"list": {"i": ["1", "1", "1", "1"]}}, "explicit_paddings": {"list": {}}, "use_cudnn_on_gpu": {"b": true}}}, {"name": "MMNet/enc_block1/branch1/depthwise_conv_dilation/BatchNorm/FusedBatchNorm/Mul", "op": "Mul", "input": ["MMNet/enc_block1/branch1/depthwise_conv_dilation/BatchToSpaceND", "MMNet/enc_block1/branch1/depthwise_conv_dilation/BatchNorm/FusedBatchNorm/Scaled"], "attr": {"T": {"type": "DT_FLOAT"}}}, {"name": "MMNet/enc_block1/branch2/depthwise_conv_dilation/BatchNorm/FusedBatchNorm/Mul", "op": "Mul", "input": ["MMNet/enc_block1/branch2/depthwise_conv_dilation/BatchToSpaceND", "MMNet/enc_block1/branch2/depthwise_conv_dilation/BatchNorm/FusedBatchNorm/Scaled"], "attr": {"T": {"type": "DT_FLOAT"}}}, {"name": "MMNet/enc_block1/branch3/depthwise_conv_dilation/BatchNorm/FusedBatchNorm/Mul", "op": "Mul", "input": ["MMNet/enc_block1/branch3/depthwise_conv_dilation/BatchToSpaceND", "MMNet/enc_block1/branch3/depthwise_conv_dilation/BatchNorm/FusedBatchNorm/Scaled"], "attr": {"T": {"type": "DT_FLOAT"}}}, {"name": "MMNet/enc_block1/branch1/depthwise_conv_dilation/BatchNorm/FusedBatchNorm", "op": "Add", "input": ["MMNet/enc_block1/branch1/depthwise_conv_dilation/BatchNorm/FusedBatchNorm/Mul", "MMNet/enc_block1/branch1/depthwise_conv_dilation/BatchNorm/FusedBatchNorm/Offset"], "attr": {"T": {"type": "DT_FLOAT"}}}, {"name": "MMNet/enc_block1/branch2/depthwise_conv_dilation/BatchNorm/FusedBatchNorm", "op": "Add", "input": ["MMNet/enc_block1/branch2/depthwise_conv_dilation/BatchNorm/FusedBatchNorm/Mul", "MMNet/enc_block1/branch2/depthwise_conv_dilation/BatchNorm/FusedBatchNorm/Offset"], "attr": {"T": {"type": "DT_FLOAT"}}}, {"name": "MMNet/enc_block1/branch3/depthwise_conv_dilation/BatchNorm/FusedBatchNorm", "op": "Add", "input": ["MMNet/enc_block1/branch3/depthwise_conv_dilation/BatchNorm/FusedBatchNorm/Mul", "MMNet/enc_block1/branch3/depthwise_conv_dilation/BatchNorm/FusedBatchNorm/Offset"], "attr": {"T": {"type": "DT_FLOAT"}}}, {"name": "MMNet/enc_block1/branch1/depthwise_conv_dilation/Relu6", "op": "Relu6", "input": ["MMNet/enc_block1/branch1/depthwise_conv_dilation/BatchNorm/FusedBatchNorm"], "attr": {"T": {"type": "DT_FLOAT"}}}, {"name": "MMNet/enc_block1/branch2/depthwise_conv_dilation/Relu6", "op": "Relu6", "input": ["MMNet/enc_block1/branch2/depthwise_conv_dilation/BatchNorm/FusedBatchNorm"], "attr": {"T": {"type": "DT_FLOAT"}}}, {"name": "MMNet/enc_block1/branch3/depthwise_conv_dilation/Relu6", "op": "Relu6", "input": ["MMNet/enc_block1/branch3/depthwise_conv_dilation/BatchNorm/FusedBatchNorm"], "attr": {"T": {"type": "DT_FLOAT"}}}, {"name": "MMNet/enc_block1/merge/concat", "op": "ConcatV2", "input": ["MMNet/enc_block1/branch0/depthwise_conv_dilation/DepthwiseConv2dNative", "MMNet/enc_block1/branch1/depthwise_conv_dilation/Relu6", "MMNet/enc_block1/branch2/depthwise_conv_dilation/Relu6", "MMNet/enc_block1/branch3/depthwise_conv_dilation/Relu6", "MMNet/enc_block1/merge/concat/axis"], "attr": {"T": {"type": "DT_FLOAT"}, "Tidx": {"type": "DT_INT32"}, "N": {"i": "4"}}}, {"name": "MMNet/enc_block1/merge/pointwise_conv/BatchNorm/FusedBatchNorm", "op": "_FusedConv2D", "input": ["MMNet/enc_block1/merge/concat", "MMNet/enc_block1/merge/pointwise_conv/Conv2D_weights", "MMNet/enc_block1/merge/pointwise_conv/Conv2D_bn_offset"], "device": "/device:CPU:0", "attr": {"fused_ops": {"list": {"s": ["Qmlhc0FkZA=="]}}, "epsilon": {"f": 0.0}, "num_args": {"i": "1"}, "data_format": {"s": "TkhXQw=="}, "dilations": {"list": {"i": ["1", "1", "1", "1"]}}, "strides": {"list": {"i": ["1", "1", "1", "1"]}}, "explicit_paddings": {"list": {}}, "T": {"type": "DT_FLOAT"}, "use_cudnn_on_gpu": {"b": true}, "padding": {"s": "U0FNRQ=="}}}, {"name": "MMNet/enc_block2/branch0/pointwise_conv/Relu6", "op": "_FusedConv2D", "input": ["MMNet/enc_block1/merge/pointwise_conv/BatchNorm/FusedBatchNorm", "MMNet/enc_block2/branch0/pointwise_conv/Conv2D_weights", "MMNet/enc_block2/branch0/pointwise_conv/Conv2D_bn_offset"], "device": "/device:CPU:0", "attr": {"padding": {"s": "U0FNRQ=="}, "epsilon": {"f": 0.0}, "dilations": {"list": {"i": ["1", "1", "1", "1"]}}, "explicit_paddings": {"list": {}}, "num_args": {"i": "1"}, "fused_ops": {"list": {"s": ["Qmlhc0FkZA==", "UmVsdTY="]}}, "use_cudnn_on_gpu": {"b": true}, "T": {"type": "DT_FLOAT"}, "data_format": {"s": "TkhXQw=="}, "strides": {"list": {"i": ["1", "1", "1", "1"]}}}}, {"name": "MMNet/enc_block2/branch1/pointwise_conv/Relu6", "op": "_FusedConv2D", "input": ["MMNet/enc_block1/merge/pointwise_conv/BatchNorm/FusedBatchNorm", "MMNet/enc_block2/branch1/pointwise_conv/Conv2D_weights", "MMNet/enc_block2/branch1/pointwise_conv/Conv2D_bn_offset"], "device": "/device:CPU:0", "attr": {"fused_ops": {"list": {"s": ["Qmlhc0FkZA==", "UmVsdTY="]}}, "dilations": {"list": {"i": ["1", "1", "1", "1"]}}, "use_cudnn_on_gpu": {"b": true}, "data_format": {"s": "TkhXQw=="}, "num_args": {"i": "1"}, "strides": {"list": {"i": ["1", "1", "1", "1"]}}, "explicit_paddings": {"list": {}}, "padding": {"s": "U0FNRQ=="}, "epsilon": {"f": 0.0}, "T": {"type": "DT_FLOAT"}}}, {"name": "MMNet/enc_block2/branch2/pointwise_conv/Relu6", "op": "_FusedConv2D", "input": ["MMNet/enc_block1/merge/pointwise_conv/BatchNorm/FusedBatchNorm", "MMNet/enc_block2/branch2/pointwise_conv/Conv2D_weights", "MMNet/enc_block2/branch2/pointwise_conv/Conv2D_bn_offset"], "device": "/device:CPU:0", "attr": {"dilations": {"list": {"i": ["1", "1", "1", "1"]}}, "data_format": {"s": "TkhXQw=="}, "use_cudnn_on_gpu": {"b": true}, "padding": {"s": "U0FNRQ=="}, "T": {"type": "DT_FLOAT"}, "explicit_paddings": {"list": {}}, "strides": {"list": {"i": ["1", "1", "1", "1"]}}, "fused_ops": {"list": {"s": ["Qmlhc0FkZA==", "UmVsdTY="]}}, "epsilon": {"f": 0.0}, "num_args": {"i": "1"}}}, {"name": "MMNet/enc_block2/branch3/pointwise_conv/Relu6", "op": "_FusedConv2D", "input": ["MMNet/enc_block1/merge/pointwise_conv/BatchNorm/FusedBatchNorm", "MMNet/enc_block2/branch3/pointwise_conv/Conv2D_weights", "MMNet/enc_block2/branch3/pointwise_conv/Conv2D_bn_offset"], "device": "/device:CPU:0", "attr": {"data_format": {"s": "TkhXQw=="}, "T": {"type": "DT_FLOAT"}, "epsilon": {"f": 0.0}, "use_cudnn_on_gpu": {"b": true}, "fused_ops": {"list": {"s": ["Qmlhc0FkZA==", "UmVsdTY="]}}, "dilations": {"list": {"i": ["1", "1", "1", "1"]}}, "padding": {"s": "U0FNRQ=="}, "strides": {"list": {"i": ["1", "1", "1", "1"]}}, "num_args": {"i": "1"}, "explicit_paddings": {"list": {}}}}, {"name": "MMNet/enc_block2/branch0/depthwise_conv_dilation/DepthwiseConv2dNative", "op": "FusedDepthwiseConv2dNative", "input": ["MMNet/enc_block2/branch0/pointwise_conv/Relu6", "MMNet/enc_block2/branch0/depthwise_conv_dilation/DepthwiseConv2dNative_weights", "MMNet/enc_block2/branch0/depthwise_conv_dilation/DepthwiseConv2dNative_bn_offset"], "attr": {"explicit_paddings": {"list": {}}, "data_format": {"s": "TkhXQw=="}, "fused_ops": {"list": {"s": ["Qmlhc0FkZA==", "UmVsdTY="]}}, "num_args": {"i": "1"}, "T": {"type": "DT_FLOAT"}, "padding": {"s": "U0FNRQ=="}, "strides": {"list": {"i": ["1", "1", "1", "1"]}}, "dilations": {"list": {"i": ["1", "1", "1", "1"]}}}}, {"name": "MMNet/enc_block2/branch1/depthwise_conv_dilation/SpaceToBatchND", "op": "SpaceToBatchND", "input": ["MMNet/enc_block2/branch1/pointwise_conv/Relu6", "MMNet/enc_block2/branch1/depthwise_conv_dilation/SpaceToBatchND/block_shape", "MMNet/enc_block2/branch1/depthwise_conv_dilation/SpaceToBatchND/paddings"], "attr": {"Tblock_shape": {"type": "DT_INT32"}, "Tpaddings": {"type": "DT_INT32"}, "T": {"type": "DT_FLOAT"}}}, {"name": "MMNet/enc_block2/branch2/depthwise_conv_dilation/SpaceToBatchND", "op": "SpaceToBatchND", "input": ["MMNet/enc_block2/branch2/pointwise_conv/Relu6", "MMNet/enc_block2/branch2/depthwise_conv_dilation/SpaceToBatchND/block_shape", "MMNet/enc_block2/branch2/depthwise_conv_dilation/SpaceToBatchND/paddings"], "attr": {"Tblock_shape": {"type": "DT_INT32"}, "T": {"type": "DT_FLOAT"}, "Tpaddings": {"type": "DT_INT32"}}}, {"name": "MMNet/enc_block2/branch3/depthwise_conv_dilation/SpaceToBatchND", "op": "SpaceToBatchND", "input": ["MMNet/enc_block2/branch3/pointwise_conv/Relu6", "MMNet/enc_block2/branch3/depthwise_conv_dilation/SpaceToBatchND/block_shape", "MMNet/enc_block2/branch3/depthwise_conv_dilation/SpaceToBatchND/paddings"], "attr": {"Tblock_shape": {"type": "DT_INT32"}, "Tpaddings": {"type": "DT_INT32"}, "T": {"type": "DT_FLOAT"}}}, {"name": "MMNet/enc_block2/branch1/depthwise_conv_dilation/DepthwiseConv2dNative", "op": "DepthwiseConv2dNative", "input": ["MMNet/enc_block2/branch1/depthwise_conv_dilation/SpaceToBatchND", "MMNet/enc_block2/branch1/depthwise_conv_dilation/depthwise_weights"], "attr": {"data_format": {"s": "TkhXQw=="}, "padding": {"s": "VkFMSUQ="}, "dilations": {"list": {"i": ["1", "1", "1", "1"]}}, "explicit_paddings": {"list": {}}, "T": {"type": "DT_FLOAT"}, "strides": {"list": {"i": ["1", "1", "1", "1"]}}}}, {"name": "MMNet/enc_block2/branch2/depthwise_conv_dilation/DepthwiseConv2dNative", "op": "DepthwiseConv2dNative", "input": ["MMNet/enc_block2/branch2/depthwise_conv_dilation/SpaceToBatchND", "MMNet/enc_block2/branch2/depthwise_conv_dilation/depthwise_weights"], "attr": {"dilations": {"list": {"i": ["1", "1", "1", "1"]}}, "strides": {"list": {"i": ["1", "1", "1", "1"]}}, "T": {"type": "DT_FLOAT"}, "padding": {"s": "VkFMSUQ="}, "explicit_paddings": {"list": {}}, "data_format": {"s": "TkhXQw=="}}}, {"name": "MMNet/enc_block2/branch3/depthwise_conv_dilation/DepthwiseConv2dNative", "op": "DepthwiseConv2dNative", "input": ["MMNet/enc_block2/branch3/depthwise_conv_dilation/SpaceToBatchND", "MMNet/enc_block2/branch3/depthwise_conv_dilation/depthwise_weights"], "attr": {"padding": {"s": "VkFMSUQ="}, "dilations": {"list": {"i": ["1", "1", "1", "1"]}}, "T": {"type": "DT_FLOAT"}, "explicit_paddings": {"list": {}}, "data_format": {"s": "TkhXQw=="}, "strides": {"list": {"i": ["1", "1", "1", "1"]}}}}, {"name": "MMNet/enc_block2/branch1/depthwise_conv_dilation/BatchToSpaceND", "op": "BatchToSpaceND", "input": ["MMNet/enc_block2/branch1/depthwise_conv_dilation/DepthwiseConv2dNative", "MMNet/enc_block2/branch1/depthwise_conv_dilation/BatchToSpaceND/block_shape", "MMNet/enc_block2/branch1/depthwise_conv_dilation/BatchToSpaceND/crops"], "attr": {"T": {"type": "DT_FLOAT"}, "Tblock_shape": {"type": "DT_INT32"}, "Tcrops": {"type": "DT_INT32"}}}, {"name": "MMNet/enc_block2/branch2/depthwise_conv_dilation/BatchToSpaceND", "op": "BatchToSpaceND", "input": ["MMNet/enc_block2/branch2/depthwise_conv_dilation/DepthwiseConv2dNative", "MMNet/enc_block2/branch2/depthwise_conv_dilation/BatchToSpaceND/block_shape", "MMNet/enc_block2/branch2/depthwise_conv_dilation/BatchToSpaceND/crops"], "attr": {"Tblock_shape": {"type": "DT_INT32"}, "T": {"type": "DT_FLOAT"}, "Tcrops": {"type": "DT_INT32"}}}, {"name": "MMNet/enc_block2/branch3/depthwise_conv_dilation/BatchToSpaceND", "op": "BatchToSpaceND", "input": ["MMNet/enc_block2/branch3/depthwise_conv_dilation/DepthwiseConv2dNative", "MMNet/enc_block2/branch3/depthwise_conv_dilation/BatchToSpaceND/block_shape", "MMNet/enc_block2/branch3/depthwise_conv_dilation/BatchToSpaceND/crops"], "attr": {"Tblock_shape": {"type": "DT_INT32"}, "T": {"type": "DT_FLOAT"}, "Tcrops": {"type": "DT_INT32"}}}, {"name": "MMNet/enc_block2/branch1/depthwise_conv_dilation/BatchNorm/FusedBatchNorm/Mul", "op": "Mul", "input": ["MMNet/enc_block2/branch1/depthwise_conv_dilation/BatchToSpaceND", "MMNet/enc_block2/branch1/depthwise_conv_dilation/BatchNorm/FusedBatchNorm/Scaled"], "attr": {"T": {"type": "DT_FLOAT"}}}, {"name": "MMNet/enc_block2/branch2/depthwise_conv_dilation/BatchNorm/FusedBatchNorm/Mul", "op": "Mul", "input": ["MMNet/enc_block2/branch2/depthwise_conv_dilation/BatchToSpaceND", "MMNet/enc_block2/branch2/depthwise_conv_dilation/BatchNorm/FusedBatchNorm/Scaled"], "attr": {"T": {"type": "DT_FLOAT"}}}, {"name": "MMNet/enc_block2/branch3/depthwise_conv_dilation/BatchNorm/FusedBatchNorm/Mul", "op": "Mul", "input": ["MMNet/enc_block2/branch3/depthwise_conv_dilation/BatchToSpaceND", "MMNet/enc_block2/branch3/depthwise_conv_dilation/BatchNorm/FusedBatchNorm/Scaled"], "attr": {"T": {"type": "DT_FLOAT"}}}, {"name": "MMNet/enc_block2/branch1/depthwise_conv_dilation/BatchNorm/FusedBatchNorm", "op": "Add", "input": ["MMNet/enc_block2/branch1/depthwise_conv_dilation/BatchNorm/FusedBatchNorm/Mul", "MMNet/enc_block2/branch1/depthwise_conv_dilation/BatchNorm/FusedBatchNorm/Offset"], "attr": {"T": {"type": "DT_FLOAT"}}}, {"name": "MMNet/enc_block2/branch2/depthwise_conv_dilation/BatchNorm/FusedBatchNorm", "op": "Add", "input": ["MMNet/enc_block2/branch2/depthwise_conv_dilation/BatchNorm/FusedBatchNorm/Mul", "MMNet/enc_block2/branch2/depthwise_conv_dilation/BatchNorm/FusedBatchNorm/Offset"], "attr": {"T": {"type": "DT_FLOAT"}}}, {"name": "MMNet/enc_block2/branch3/depthwise_conv_dilation/BatchNorm/FusedBatchNorm", "op": "Add", "input": ["MMNet/enc_block2/branch3/depthwise_conv_dilation/BatchNorm/FusedBatchNorm/Mul", "MMNet/enc_block2/branch3/depthwise_conv_dilation/BatchNorm/FusedBatchNorm/Offset"], "attr": {"T": {"type": "DT_FLOAT"}}}, {"name": "MMNet/enc_block2/branch1/depthwise_conv_dilation/Relu6", "op": "Relu6", "input": ["MMNet/enc_block2/branch1/depthwise_conv_dilation/BatchNorm/FusedBatchNorm"], "attr": {"T": {"type": "DT_FLOAT"}}}, {"name": "MMNet/enc_block2/branch2/depthwise_conv_dilation/Relu6", "op": "Relu6", "input": ["MMNet/enc_block2/branch2/depthwise_conv_dilation/BatchNorm/FusedBatchNorm"], "attr": {"T": {"type": "DT_FLOAT"}}}, {"name": "MMNet/enc_block2/branch3/depthwise_conv_dilation/Relu6", "op": "Relu6", "input": ["MMNet/enc_block2/branch3/depthwise_conv_dilation/BatchNorm/FusedBatchNorm"], "attr": {"T": {"type": "DT_FLOAT"}}}, {"name": "MMNet/enc_block2/merge/concat", "op": "ConcatV2", "input": ["MMNet/enc_block2/branch0/depthwise_conv_dilation/DepthwiseConv2dNative", "MMNet/enc_block2/branch1/depthwise_conv_dilation/Relu6", "MMNet/enc_block2/branch2/depthwise_conv_dilation/Relu6", "MMNet/enc_block2/branch3/depthwise_conv_dilation/Relu6", "MMNet/enc_block2/merge/concat/axis"], "attr": {"N": {"i": "4"}, "Tidx": {"type": "DT_INT32"}, "T": {"type": "DT_FLOAT"}}}, {"name": "MMNet/enc_block2/merge/pointwise_conv/BatchNorm/FusedBatchNorm", "op": "_FusedConv2D", "input": ["MMNet/enc_block2/merge/concat", "MMNet/enc_block2/merge/pointwise_conv/Conv2D_weights", "MMNet/enc_block2/merge/pointwise_conv/Conv2D_bn_offset"], "device": "/device:CPU:0", "attr": {"fused_ops": {"list": {"s": ["Qmlhc0FkZA=="]}}, "epsilon": {"f": 0.0}, "padding": {"s": "U0FNRQ=="}, "num_args": {"i": "1"}, "dilations": {"list": {"i": ["1", "1", "1", "1"]}}, "explicit_paddings": {"list": {}}, "T": {"type": "DT_FLOAT"}, "use_cudnn_on_gpu": {"b": true}, "data_format": {"s": "TkhXQw=="}, "strides": {"list": {"i": ["1", "1", "1", "1"]}}}}, {"name": "MMNet/enc_block3/branch0/pointwise_conv/Relu6", "op": "_FusedConv2D", "input": ["MMNet/enc_block2/merge/pointwise_conv/BatchNorm/FusedBatchNorm", "MMNet/enc_block3/branch0/pointwise_conv/Conv2D_weights", "MMNet/enc_block3/branch0/pointwise_conv/Conv2D_bn_offset"], "device": "/device:CPU:0", "attr": {"padding": {"s": "U0FNRQ=="}, "dilations": {"list": {"i": ["1", "1", "1", "1"]}}, "strides": {"list": {"i": ["1", "1", "1", "1"]}}, "explicit_paddings": {"list": {}}, "epsilon": {"f": 0.0}, "data_format": {"s": "TkhXQw=="}, "use_cudnn_on_gpu": {"b": true}, "num_args": {"i": "1"}, "fused_ops": {"list": {"s": ["Qmlhc0FkZA==", "UmVsdTY="]}}, "T": {"type": "DT_FLOAT"}}}, {"name": "MMNet/enc_block3/branch1/pointwise_conv/Relu6", "op": "_FusedConv2D", "input": ["MMNet/enc_block2/merge/pointwise_conv/BatchNorm/FusedBatchNorm", "MMNet/enc_block3/branch1/pointwise_conv/Conv2D_weights", "MMNet/enc_block3/branch1/pointwise_conv/Conv2D_bn_offset"], "device": "/device:CPU:0", "attr": {"num_args": {"i": "1"}, "T": {"type": "DT_FLOAT"}, "padding": {"s": "U0FNRQ=="}, "fused_ops": {"list": {"s": ["Qmlhc0FkZA==", "UmVsdTY="]}}, "data_format": {"s": "TkhXQw=="}, "use_cudnn_on_gpu": {"b": true}, "explicit_paddings": {"list": {}}, "dilations": {"list": {"i": ["1", "1", "1", "1"]}}, "epsilon": {"f": 0.0}, "strides": {"list": {"i": ["1", "1", "1", "1"]}}}}, {"name": "MMNet/enc_block3/branch2/pointwise_conv/Relu6", "op": "_FusedConv2D", "input": ["MMNet/enc_block2/merge/pointwise_conv/BatchNorm/FusedBatchNorm", "MMNet/enc_block3/branch2/pointwise_conv/Conv2D_weights", "MMNet/enc_block3/branch2/pointwise_conv/Conv2D_bn_offset"], "device": "/device:CPU:0", "attr": {"data_format": {"s": "TkhXQw=="}, "epsilon": {"f": 0.0}, "explicit_paddings": {"list": {}}, "strides": {"list": {"i": ["1", "1", "1", "1"]}}, "padding": {"s": "U0FNRQ=="}, "dilations": {"list": {"i": ["1", "1", "1", "1"]}}, "T": {"type": "DT_FLOAT"}, "num_args": {"i": "1"}, "fused_ops": {"list": {"s": ["Qmlhc0FkZA==", "UmVsdTY="]}}, "use_cudnn_on_gpu": {"b": true}}}, {"name": "MMNet/enc_block3/branch3/pointwise_conv/Relu6", "op": "_FusedConv2D", "input": ["MMNet/enc_block2/merge/pointwise_conv/BatchNorm/FusedBatchNorm", "MMNet/enc_block3/branch3/pointwise_conv/Conv2D_weights", "MMNet/enc_block3/branch3/pointwise_conv/Conv2D_bn_offset"], "device": "/device:CPU:0", "attr": {"fused_ops": {"list": {"s": ["Qmlhc0FkZA==", "UmVsdTY="]}}, "explicit_paddings": {"list": {}}, "data_format": {"s": "TkhXQw=="}, "num_args": {"i": "1"}, "padding": {"s": "U0FNRQ=="}, "epsilon": {"f": 0.0}, "T": {"type": "DT_FLOAT"}, "strides": {"list": {"i": ["1", "1", "1", "1"]}}, "dilations": {"list": {"i": ["1", "1", "1", "1"]}}, "use_cudnn_on_gpu": {"b": true}}}, {"name": "MMNet/enc_block3/branch0/depthwise_conv_dilation/DepthwiseConv2dNative", "op": "FusedDepthwiseConv2dNative", "input": ["MMNet/enc_block3/branch0/pointwise_conv/Relu6", "MMNet/enc_block3/branch0/depthwise_conv_dilation/DepthwiseConv2dNative_weights", "MMNet/enc_block3/branch0/depthwise_conv_dilation/DepthwiseConv2dNative_bn_offset"], "attr": {"dilations": {"list": {"i": ["1", "1", "1", "1"]}}, "padding": {"s": "U0FNRQ=="}, "T": {"type": "DT_FLOAT"}, "data_format": {"s": "TkhXQw=="}, "strides": {"list": {"i": ["1", "1", "1", "1"]}}, "explicit_paddings": {"list": {}}, "num_args": {"i": "1"}, "fused_ops": {"list": {"s": ["Qmlhc0FkZA==", "UmVsdTY="]}}}}, {"name": "MMNet/enc_block3/branch1/depthwise_conv_dilation/SpaceToBatchND", "op": "SpaceToBatchND", "input": ["MMNet/enc_block3/branch1/pointwise_conv/Relu6", "MMNet/enc_block3/branch1/depthwise_conv_dilation/SpaceToBatchND/block_shape", "MMNet/enc_block3/branch1/depthwise_conv_dilation/SpaceToBatchND/paddings"], "attr": {"T": {"type": "DT_FLOAT"}, "Tpaddings": {"type": "DT_INT32"}, "Tblock_shape": {"type": "DT_INT32"}}}, {"name": "MMNet/enc_block3/branch2/depthwise_conv_dilation/SpaceToBatchND", "op": "SpaceToBatchND", "input": ["MMNet/enc_block3/branch2/pointwise_conv/Relu6", "MMNet/enc_block3/branch2/depthwise_conv_dilation/SpaceToBatchND/block_shape", "MMNet/enc_block3/branch2/depthwise_conv_dilation/SpaceToBatchND/paddings"], "attr": {"Tpaddings": {"type": "DT_INT32"}, "Tblock_shape": {"type": "DT_INT32"}, "T": {"type": "DT_FLOAT"}}}, {"name": "MMNet/enc_block3/branch3/depthwise_conv_dilation/SpaceToBatchND", "op": "SpaceToBatchND", "input": ["MMNet/enc_block3/branch3/pointwise_conv/Relu6", "MMNet/enc_block3/branch3/depthwise_conv_dilation/SpaceToBatchND/block_shape", "MMNet/enc_block3/branch3/depthwise_conv_dilation/SpaceToBatchND/paddings"], "attr": {"Tblock_shape": {"type": "DT_INT32"}, "Tpaddings": {"type": "DT_INT32"}, "T": {"type": "DT_FLOAT"}}}, {"name": "MMNet/enc_block3/branch1/depthwise_conv_dilation/DepthwiseConv2dNative", "op": "DepthwiseConv2dNative", "input": ["MMNet/enc_block3/branch1/depthwise_conv_dilation/SpaceToBatchND", "MMNet/enc_block3/branch1/depthwise_conv_dilation/depthwise_weights"], "attr": {"data_format": {"s": "TkhXQw=="}, "strides": {"list": {"i": ["1", "1", "1", "1"]}}, "padding": {"s": "VkFMSUQ="}, "explicit_paddings": {"list": {}}, "dilations": {"list": {"i": ["1", "1", "1", "1"]}}, "T": {"type": "DT_FLOAT"}}}, {"name": "MMNet/enc_block3/branch2/depthwise_conv_dilation/DepthwiseConv2dNative", "op": "DepthwiseConv2dNative", "input": ["MMNet/enc_block3/branch2/depthwise_conv_dilation/SpaceToBatchND", "MMNet/enc_block3/branch2/depthwise_conv_dilation/depthwise_weights"], "attr": {"data_format": {"s": "TkhXQw=="}, "T": {"type": "DT_FLOAT"}, "explicit_paddings": {"list": {}}, "dilations": {"list": {"i": ["1", "1", "1", "1"]}}, "strides": {"list": {"i": ["1", "1", "1", "1"]}}, "padding": {"s": "VkFMSUQ="}}}, {"name": "MMNet/enc_block3/branch3/depthwise_conv_dilation/DepthwiseConv2dNative", "op": "DepthwiseConv2dNative", "input": ["MMNet/enc_block3/branch3/depthwise_conv_dilation/SpaceToBatchND", "MMNet/enc_block3/branch3/depthwise_conv_dilation/depthwise_weights"], "attr": {"padding": {"s": "VkFMSUQ="}, "data_format": {"s": "TkhXQw=="}, "explicit_paddings": {"list": {}}, "T": {"type": "DT_FLOAT"}, "dilations": {"list": {"i": ["1", "1", "1", "1"]}}, "strides": {"list": {"i": ["1", "1", "1", "1"]}}}}, {"name": "MMNet/enc_block3/branch1/depthwise_conv_dilation/BatchToSpaceND", "op": "BatchToSpaceND", "input": ["MMNet/enc_block3/branch1/depthwise_conv_dilation/DepthwiseConv2dNative", "MMNet/enc_block3/branch1/depthwise_conv_dilation/BatchToSpaceND/block_shape", "MMNet/enc_block3/branch1/depthwise_conv_dilation/BatchToSpaceND/crops"], "attr": {"Tcrops": {"type": "DT_INT32"}, "T": {"type": "DT_FLOAT"}, "Tblock_shape": {"type": "DT_INT32"}}}, {"name": "MMNet/enc_block3/branch2/depthwise_conv_dilation/BatchToSpaceND", "op": "BatchToSpaceND", "input": ["MMNet/enc_block3/branch2/depthwise_conv_dilation/DepthwiseConv2dNative", "MMNet/enc_block3/branch2/depthwise_conv_dilation/BatchToSpaceND/block_shape", "MMNet/enc_block3/branch2/depthwise_conv_dilation/BatchToSpaceND/crops"], "attr": {"Tcrops": {"type": "DT_INT32"}, "T": {"type": "DT_FLOAT"}, "Tblock_shape": {"type": "DT_INT32"}}}, {"name": "MMNet/enc_block3/branch3/depthwise_conv_dilation/BatchToSpaceND", "op": "BatchToSpaceND", "input": ["MMNet/enc_block3/branch3/depthwise_conv_dilation/DepthwiseConv2dNative", "MMNet/enc_block3/branch3/depthwise_conv_dilation/BatchToSpaceND/block_shape", "MMNet/enc_block3/branch3/depthwise_conv_dilation/BatchToSpaceND/crops"], "attr": {"T": {"type": "DT_FLOAT"}, "Tcrops": {"type": "DT_INT32"}, "Tblock_shape": {"type": "DT_INT32"}}}, {"name": "MMNet/enc_block3/branch1/depthwise_conv_dilation/BatchNorm/FusedBatchNorm/Mul", "op": "Mul", "input": ["MMNet/enc_block3/branch1/depthwise_conv_dilation/BatchToSpaceND", "MMNet/enc_block3/branch1/depthwise_conv_dilation/BatchNorm/FusedBatchNorm/Scaled"], "attr": {"T": {"type": "DT_FLOAT"}}}, {"name": "MMNet/enc_block3/branch2/depthwise_conv_dilation/BatchNorm/FusedBatchNorm/Mul", "op": "Mul", "input": ["MMNet/enc_block3/branch2/depthwise_conv_dilation/BatchToSpaceND", "MMNet/enc_block3/branch2/depthwise_conv_dilation/BatchNorm/FusedBatchNorm/Scaled"], "attr": {"T": {"type": "DT_FLOAT"}}}, {"name": "MMNet/enc_block3/branch3/depthwise_conv_dilation/BatchNorm/FusedBatchNorm/Mul", "op": "Mul", "input": ["MMNet/enc_block3/branch3/depthwise_conv_dilation/BatchToSpaceND", "MMNet/enc_block3/branch3/depthwise_conv_dilation/BatchNorm/FusedBatchNorm/Scaled"], "attr": {"T": {"type": "DT_FLOAT"}}}, {"name": "MMNet/enc_block3/branch1/depthwise_conv_dilation/BatchNorm/FusedBatchNorm", "op": "Add", "input": ["MMNet/enc_block3/branch1/depthwise_conv_dilation/BatchNorm/FusedBatchNorm/Mul", "MMNet/enc_block3/branch1/depthwise_conv_dilation/BatchNorm/FusedBatchNorm/Offset"], "attr": {"T": {"type": "DT_FLOAT"}}}, {"name": "MMNet/enc_block3/branch2/depthwise_conv_dilation/BatchNorm/FusedBatchNorm", "op": "Add", "input": ["MMNet/enc_block3/branch2/depthwise_conv_dilation/BatchNorm/FusedBatchNorm/Mul", "MMNet/enc_block3/branch2/depthwise_conv_dilation/BatchNorm/FusedBatchNorm/Offset"], "attr": {"T": {"type": "DT_FLOAT"}}}, {"name": "MMNet/enc_block3/branch3/depthwise_conv_dilation/BatchNorm/FusedBatchNorm", "op": "Add", "input": ["MMNet/enc_block3/branch3/depthwise_conv_dilation/BatchNorm/FusedBatchNorm/Mul", "MMNet/enc_block3/branch3/depthwise_conv_dilation/BatchNorm/FusedBatchNorm/Offset"], "attr": {"T": {"type": "DT_FLOAT"}}}, {"name": "MMNet/enc_block3/branch1/depthwise_conv_dilation/Relu6", "op": "Relu6", "input": ["MMNet/enc_block3/branch1/depthwise_conv_dilation/BatchNorm/FusedBatchNorm"], "attr": {"T": {"type": "DT_FLOAT"}}}, {"name": "MMNet/enc_block3/branch2/depthwise_conv_dilation/Relu6", "op": "Relu6", "input": ["MMNet/enc_block3/branch2/depthwise_conv_dilation/BatchNorm/FusedBatchNorm"], "attr": {"T": {"type": "DT_FLOAT"}}}, {"name": "MMNet/enc_block3/branch3/depthwise_conv_dilation/Relu6", "op": "Relu6", "input": ["MMNet/enc_block3/branch3/depthwise_conv_dilation/BatchNorm/FusedBatchNorm"], "attr": {"T": {"type": "DT_FLOAT"}}}, {"name": "MMNet/enc_block3/merge/concat", "op": "ConcatV2", "input": ["MMNet/enc_block3/branch0/depthwise_conv_dilation/DepthwiseConv2dNative", "MMNet/enc_block3/branch1/depthwise_conv_dilation/Relu6", "MMNet/enc_block3/branch2/depthwise_conv_dilation/Relu6", "MMNet/enc_block3/branch3/depthwise_conv_dilation/Relu6", "MMNet/enc_block3/merge/concat/axis"], "attr": {"N": {"i": "4"}, "T": {"type": "DT_FLOAT"}, "Tidx": {"type": "DT_INT32"}}}, {"name": "MMNet/enc_block3/merge/pointwise_conv/BatchNorm/FusedBatchNorm", "op": "_FusedConv2D", "input": ["MMNet/enc_block3/merge/concat", "MMNet/enc_block3/merge/pointwise_conv/Conv2D_weights", "MMNet/enc_block3/merge/pointwise_conv/Conv2D_bn_offset"], "device": "/device:CPU:0", "attr": {"data_format": {"s": "TkhXQw=="}, "epsilon": {"f": 0.0}, "T": {"type": "DT_FLOAT"}, "fused_ops": {"list": {"s": ["Qmlhc0FkZA=="]}}, "dilations": {"list": {"i": ["1", "1", "1", "1"]}}, "strides": {"list": {"i": ["1", "1", "1", "1"]}}, "explicit_paddings": {"list": {}}, "use_cudnn_on_gpu": {"b": true}, "padding": {"s": "U0FNRQ=="}, "num_args": {"i": "1"}}}, {"name": "MMNet/enc_block4/branch0/pointwise_conv/Relu6", "op": "_FusedConv2D", "input": ["MMNet/enc_block3/merge/pointwise_conv/BatchNorm/FusedBatchNorm", "MMNet/enc_block4/branch0/pointwise_conv/Conv2D_weights", "MMNet/enc_block4/branch0/pointwise_conv/Conv2D_bn_offset"], "device": "/device:CPU:0", "attr": {"T": {"type": "DT_FLOAT"}, "use_cudnn_on_gpu": {"b": true}, "fused_ops": {"list": {"s": ["Qmlhc0FkZA==", "UmVsdTY="]}}, "explicit_paddings": {"list": {}}, "num_args": {"i": "1"}, "strides": {"list": {"i": ["1", "1", "1", "1"]}}, "dilations": {"list": {"i": ["1", "1", "1", "1"]}}, "epsilon": {"f": 0.0}, "padding": {"s": "U0FNRQ=="}, "data_format": {"s": "TkhXQw=="}}}, {"name": "MMNet/enc_block4/branch1/pointwise_conv/Relu6", "op": "_FusedConv2D", "input": ["MMNet/enc_block3/merge/pointwise_conv/BatchNorm/FusedBatchNorm", "MMNet/enc_block4/branch1/pointwise_conv/Conv2D_weights", "MMNet/enc_block4/branch1/pointwise_conv/Conv2D_bn_offset"], "device": "/device:CPU:0", "attr": {"dilations": {"list": {"i": ["1", "1", "1", "1"]}}, "padding": {"s": "U0FNRQ=="}, "use_cudnn_on_gpu": {"b": true}, "strides": {"list": {"i": ["1", "1", "1", "1"]}}, "data_format": {"s": "TkhXQw=="}, "fused_ops": {"list": {"s": ["Qmlhc0FkZA==", "UmVsdTY="]}}, "epsilon": {"f": 0.0}, "T": {"type": "DT_FLOAT"}, "num_args": {"i": "1"}, "explicit_paddings": {"list": {}}}}, {"name": "MMNet/enc_block4/branch2/pointwise_conv/Relu6", "op": "_FusedConv2D", "input": ["MMNet/enc_block3/merge/pointwise_conv/BatchNorm/FusedBatchNorm", "MMNet/enc_block4/branch2/pointwise_conv/Conv2D_weights", "MMNet/enc_block4/branch2/pointwise_conv/Conv2D_bn_offset"], "device": "/device:CPU:0", "attr": {"padding": {"s": "U0FNRQ=="}, "use_cudnn_on_gpu": {"b": true}, "num_args": {"i": "1"}, "fused_ops": {"list": {"s": ["Qmlhc0FkZA==", "UmVsdTY="]}}, "data_format": {"s": "TkhXQw=="}, "dilations": {"list": {"i": ["1", "1", "1", "1"]}}, "T": {"type": "DT_FLOAT"}, "strides": {"list": {"i": ["1", "1", "1", "1"]}}, "explicit_paddings": {"list": {}}, "epsilon": {"f": 0.0}}}, {"name": "MMNet/enc_block4/branch0/depthwise_conv_stride/DepthwiseConv2dNative", "op": "FusedDepthwiseConv2dNative", "input": ["MMNet/enc_block4/branch0/pointwise_conv/Relu6", "MMNet/enc_block4/branch0/depthwise_conv_stride/DepthwiseConv2dNative_weights", "MMNet/enc_block4/branch0/depthwise_conv_stride/DepthwiseConv2dNative_bn_offset"], "attr": {"T": {"type": "DT_FLOAT"}, "strides": {"list": {"i": ["1", "2", "2", "1"]}}, "fused_ops": {"list": {"s": ["Qmlhc0FkZA==", "UmVsdTY="]}}, "data_format": {"s": "TkhXQw=="}, "dilations": {"list": {"i": ["1", "1", "1", "1"]}}, "explicit_paddings": {"list": {}}, "padding": {"s": "U0FNRQ=="}, "num_args": {"i": "1"}}}, {"name": "MMNet/enc_block4/branch1/depthwise_conv_stride/DepthwiseConv2dNative", "op": "FusedDepthwiseConv2dNative", "input": ["MMNet/enc_block4/branch1/pointwise_conv/Relu6", "MMNet/enc_block4/branch1/depthwise_conv_stride/DepthwiseConv2dNative_weights", "MMNet/enc_block4/branch1/depthwise_conv_stride/DepthwiseConv2dNative_bn_offset"], "attr": {"explicit_paddings": {"list": {}}, "num_args": {"i": "1"}, "data_format": {"s": "TkhXQw=="}, "padding": {"s": "U0FNRQ=="}, "fused_ops": {"list": {"s": ["Qmlhc0FkZA==", "UmVsdTY="]}}, "strides": {"list": {"i": ["1", "2", "2", "1"]}}, "T": {"type": "DT_FLOAT"}, "dilations": {"list": {"i": ["1", "1", "1", "1"]}}}}, {"name": "MMNet/enc_block4/branch2/depthwise_conv_stride/DepthwiseConv2dNative", "op": "FusedDepthwiseConv2dNative", "input": ["MMNet/enc_block4/branch2/pointwise_conv/Relu6", "MMNet/enc_block4/branch2/depthwise_conv_stride/DepthwiseConv2dNative_weights", "MMNet/enc_block4/branch2/depthwise_conv_stride/DepthwiseConv2dNative_bn_offset"], "attr": {"num_args": {"i": "1"}, "padding": {"s": "U0FNRQ=="}, "explicit_paddings": {"list": {}}, "T": {"type": "DT_FLOAT"}, "strides": {"list": {"i": ["1", "2", "2", "1"]}}, "dilations": {"list": {"i": ["1", "1", "1", "1"]}}, "data_format": {"s": "TkhXQw=="}, "fused_ops": {"list": {"s": ["Qmlhc0FkZA==", "UmVsdTY="]}}}}, {"name": "MMNet/enc_block4/branch0/depthwise_conv_dilation/DepthwiseConv2dNative", "op": "FusedDepthwiseConv2dNative", "input": ["MMNet/enc_block4/branch0/depthwise_conv_stride/DepthwiseConv2dNative", "MMNet/enc_block4/branch0/depthwise_conv_dilation/DepthwiseConv2dNative_weights", "MMNet/enc_block4/branch0/depthwise_conv_dilation/DepthwiseConv2dNative_bn_offset"], "attr": {"strides": {"list": {"i": ["1", "1", "1", "1"]}}, "data_format": {"s": "TkhXQw=="}, "explicit_paddings": {"list": {}}, "num_args": {"i": "1"}, "fused_ops": {"list": {"s": ["Qmlhc0FkZA==", "UmVsdTY="]}}, "dilations": {"list": {"i": ["1", "1", "1", "1"]}}, "T": {"type": "DT_FLOAT"}, "padding": {"s": "U0FNRQ=="}}}, {"name": "MMNet/enc_block4/branch1/depthwise_conv_dilation/SpaceToBatchND", "op": "SpaceToBatchND", "input": ["MMNet/enc_block4/branch1/depthwise_conv_stride/DepthwiseConv2dNative", "MMNet/enc_block4/branch1/depthwise_conv_dilation/SpaceToBatchND/block_shape", "MMNet/enc_block4/branch1/depthwise_conv_dilation/SpaceToBatchND/paddings"], "attr": {"Tpaddings": {"type": "DT_INT32"}, "T": {"type": "DT_FLOAT"}, "Tblock_shape": {"type": "DT_INT32"}}}, {"name": "MMNet/enc_block4/branch2/depthwise_conv_dilation/SpaceToBatchND", "op": "SpaceToBatchND", "input": ["MMNet/enc_block4/branch2/depthwise_conv_stride/DepthwiseConv2dNative", "MMNet/enc_block4/branch2/depthwise_conv_dilation/SpaceToBatchND/block_shape", "MMNet/enc_block4/branch2/depthwise_conv_dilation/SpaceToBatchND/paddings"], "attr": {"T": {"type": "DT_FLOAT"}, "Tpaddings": {"type": "DT_INT32"}, "Tblock_shape": {"type": "DT_INT32"}}}, {"name": "MMNet/enc_block4/branch1/depthwise_conv_dilation/DepthwiseConv2dNative", "op": "DepthwiseConv2dNative", "input": ["MMNet/enc_block4/branch1/depthwise_conv_dilation/SpaceToBatchND", "MMNet/enc_block4/branch1/depthwise_conv_dilation/depthwise_weights"], "attr": {"padding": {"s": "VkFMSUQ="}, "dilations": {"list": {"i": ["1", "1", "1", "1"]}}, "explicit_paddings": {"list": {}}, "data_format": {"s": "TkhXQw=="}, "strides": {"list": {"i": ["1", "1", "1", "1"]}}, "T": {"type": "DT_FLOAT"}}}, {"name": "MMNet/enc_block4/branch2/depthwise_conv_dilation/DepthwiseConv2dNative", "op": "DepthwiseConv2dNative", "input": ["MMNet/enc_block4/branch2/depthwise_conv_dilation/SpaceToBatchND", "MMNet/enc_block4/branch2/depthwise_conv_dilation/depthwise_weights"], "attr": {"T": {"type": "DT_FLOAT"}, "padding": {"s": "VkFMSUQ="}, "dilations": {"list": {"i": ["1", "1", "1", "1"]}}, "explicit_paddings": {"list": {}}, "data_format": {"s": "TkhXQw=="}, "strides": {"list": {"i": ["1", "1", "1", "1"]}}}}, {"name": "MMNet/enc_block4/branch1/depthwise_conv_dilation/BatchToSpaceND", "op": "BatchToSpaceND", "input": ["MMNet/enc_block4/branch1/depthwise_conv_dilation/DepthwiseConv2dNative", "MMNet/enc_block4/branch1/depthwise_conv_dilation/BatchToSpaceND/block_shape", "MMNet/enc_block4/branch1/depthwise_conv_dilation/BatchToSpaceND/crops"], "attr": {"T": {"type": "DT_FLOAT"}, "Tcrops": {"type": "DT_INT32"}, "Tblock_shape": {"type": "DT_INT32"}}}, {"name": "MMNet/enc_block4/branch2/depthwise_conv_dilation/BatchToSpaceND", "op": "BatchToSpaceND", "input": ["MMNet/enc_block4/branch2/depthwise_conv_dilation/DepthwiseConv2dNative", "MMNet/enc_block4/branch2/depthwise_conv_dilation/BatchToSpaceND/block_shape", "MMNet/enc_block4/branch2/depthwise_conv_dilation/BatchToSpaceND/crops"], "attr": {"Tblock_shape": {"type": "DT_INT32"}, "T": {"type": "DT_FLOAT"}, "Tcrops": {"type": "DT_INT32"}}}, {"name": "MMNet/enc_block4/branch1/depthwise_conv_dilation/BatchNorm/FusedBatchNorm/Mul", "op": "Mul", "input": ["MMNet/enc_block4/branch1/depthwise_conv_dilation/BatchToSpaceND", "MMNet/enc_block4/branch1/depthwise_conv_dilation/BatchNorm/FusedBatchNorm/Scaled"], "attr": {"T": {"type": "DT_FLOAT"}}}, {"name": "MMNet/enc_block4/branch2/depthwise_conv_dilation/BatchNorm/FusedBatchNorm/Mul", "op": "Mul", "input": ["MMNet/enc_block4/branch2/depthwise_conv_dilation/BatchToSpaceND", "MMNet/enc_block4/branch2/depthwise_conv_dilation/BatchNorm/FusedBatchNorm/Scaled"], "attr": {"T": {"type": "DT_FLOAT"}}}, {"name": "MMNet/enc_block4/branch1/depthwise_conv_dilation/BatchNorm/FusedBatchNorm", "op": "Add", "input": ["MMNet/enc_block4/branch1/depthwise_conv_dilation/BatchNorm/FusedBatchNorm/Mul", "MMNet/enc_block4/branch1/depthwise_conv_dilation/BatchNorm/FusedBatchNorm/Offset"], "attr": {"T": {"type": "DT_FLOAT"}}}, {"name": "MMNet/enc_block4/branch2/depthwise_conv_dilation/BatchNorm/FusedBatchNorm", "op": "Add", "input": ["MMNet/enc_block4/branch2/depthwise_conv_dilation/BatchNorm/FusedBatchNorm/Mul", "MMNet/enc_block4/branch2/depthwise_conv_dilation/BatchNorm/FusedBatchNorm/Offset"], "attr": {"T": {"type": "DT_FLOAT"}}}, {"name": "MMNet/enc_block4/branch1/depthwise_conv_dilation/Relu6", "op": "Relu6", "input": ["MMNet/enc_block4/branch1/depthwise_conv_dilation/BatchNorm/FusedBatchNorm"], "attr": {"T": {"type": "DT_FLOAT"}}}, {"name": "MMNet/enc_block4/branch2/depthwise_conv_dilation/Relu6", "op": "Relu6", "input": ["MMNet/enc_block4/branch2/depthwise_conv_dilation/BatchNorm/FusedBatchNorm"], "attr": {"T": {"type": "DT_FLOAT"}}}, {"name": "MMNet/enc_block4/merge/concat", "op": "ConcatV2", "input": ["MMNet/enc_block4/branch0/depthwise_conv_dilation/DepthwiseConv2dNative", "MMNet/enc_block4/branch1/depthwise_conv_dilation/Relu6", "MMNet/enc_block4/branch2/depthwise_conv_dilation/Relu6", "MMNet/enc_block4/merge/concat/axis"], "attr": {"Tidx": {"type": "DT_INT32"}, "T": {"type": "DT_FLOAT"}, "N": {"i": "3"}}}, {"name": "MMNet/enc_block4/merge/pointwise_conv/BatchNorm/FusedBatchNorm", "op": "_FusedConv2D", "input": ["MMNet/enc_block4/merge/concat", "MMNet/enc_block4/merge/pointwise_conv/Conv2D_weights", "MMNet/enc_block4/merge/pointwise_conv/Conv2D_bn_offset"], "device": "/device:CPU:0", "attr": {"fused_ops": {"list": {"s": ["Qmlhc0FkZA=="]}}, "num_args": {"i": "1"}, "T": {"type": "DT_FLOAT"}, "data_format": {"s": "TkhXQw=="}, "explicit_paddings": {"list": {}}, "use_cudnn_on_gpu": {"b": true}, "padding": {"s": "U0FNRQ=="}, "strides": {"list": {"i": ["1", "1", "1", "1"]}}, "dilations": {"list": {"i": ["1", "1", "1", "1"]}}, "epsilon": {"f": 0.0}}}, {"name": "MMNet/enc_block5/branch0/pointwise_conv/Relu6", "op": "_FusedConv2D", "input": ["MMNet/enc_block4/merge/pointwise_conv/BatchNorm/FusedBatchNorm", "MMNet/enc_block5/branch0/pointwise_conv/Conv2D_weights", "MMNet/enc_block5/branch0/pointwise_conv/Conv2D_bn_offset"], "device": "/device:CPU:0", "attr": {"strides": {"list": {"i": ["1", "1", "1", "1"]}}, "epsilon": {"f": 0.0}, "T": {"type": "DT_FLOAT"}, "data_format": {"s": "TkhXQw=="}, "padding": {"s": "U0FNRQ=="}, "num_args": {"i": "1"}, "explicit_paddings": {"list": {}}, "use_cudnn_on_gpu": {"b": true}, "fused_ops": {"list": {"s": ["Qmlhc0FkZA==", "UmVsdTY="]}}, "dilations": {"list": {"i": ["1", "1", "1", "1"]}}}}, {"name": "MMNet/enc_block5/branch1/pointwise_conv/Relu6", "op": "_FusedConv2D", "input": ["MMNet/enc_block4/merge/pointwise_conv/BatchNorm/FusedBatchNorm", "MMNet/enc_block5/branch1/pointwise_conv/Conv2D_weights", "MMNet/enc_block5/branch1/pointwise_conv/Conv2D_bn_offset"], "device": "/device:CPU:0", "attr": {"fused_ops": {"list": {"s": ["Qmlhc0FkZA==", "UmVsdTY="]}}, "num_args": {"i": "1"}, "dilations": {"list": {"i": ["1", "1", "1", "1"]}}, "data_format": {"s": "TkhXQw=="}, "use_cudnn_on_gpu": {"b": true}, "padding": {"s": "U0FNRQ=="}, "T": {"type": "DT_FLOAT"}, "epsilon": {"f": 0.0}, "strides": {"list": {"i": ["1", "1", "1", "1"]}}, "explicit_paddings": {"list": {}}}}, {"name": "MMNet/enc_block5/branch2/pointwise_conv/Relu6", "op": "_FusedConv2D", "input": ["MMNet/enc_block4/merge/pointwise_conv/BatchNorm/FusedBatchNorm", "MMNet/enc_block5/branch2/pointwise_conv/Conv2D_weights", "MMNet/enc_block5/branch2/pointwise_conv/Conv2D_bn_offset"], "device": "/device:CPU:0", "attr": {"explicit_paddings": {"list": {}}, "strides": {"list": {"i": ["1", "1", "1", "1"]}}, "use_cudnn_on_gpu": {"b": true}, "T": {"type": "DT_FLOAT"}, "num_args": {"i": "1"}, "padding": {"s": "U0FNRQ=="}, "data_format": {"s": "TkhXQw=="}, "dilations": {"list": {"i": ["1", "1", "1", "1"]}}, "fused_ops": {"list": {"s": ["Qmlhc0FkZA==", "UmVsdTY="]}}, "epsilon": {"f": 0.0}}}, {"name": "MMNet/dec_block0/shortcut/depthwise_conv/DepthwiseConv2dNative", "op": "FusedDepthwiseConv2dNative", "input": ["MMNet/enc_block4/merge/pointwise_conv/BatchNorm/FusedBatchNorm", "MMNet/dec_block0/shortcut/depthwise_conv/DepthwiseConv2dNative_weights", "MMNet/dec_block0/shortcut/depthwise_conv/DepthwiseConv2dNative_bn_offset"], "attr": {"num_args": {"i": "1"}, "fused_ops": {"list": {"s": ["Qmlhc0FkZA==", "UmVsdTY="]}}, "T": {"type": "DT_FLOAT"}, "explicit_paddings": {"list": {}}, "dilations": {"list": {"i": ["1", "1", "1", "1"]}}, "data_format": {"s": "TkhXQw=="}, "strides": {"list": {"i": ["1", "1", "1", "1"]}}, "padding": {"s": "U0FNRQ=="}}}, {"name": "MMNet/enc_block5/branch0/depthwise_conv_dilation/DepthwiseConv2dNative", "op": "FusedDepthwiseConv2dNative", "input": ["MMNet/enc_block5/branch0/pointwise_conv/Relu6", "MMNet/enc_block5/branch0/depthwise_conv_dilation/DepthwiseConv2dNative_weights", "MMNet/enc_block5/branch0/depthwise_conv_dilation/DepthwiseConv2dNative_bn_offset"], "attr": {"padding": {"s": "U0FNRQ=="}, "T": {"type": "DT_FLOAT"}, "dilations": {"list": {"i": ["1", "1", "1", "1"]}}, "strides": {"list": {"i": ["1", "1", "1", "1"]}}, "data_format": {"s": "TkhXQw=="}, "num_args": {"i": "1"}, "explicit_paddings": {"list": {}}, "fused_ops": {"list": {"s": ["Qmlhc0FkZA==", "UmVsdTY="]}}}}, {"name": "MMNet/enc_block5/branch1/depthwise_conv_dilation/SpaceToBatchND", "op": "SpaceToBatchND", "input": ["MMNet/enc_block5/branch1/pointwise_conv/Relu6", "MMNet/enc_block5/branch1/depthwise_conv_dilation/SpaceToBatchND/block_shape", "MMNet/enc_block5/branch1/depthwise_conv_dilation/SpaceToBatchND/paddings"], "attr": {"T": {"type": "DT_FLOAT"}, "Tblock_shape": {"type": "DT_INT32"}, "Tpaddings": {"type": "DT_INT32"}}}, {"name": "MMNet/enc_block5/branch2/depthwise_conv_dilation/SpaceToBatchND", "op": "SpaceToBatchND", "input": ["MMNet/enc_block5/branch2/pointwise_conv/Relu6", "MMNet/enc_block5/branch2/depthwise_conv_dilation/SpaceToBatchND/block_shape", "MMNet/enc_block5/branch2/depthwise_conv_dilation/SpaceToBatchND/paddings"], "attr": {"Tblock_shape": {"type": "DT_INT32"}, "T": {"type": "DT_FLOAT"}, "Tpaddings": {"type": "DT_INT32"}}}, {"name": "MMNet/enc_block5/branch1/depthwise_conv_dilation/DepthwiseConv2dNative", "op": "DepthwiseConv2dNative", "input": ["MMNet/enc_block5/branch1/depthwise_conv_dilation/SpaceToBatchND", "MMNet/enc_block5/branch1/depthwise_conv_dilation/depthwise_weights"], "attr": {"T": {"type": "DT_FLOAT"}, "data_format": {"s": "TkhXQw=="}, "explicit_paddings": {"list": {}}, "strides": {"list": {"i": ["1", "1", "1", "1"]}}, "dilations": {"list": {"i": ["1", "1", "1", "1"]}}, "padding": {"s": "VkFMSUQ="}}}, {"name": "MMNet/enc_block5/branch2/depthwise_conv_dilation/DepthwiseConv2dNative", "op": "DepthwiseConv2dNative", "input": ["MMNet/enc_block5/branch2/depthwise_conv_dilation/SpaceToBatchND", "MMNet/enc_block5/branch2/depthwise_conv_dilation/depthwise_weights"], "attr": {"data_format": {"s": "TkhXQw=="}, "strides": {"list": {"i": ["1", "1", "1", "1"]}}, "dilations": {"list": {"i…
ion/SpaceToBatchND/block_shape", "MMNet/dec_block3/branch1/depthwise_conv_dilation/SpaceToBatchND/paddings"], "attr": {"Tblock_shape": {"type": "DT_INT32"}, "T": {"type": "DT_FLOAT"}, "Tpaddings": {"type": "DT_INT32"}}}, {"name": "MMNet/dec_block3/branch2/depthwise_conv_dilation/SpaceToBatchND", "op": "SpaceToBatchND", "input": ["MMNet/dec_block3/branch2/pointwise_conv/Relu6", "MMNet/dec_block3/branch2/depthwise_conv_dilation/SpaceToBatchND/block_shape", "MMNet/dec_block3/branch2/depthwise_conv_dilation/SpaceToBatchND/paddings"], "attr": {"Tpaddings": {"type": "DT_INT32"}, "T": {"type": "DT_FLOAT"}, "Tblock_shape": {"type": "DT_INT32"}}}, {"name": "MMNet/dec_block3/branch1/depthwise_conv_dilation/DepthwiseConv2dNative", "op": "DepthwiseConv2dNative", "input": ["MMNet/dec_block3/branch1/depthwise_conv_dilation/SpaceToBatchND", "MMNet/dec_block3/branch1/depthwise_conv_dilation/depthwise_weights"], "attr": {"explicit_paddings": {"list": {}}, "data_format": {"s": "TkhXQw=="}, "dilations": {"list": {"i": ["1", "1", "1", "1"]}}, "strides": {"list": {"i": ["1", "1", "1", "1"]}}, "T": {"type": "DT_FLOAT"}, "padding": {"s": "VkFMSUQ="}}}, {"name": "MMNet/dec_block3/branch2/depthwise_conv_dilation/DepthwiseConv2dNative", "op": "DepthwiseConv2dNative", "input": ["MMNet/dec_block3/branch2/depthwise_conv_dilation/SpaceToBatchND", "MMNet/dec_block3/branch2/depthwise_conv_dilation/depthwise_weights"], "attr": {"explicit_paddings": {"list": {}}, "dilations": {"list": {"i": ["1", "1", "1", "1"]}}, "T": {"type": "DT_FLOAT"}, "data_format": {"s": "TkhXQw=="}, "strides": {"list": {"i": ["1", "1", "1", "1"]}}, "padding": {"s": "VkFMSUQ="}}}, {"name": "MMNet/dec_block3/branch1/depthwise_conv_dilation/BatchToSpaceND", "op": "BatchToSpaceND", "input": ["MMNet/dec_block3/branch1/depthwise_conv_dilation/DepthwiseConv2dNative", "MMNet/dec_block3/branch1/depthwise_conv_dilation/BatchToSpaceND/block_shape", "MMNet/dec_block3/branch1/depthwise_conv_dilation/BatchToSpaceND/crops"], "attr": {"Tblock_shape": {"type": "DT_INT32"}, "Tcrops": {"type": "DT_INT32"}, "T": {"type": "DT_FLOAT"}}}, {"name": "MMNet/dec_block3/branch2/depthwise_conv_dilation/BatchToSpaceND", "op": "BatchToSpaceND", "input": ["MMNet/dec_block3/branch2/depthwise_conv_dilation/DepthwiseConv2dNative", "MMNet/dec_block3/branch2/depthwise_conv_dilation/BatchToSpaceND/block_shape", "MMNet/dec_block3/branch2/depthwise_conv_dilation/BatchToSpaceND/crops"], "attr": {"T": {"type": "DT_FLOAT"}, "Tblock_shape": {"type": "DT_INT32"}, "Tcrops": {"type": "DT_INT32"}}}, {"name": "MMNet/dec_block3/branch1/depthwise_conv_dilation/BatchNorm/FusedBatchNorm/Mul", "op": "Mul", "input": ["MMNet/dec_block3/branch1/depthwise_conv_dilation/BatchToSpaceND", "MMNet/dec_block3/branch1/depthwise_conv_dilation/BatchNorm/FusedBatchNorm/Scaled"], "attr": {"T": {"type": "DT_FLOAT"}}}, {"name": "MMNet/dec_block3/branch2/depthwise_conv_dilation/BatchNorm/FusedBatchNorm/Mul", "op": "Mul", "input": ["MMNet/dec_block3/branch2/depthwise_conv_dilation/BatchToSpaceND", "MMNet/dec_block3/branch2/depthwise_conv_dilation/BatchNorm/FusedBatchNorm/Scaled"], "attr": {"T": {"type": "DT_FLOAT"}}}, {"name": "MMNet/dec_block3/branch1/depthwise_conv_dilation/BatchNorm/FusedBatchNorm", "op": "Add", "input": ["MMNet/dec_block3/branch1/depthwise_conv_dilation/BatchNorm/FusedBatchNorm/Mul", "MMNet/dec_block3/branch1/depthwise_conv_dilation/BatchNorm/FusedBatchNorm/Offset"], "attr": {"T": {"type": "DT_FLOAT"}}}, {"name": "MMNet/dec_block3/branch2/depthwise_conv_dilation/BatchNorm/FusedBatchNorm", "op": "Add", "input": ["MMNet/dec_block3/branch2/depthwise_conv_dilation/BatchNorm/FusedBatchNorm/Mul", "MMNet/dec_block3/branch2/depthwise_conv_dilation/BatchNorm/FusedBatchNorm/Offset"], "attr": {"T": {"type": "DT_FLOAT"}}}, {"name": "MMNet/dec_block3/branch1/depthwise_conv_dilation/Relu6", "op": "Relu6", "input": ["MMNet/dec_block3/branch1/depthwise_conv_dilation/BatchNorm/FusedBatchNorm"], "attr": {"T": {"type": "DT_FLOAT"}}}, {"name": "MMNet/dec_block3/branch2/depthwise_conv_dilation/Relu6", "op": "Relu6", "input": ["MMNet/dec_block3/branch2/depthwise_conv_dilation/BatchNorm/FusedBatchNorm"], "attr": {"T": {"type": "DT_FLOAT"}}}, {"name": "MMNet/dec_block3/merge/concat", "op": "ConcatV2", "input": ["MMNet/dec_block3/branch0/depthwise_conv_dilation/DepthwiseConv2dNative", "MMNet/dec_block3/branch1/depthwise_conv_dilation/Relu6", "MMNet/dec_block3/branch2/depthwise_conv_dilation/Relu6", "MMNet/dec_block3/merge/concat/axis"], "attr": {"N": {"i": "3"}, "T": {"type": "DT_FLOAT"}, "Tidx": {"type": "DT_INT32"}}}, {"name": "MMNet/dec_block3/merge/pointwise_conv/BatchNorm/FusedBatchNorm", "op": "_FusedConv2D", "input": ["MMNet/dec_block3/merge/concat", "MMNet/dec_block3/merge/pointwise_conv/Conv2D_weights", "MMNet/dec_block3/merge/pointwise_conv/Conv2D_bn_offset"], "device": "/device:CPU:0", "attr": {"data_format": {"s": "TkhXQw=="}, "strides": {"list": {"i": ["1", "1", "1", "1"]}}, "explicit_paddings": {"list": {}}, "T": {"type": "DT_FLOAT"}, "fused_ops": {"list": {"s": ["Qmlhc0FkZA=="]}}, "epsilon": {"f": 0.0}, "use_cudnn_on_gpu": {"b": true}, "dilations": {"list": {"i": ["1", "1", "1", "1"]}}, "padding": {"s": "U0FNRQ=="}, "num_args": {"i": "1"}}}, {"name": "MMNet/dec_block4/pointwise_conv/Relu6", "op": "_FusedConv2D", "input": ["MMNet/dec_block3/merge/pointwise_conv/BatchNorm/FusedBatchNorm", "MMNet/dec_block4/pointwise_conv/Conv2D_weights", "MMNet/dec_block4/pointwise_conv/Conv2D_bn_offset"], "device": "/device:CPU:0", "attr": {"fused_ops": {"list": {"s": ["Qmlhc0FkZA==", "UmVsdTY="]}}, "use_cudnn_on_gpu": {"b": true}, "dilations": {"list": {"i": ["1", "1", "1", "1"]}}, "padding": {"s": "U0FNRQ=="}, "epsilon": {"f": 0.0}, "num_args": {"i": "1"}, "T": {"type": "DT_FLOAT"}, "explicit_paddings": {"list": {}}, "data_format": {"s": "TkhXQw=="}, "strides": {"list": {"i": ["1", "1", "1", "1"]}}}}, {"name": "MMNet/dec_block4/resize_bilinear_0", "op": "ResizeBilinear", "input": ["MMNet/dec_block4/pointwise_conv/Relu6", "MMNet/dec_block4/resize_bilinear_0/size"], "attr": {"T": {"type": "DT_FLOAT"}, "half_pixel_centers": {"b": false}, "align_corners": {"b": false}}}, {"name": "MMNet/dec_block4/resize_bilinear_1", "op": "ResizeBilinear", "input": ["MMNet/dec_block4/resize_bilinear_0", "MMNet/dec_block4/resize_bilinear_1/size"], "attr": {"half_pixel_centers": {"b": false}, "align_corners": {"b": false}, "T": {"type": "DT_FLOAT"}}}, {"name": "MMNet/final_block/pointwise_conv/BiasAdd", "op": "_FusedConv2D", "input": ["MMNet/dec_block4/resize_bilinear_1", "MMNet/final_block/pointwise_conv/weights", "MMNet/final_block/pointwise_conv/biases"], "device": "/device:CPU:0", "attr": {"data_format": {"s": "TkhXQw=="}, "epsilon": {"f": 0.0}, "dilations": {"list": {"i": ["1", "1", "1", "1"]}}, "T": {"type": "DT_FLOAT"}, "fused_ops": {"list": {"s": ["Qmlhc0FkZA=="]}}, "padding": {"s": "U0FNRQ=="}, "use_cudnn_on_gpu": {"b": true}, "num_args": {"i": "1"}, "explicit_paddings": {"list": {}}, "strides": {"list": {"i": ["1", "1", "1", "1"]}}}}, {"name": "output/softmax/Reshape", "op": "Reshape", "input": ["MMNet/final_block/pointwise_conv/BiasAdd", "output/softmax/Reshape/shape"], "attr": {"Tshape": {"type": "DT_INT32"}, "T": {"type": "DT_FLOAT"}}}, {"name": "output/softmax/Softmax", "op": "Softmax", "input": ["output/softmax/Reshape"], "attr": {"T": {"type": "DT_FLOAT"}}}, {"name": "output/softmax/Reshape_1", "op": "Reshape", "input": ["output/softmax/Softmax", "output/softmax/Shape"], "attr": {"T": {"type": "DT_FLOAT"}, "Tshape": {"type": "DT_INT32"}}}], "library": {}, "versions": {"minConsumer": 12}}, "weightsManifest": [{"paths": ["group1-shard1of1.bin"], "weights": [{"name": "MMNet/dec_block3/branch1/depthwise_conv_dilation/SpaceToBatchND/block_shape", "shape": [2], "dtype": "int32"}, {"name": "MMNet/dec_block3/branch1/depthwise_conv_dilation/SpaceToBatchND/paddings", "shape": [2, 2], "dtype": "int32"}, {"name": "MMNet/dec_block3/branch1/depthwise_conv_dilation/depthwise_weights", "shape": [3, 3, 40, 1], "dtype": "float32"}, {"name": "MMNet/dec_block3/branch1/depthwise_conv_dilation/BatchToSpaceND/block_shape", "shape": [2], "dtype": "int32"}, {"name": "MMNet/dec_block3/branch1/depthwise_conv_dilation/BatchToSpaceND/crops", "shape": [2, 2], "dtype": "int32"}, {"name": "MMNet/dec_block2/branch1/depthwise_conv_dilation/SpaceToBatchND/block_shape", "shape": [2], "dtype": "int32"}, {"name": "MMNet/dec_block2/branch1/depthwise_conv_dilation/SpaceToBatchND/paddings", "shape": [2, 2], "dtype": "int32"}, {"name": "MMNet/dec_block2/branch1/depthwise_conv_dilation/depthwise_weights", "shape": [3, 3, 40, 1], "dtype": "float32"}, {"name": "MMNet/dec_block2/branch1/depthwise_conv_dilation/BatchToSpaceND/block_shape", "shape": [2], "dtype": "int32"}, {"name": "MMNet/dec_block2/branch1/depthwise_conv_dilation/BatchToSpaceND/crops", "shape": [2, 2], "dtype": "int32"}, {"name": "MMNet/enc_block7/branch1/depthwise_conv_dilation/SpaceToBatchND/block_shape", "shape": [2], "dtype": "int32"}, {"name": "MMNet/enc_block7/branch1/depthwise_conv_dilation/SpaceToBatchND/paddings", "shape": [2, 2], "dtype": "int32"}, {"name": "MMNet/enc_block7/branch1/depthwise_conv_dilation/depthwise_weights", "shape": [3, 3, 64, 1], "dtype": "float32"}, {"name": "MMNet/enc_block7/branch1/depthwise_conv_dilation/BatchToSpaceND/block_shape", "shape": [2], "dtype": "int32"}, {"name": "MMNet/enc_block7/branch1/depthwise_conv_dilation/BatchToSpaceND/crops", "shape": [2, 2], "dtype": "int32"}, {"name": "MMNet/enc_block6/branch1/depthwise_conv_dilation/SpaceToBatchND/block_shape", "shape": [2], "dtype": "int32"}, {"name": "MMNet/enc_block6/branch1/depthwise_conv_dilation/SpaceToBatchND/paddings", "shape": [2, 2], "dtype": "int32"}, {"name": "MMNet/enc_block6/branch1/depthwise_conv_dilation/depthwise_weights", "shape": [3, 3, 64, 1], "dtype": "float32"}, {"name": "MMNet/enc_block6/branch1/depthwise_conv_dilation/BatchToSpaceND/block_shape", "shape": [2], "dtype": "int32"}, {"name": "MMNet/enc_block6/branch1/depthwise_conv_dilation/BatchToSpaceND/crops", "shape": [2, 2], "dtype": "int32"}, {"name": "MMNet/enc_block5/branch1/depthwise_conv_dilation/SpaceToBatchND/block_shape", "shape": [2], "dtype": "int32"}, {"name": "MMNet/enc_block5/branch1/depthwise_conv_dilation/SpaceToBatchND/paddings", "shape": [2, 2], "dtype": "int32"}, {"name": "MMNet/enc_block5/branch1/depthwise_conv_dilation/depthwise_weights", "shape": [3, 3, 64, 1], "dtype": "float32"}, {"name": "MMNet/enc_block5/branch1/depthwise_conv_dilation/BatchToSpaceND/block_shape", "shape": [2], "dtype": "int32"}, {"name": "MMNet/enc_block5/branch1/depthwise_conv_dilation/BatchToSpaceND/crops", "shape": [2, 2], "dtype": "int32"}, {"name": "MMNet/enc_block5/branch2/depthwise_conv_dilation/SpaceToBatchND/block_shape", "shape": [2], "dtype": "int32"}, {"name": "MMNet/enc_block5/branch2/depthwise_conv_dilation/SpaceToBatchND/paddings", "shape": [2, 2], "dtype": "int32"}, {"name": "MMNet/enc_block5/branch2/depthwise_conv_dilation/depthwise_weights", "shape": [3, 3, 64, 1], "dtype": "float32"}, {"name": "MMNet/enc_block5/branch2/depthwise_conv_dilation/BatchToSpaceND/block_shape", "shape": [2], "dtype": "int32"}, {"name": "MMNet/enc_block5/branch2/depthwise_conv_dilation/BatchToSpaceND/crops", "shape": [2, 2], "dtype": "int32"}, {"name": "MMNet/enc_block5/merge/concat/axis", "shape": [], "dtype": "int32"}, {"name": "MMNet/enc_block6/branch2/depthwise_conv_dilation/SpaceToBatchND/block_shape", "shape": [2], "dtype": "int32"}, {"name": "MMNet/enc_block6/branch2/depthwise_conv_dilation/SpaceToBatchND/paddings", "shape": [2, 2], "dtype": "int32"}, {"name": "MMNet/enc_block6/branch2/depthwise_conv_dilation/depthwise_weights", "shape": [3, 3, 64, 1], "dtype": "float32"}, {"name": "MMNet/enc_block6/branch2/depthwise_conv_dilation/BatchToSpaceND/block_shape", "shape": [2], "dtype": "int32"}, {"name": "MMNet/enc_block6/branch2/depthwise_conv_dilation/BatchToSpaceND/crops", "shape": [2, 2], "dtype": "int32"}, {"name": "MMNet/enc_block6/merge/concat/axis", "shape": [], "dtype": "int32"}, {"name": "MMNet/enc_block7/branch2/depthwise_conv_dilation/SpaceToBatchND/block_shape", "shape": [2], "dtype": "int32"}, {"name": "MMNet/enc_block7/branch2/depthwise_conv_dilation/SpaceToBatchND/paddings", "shape": [2, 2], "dtype": "int32"}, {"name": "MMNet/enc_block7/branch2/depthwise_conv_dilation/depthwise_weights", "shape": [3, 3, 64, 1], "dtype": "float32"}, {"name": "MMNet/enc_block7/branch2/depthwise_conv_dilation/BatchToSpaceND/block_shape", "shape": [2], "dtype": "int32"}, {"name": "MMNet/enc_block7/branch2/depthwise_conv_dilation/BatchToSpaceND/crops", "shape": [2, 2], "dtype": "int32"}, {"name": "MMNet/enc_block7/merge/concat/axis", "shape": [], "dtype": "int32"}, {"name": "MMNet/enc_block8/branch1/depthwise_conv_dilation/SpaceToBatchND/block_shape", "shape": [2], "dtype": "int32"}, {"name": "MMNet/enc_block8/branch1/depthwise_conv_dilation/SpaceToBatchND/paddings", "shape": [2, 2], "dtype": "int32"}, {"name": "MMNet/enc_block8/branch1/depthwise_conv_dilation/depthwise_weights", "shape": [3, 3, 80, 1], "dtype": "float32"}, {"name": "MMNet/enc_block8/branch1/depthwise_conv_dilation/BatchToSpaceND/block_shape", "shape": [2], "dtype": "int32"}, {"name": "MMNet/enc_block8/branch1/depthwise_conv_dilation/BatchToSpaceND/crops", "shape": [2, 2], "dtype": "int32"}, {"name": "MMNet/enc_block8/merge/concat/axis", "shape": [], "dtype": "int32"}, {"name": "MMNet/enc_block9/branch1/depthwise_conv_dilation/SpaceToBatchND/block_shape", "shape": [2], "dtype": "int32"}, {"name": "MMNet/enc_block9/branch1/depthwise_conv_dilation/SpaceToBatchND/paddings", "shape": [2, 2], "dtype": "int32"}, {"name": "MMNet/enc_block9/branch1/depthwise_conv_dilation/depthwise_weights", "shape": [3, 3, 120, 1], "dtype": "float32"}, {"name": "MMNet/enc_block9/branch1/depthwise_conv_dilation/BatchToSpaceND/block_shape", "shape": [2], "dtype": "int32"}, {"name": "MMNet/enc_block9/branch1/depthwise_conv_dilation/BatchToSpaceND/crops", "shape": [2, 2], "dtype": "int32"}, {"name": "MMNet/enc_block9/merge/concat/axis", "shape": [], "dtype": "int32"}, {"name": "MMNet/dec_block0/resize_bilinear_0/size", "shape": [2], "dtype": "int32"}, {"name": "MMNet/enc_block4/branch1/depthwise_conv_dilation/SpaceToBatchND/block_shape", "shape": [2], "dtype": "int32"}, {"name": "MMNet/enc_block4/branch1/depthwise_conv_dilation/SpaceToBatchND/paddings", "shape": [2, 2], "dtype": "int32"}, {"name": "MMNet/enc_block4/branch1/depthwise_conv_dilation/depthwise_weights", "shape": [3, 3, 32, 1], "dtype": "float32"}, {"name": "MMNet/enc_block4/branch1/depthwise_conv_dilation/BatchToSpaceND/block_shape", "shape": [2], "dtype": "int32"}, {"name": "MMNet/enc_block4/branch1/depthwise_conv_dilation/BatchToSpaceND/crops", "shape": [2, 2], "dtype": "int32"}, {"name": "MMNet/enc_block3/branch1/depthwise_conv_dilation/SpaceToBatchND/block_shape", "shape": [2], "dtype": "int32"}, {"name": "MMNet/enc_block3/branch1/depthwise_conv_dilation/SpaceToBatchND/paddings", "shape": [2, 2], "dtype": "int32"}, {"name": "MMNet/enc_block3/branch1/depthwise_conv_dilation/depthwise_weights", "shape": [3, 3, 24, 1], "dtype": "float32"}, {"name": "MMNet/enc_block3/branch1/depthwise_conv_dilation/BatchToSpaceND/block_shape", "shape": [2], "dtype": "int32"}, {"name": "MMNet/enc_block3/branch1/depthwise_conv_dilation/BatchToSpaceND/crops", "shape": [2, 2], "dtype": "int32"}, {"name": "MMNet/enc_block3/branch2/depthwise_conv_dilation/SpaceToBatchND/block_shape", "shape": [2], "dtype": "int32"}, {"name": "MMNet/enc_block3/branch2/depthwise_conv_dilation/SpaceToBatchND/paddings", "shape": [2, 2], "dtype": "int32"}, {"name": "MMNet/enc_block3/branch2/depthwise_conv_dilation/depthwise_weights", "shape": [3, 3, 24, 1], "dtype": "float32"}, {"name": "MMNet/enc_block3/branch2/depthwise_conv_dilation/BatchToSpaceND/block_shape", "shape": [2], "dtype": "int32"}, {"name": "MMNet/enc_block3/branch2/depthwise_conv_dilation/BatchToSpaceND/crops", "shape": [2, 2], "dtype": "int32"}, {"name": "MMNet/enc_block2/branch1/depthwise_conv_dilation/SpaceToBatchND/block_shape", "shape": [2], "dtype": "int32"}, {"name": "MMNet/enc_block2/branch1/depthwise_conv_dilation/SpaceToBatchND/paddings", "shape": [2, 2], "dtype": "int32"}, {"name": "MMNet/enc_block2/branch1/depthwise_conv_dilation/depthwise_weights", "shape": [3, 3, 24, 1], "dtype": "float32"}, {"name": "MMNet/enc_block2/branch1/depthwise_conv_dilation/BatchToSpaceND/block_shape", "shape": [2], "dtype": "int32"}, {"name": "MMNet/enc_block2/branch1/depthwise_conv_dilation/BatchToSpaceND/crops", "shape": [2, 2], "dtype": "int32"}, {"name": "MMNet/enc_block2/branch2/depthwise_conv_dilation/SpaceToBatchND/block_shape", "shape": [2], "dtype": "int32"}, {"name": "MMNet/enc_block2/branch2/depthwise_conv_dilation/SpaceToBatchND/paddings", "shape": [2, 2], "dtype": "int32"}, {"name": "MMNet/enc_block2/branch2/depthwise_conv_dilation/depthwise_weights", "shape": [3, 3, 24, 1], "dtype": "float32"}, {"name": "MMNet/enc_block2/branch2/depthwise_conv_dilation/BatchToSpaceND/block_shape", "shape": [2], "dtype": "int32"}, {"name": "MMNet/enc_block2/branch2/depthwise_conv_dilation/BatchToSpaceND/crops", "shape": [2, 2], "dtype": "int32"}, {"name": "MMNet/enc_block1/branch1/depthwise_conv_dilation/SpaceToBatchND/block_shape", "shape": [2], "dtype": "int32"}, {"name": "MMNet/enc_block1/branch1/depthwise_conv_dilation/SpaceToBatchND/paddings", "shape": [2, 2], "dtype": "int32"}, {"name": "MMNet/enc_block1/branch1/depthwise_conv_dilation/depthwise_weights", "shape": [3, 3, 16, 1], "dtype": "float32"}, {"name": "MMNet/enc_block1/branch1/depthwise_conv_dilation/BatchToSpaceND/block_shape", "shape": [2], "dtype": "int32"}, {"name": "MMNet/enc_block1/branch1/depthwise_conv_dilation/BatchToSpaceND/crops", "shape": [2, 2], "dtype": "int32"}, {"name": "MMNet/enc_block1/branch2/depthwise_conv_dilation/SpaceToBatchND/block_shape", "shape": [2], "dtype": "int32"}, {"name": "MMNet/enc_block1/branch2/depthwise_conv_dilation/SpaceToBatchND/paddings", "shape": [2, 2], "dtype": "int32"}, {"name": "MMNet/enc_block1/branch2/depthwise_conv_dilation/depthwise_weights", "shape": [3, 3, 16, 1], "dtype": "float32"}, {"name": "MMNet/enc_block1/branch2/depthwise_conv_dilation/BatchToSpaceND/block_shape", "shape": [2], "dtype": "int32"}, {"name": "MMNet/enc_block1/branch2/depthwise_conv_dilation/BatchToSpaceND/crops", "shape": [2, 2], "dtype": "int32"}, {"name": "MMNet/enc_block1/branch3/depthwise_conv_dilation/SpaceToBatchND/block_shape", "shape": [2], "dtype": "int32"}, {"name": "MMNet/enc_block1/branch3/depthwise_conv_dilation/SpaceToBatchND/paddings", "shape": [2, 2], "dtype": "int32"}, {"name": "MMNet/enc_block1/branch3/depthwise_conv_dilation/depthwise_weights", "shape": [3, 3, 16, 1], "dtype": "float32"}, {"name": "MMNet/enc_block1/branch3/depthwise_conv_dilation/BatchToSpaceND/block_shape", "shape": [2], "dtype": "int32"}, {"name": "MMNet/enc_block1/branch3/depthwise_conv_dilation/BatchToSpaceND/crops", "shape": [2, 2], "dtype": "int32"}, {"name": "MMNet/enc_block1/merge/concat/axis", "shape": [], "dtype": "int32"}, {"name": "MMNet/enc_block2/branch3/depthwise_conv_dilation/SpaceToBatchND/block_shape", "shape": [2], "dtype": "int32"}, {"name": "MMNet/enc_block2/branch3/depthwise_conv_dilation/SpaceToBatchND/paddings", "shape": [2, 2], "dtype": "int32"}, {"name": "MMNet/enc_block2/branch3/depthwise_conv_dilation/depthwise_weights", "shape": [3, 3, 24, 1], "dtype": "float32"}, {"name": "MMNet/enc_block2/branch3/depthwise_conv_dilation/BatchToSpaceND/block_shape", "shape": [2], "dtype": "int32"}, {"name": "MMNet/enc_block2/branch3/depthwise_conv_dilation/BatchToSpaceND/crops", "shape": [2, 2], "dtype": "int32"}, {"name": "MMNet/enc_block2/merge/concat/axis", "shape": [], "dtype": "int32"}, {"name": "MMNet/enc_block3/branch3/depthwise_conv_dilation/SpaceToBatchND/block_shape", "shape": [2], "dtype": "int32"}, {"name": "MMNet/enc_block3/branch3/depthwise_conv_dilation/SpaceToBatchND/paddings", "shape": [2, 2], "dtype": "int32"}, {"name": "MMNet/enc_block3/branch3/depthwise_conv_dilation/depthwise_weights", "shape": [3, 3, 24, 1], "dtype": "float32"}, {"name": "MMNet/enc_block3/branch3/depthwise_conv_dilation/BatchToSpaceND/block_shape", "shape": [2], "dtype": "int32"}, {"name": "MMNet/enc_block3/branch3/depthwise_conv_dilation/BatchToSpaceND/crops", "shape": [2, 2], "dtype": "int32"}, {"name": "MMNet/enc_block3/merge/concat/axis", "shape": [], "dtype": "int32"}, {"name": "MMNet/enc_block4/branch2/depthwise_conv_dilation/SpaceToBatchND/block_shape", "shape": [2], "dtype": "int32"}, {"name": "MMNet/enc_block4/branch2/depthwise_conv_dilation/SpaceToBatchND/paddings", "shape": [2, 2], "dtype": "int32"}, {"name": "MMNet/enc_block4/branch2/depthwise_conv_dilation/depthwise_weights", "shape": [3, 3, 32, 1], "dtype": "float32"}, {"name": "MMNet/enc_block4/branch2/depthwise_conv_dilation/BatchToSpaceND/block_shape", "shape": [2], "dtype": "int32"}, {"name": "MMNet/enc_block4/branch2/depthwise_conv_dilation/BatchToSpaceND/crops", "shape": [2, 2], "dtype": "int32"}, {"name": "MMNet/enc_block4/merge/concat/axis", "shape": [], "dtype": "int32"}, {"name": "MMNet/dec_block0/shortcut/concat/axis", "shape": [], "dtype": "int32"}, {"name": "MMNet/dec_block1/resize_bilinear_0/size", "shape": [2], "dtype": "int32"}, {"name": "MMNet/enc_block0/branch1/depthwise_conv_dilation/SpaceToBatchND/block_shape", "shape": [2], "dtype": "int32"}, {"name": "MMNet/enc_block0/branch1/depthwise_conv_dilation/SpaceToBatchND/paddings", "shape": [2, 2], "dtype": "int32"}, {"name": "MMNet/enc_block0/branch1/depthwise_conv_dilation/depthwise_weights", "shape": [3, 3, 16, 1], "dtype": "float32"}, {"name": "MMNet/enc_block0/branch1/depthwise_conv_dilation/BatchToSpaceND/block_shape", "shape": [2], "dtype": "int32"}, {"name": "MMNet/enc_block0/branch1/depthwise_conv_dilation/BatchToSpaceND/crops", "shape": [2, 2], "dtype": "int32"}, {"name": "MMNet/enc_block0/branch2/depthwise_conv_dilation/SpaceToBatchND/block_shape", "shape": [2], "dtype": "int32"}, {"name": "MMNet/enc_block0/branch2/depthwise_conv_dilation/SpaceToBatchND/paddings", "shape": [2, 2], "dtype": "int32"}, {"name": "MMNet/enc_block0/branch2/depthwise_conv_dilation/depthwise_weights", "shape": [3, 3, 16, 1], "dtype": "float32"}, {"name": "MMNet/enc_block0/branch2/depthwise_conv_dilation/BatchToSpaceND/block_shape", "shape": [2], "dtype": "int32"}, {"name": "MMNet/enc_block0/branch2/depthwise_conv_dilation/BatchToSpaceND/crops", "shape": [2, 2], "dtype": "int32"}, {"name": "MMNet/enc_block0/branch3/depthwise_conv_dilation/SpaceToBatchND/block_shape", "shape": [2], "dtype": "int32"}, {"name": "MMNet/enc_block0/branch3/depthwise_conv_dilation/SpaceToBatchND/paddings", "shape": [2, 2], "dtype": "int32"}, {"name": "MMNet/enc_block0/branch3/depthwise_conv_dilation/depthwise_weights", "shape": [3, 3, 16, 1], "dtype": "float32"}, {"name": "MMNet/enc_block0/branch3/depthwise_conv_dilation/BatchToSpaceND/block_shape", "shape": [2], "dtype": "int32"}, {"name": "MMNet/enc_block0/branch3/depthwise_conv_dilation/BatchToSpaceND/crops", "shape": [2, 2], "dtype": "int32"}, {"name": "MMNet/enc_block0/merge/concat/axis", "shape": [], "dtype": "int32"}, {"name": "MMNet/dec_block1/shortcut/concat/axis", "shape": [], "dtype": "int32"}, {"name": "MMNet/dec_block2/branch2/depthwise_conv_dilation/SpaceToBatchND/block_shape", "shape": [2], "dtype": "int32"}, {"name": "MMNet/dec_block2/branch2/depthwise_conv_dilation/SpaceToBatchND/paddings", "shape": [2, 2], "dtype": "int32"}, {"name": "MMNet/dec_block2/branch2/depthwise_conv_dilation/depthwise_weights", "shape": [3, 3, 40, 1], "dtype": "float32"}, {"name": "MMNet/dec_block2/branch2/depthwise_conv_dilation/BatchToSpaceND/block_shape", "shape": [2], "dtype": "int32"}, {"name": "MMNet/dec_block2/branch2/depthwise_conv_dilation/BatchToSpaceND/crops", "shape": [2, 2], "dtype": "int32"}, {"name": "MMNet/dec_block2/merge/concat/axis", "shape": [], "dtype": "int32"}, {"name": "MMNet/dec_block3/branch2/depthwise_conv_dilation/SpaceToBatchND/block_shape", "shape": [2], "dtype": "int32"}, {"name": "MMNet/dec_block3/branch2/depthwise_conv_dilation/SpaceToBatchND/paddings", "shape": [2, 2], "dtype": "int32"}, {"name": "MMNet/dec_block3/branch2/depthwise_conv_dilation/depthwise_weights", "shape": [3, 3, 40, 1], "dtype": "float32"}, {"name": "MMNet/dec_block3/branch2/depthwise_conv_dilation/BatchToSpaceND/block_shape", "shape": [2], "dtype": "int32"}, {"name": "MMNet/dec_block3/branch2/depthwise_conv_dilation/BatchToSpaceND/crops", "shape": [2, 2], "dtype": "int32"}, {"name": "MMNet/dec_block3/merge/concat/axis", "shape": [], "dtype": "int32"}, {"name": "MMNet/dec_block4/resize_bilinear_0/size", "shape": [2], "dtype": "int32"}, {"name": "MMNet/dec_block4/resize_bilinear_1/size", "shape": [2], "dtype": "int32"}, {"name": "MMNet/final_block/pointwise_conv/weights", "shape": [1, 1, 16, 2], "dtype": "float32"}, {"name": "MMNet/final_block/pointwise_conv/biases", "shape": [2], "dtype": "float32"}, {"name": "output/softmax/Reshape/shape", "shape": [2], "dtype": "int32"}, {"name": "output/softmax/Shape", "shape": [4], "dtype": "int32"}, {"name": "MMNet/init_block/conv/Conv2D_weights", "shape": [3, 3, 3, 32], "dtype": "float32"}, {"name": "MMNet/enc_block5/branch1/depthwise_conv_dilation/BatchNorm/FusedBatchNorm/Scaled", "shape": [64], "dtype": "float32"}, {"name": "MMNet/init_block/conv/Conv2D_bn_offset", "shape": [32], "dtype": "float32"}, {"name": "MMNet/enc_block0/branch0/pointwise_conv/Conv2D_weights", "shape": [1, 1, 32, 16], "dtype": "float32"}, {"name": "MMNet/enc_block0/branch0/pointwise_conv/Conv2D_bn_offset", "shape": [16], "dtype": "float32"}, {"name": "MMNet/enc_block5/branch1/depthwise_conv_dilation/BatchNorm/FusedBatchNorm/Offset", "shape": [64], "dtype": "float32"}, {"name": "MMNet/enc_block0/branch1/pointwise_conv/Conv2D_weights", "shape": [1, 1, 32, 16], "dtype": "float32"}, {"name": "MMNet/enc_block0/branch1/pointwise_conv/Conv2D_bn_offset", "shape": [16], "dtype": "float32"}, {"name": "MMNet/enc_block0/branch2/pointwise_conv/Conv2D_weights", "shape": [1, 1, 32, 16], "dtype": "float32"}, {"name": "MMNet/enc_block0/branch2/pointwise_conv/Conv2D_bn_offset", "shape": [16], "dtype": "float32"}, {"name": "MMNet/enc_block4/branch2/depthwise_conv_dilation/BatchNorm/FusedBatchNorm/Scaled", "shape": [32], "dtype": "float32"}, {"name": "MMNet/enc_block0/branch3/pointwise_conv/Conv2D_weights", "shape": [1, 1, 32, 16], "dtype": "float32"}, {"name": "MMNet/enc_block0/branch3/pointwise_conv/Conv2D_bn_offset", "shape": [16], "dtype": "float32"}, {"name": "MMNet/enc_block0/branch0/depthwise_conv_stride/DepthwiseConv2dNative_weights", "shape": [3, 3, 16, 1], "dtype": "float32"}, {"name": "MMNet/enc_block0/branch0/depthwise_conv_stride/DepthwiseConv2dNative_bn_offset", "shape": [16], "dtype": "float32"}, {"name": "MMNet/enc_block0/branch1/depthwise_conv_stride/DepthwiseConv2dNative_weights", "shape": [3, 3, 16, 1], "dtype": "float32"}, {"name": "MMNet/enc_block0/branch1/depthwise_conv_stride/DepthwiseConv2dNative_bn_offset", "shape": [16], "dtype": "float32"}, {"name": "MMNet/enc_block0/branch2/depthwise_conv_stride/DepthwiseConv2dNative_weights", "shape": [3, 3, 16, 1], "dtype": "float32"}, {"name": "MMNet/enc_block0/branch2/depthwise_conv_stride/DepthwiseConv2dNative_bn_offset", "shape": [16], "dtype": "float32"}, {"name": "MMNet/enc_block0/branch3/depthwise_conv_stride/DepthwiseConv2dNative_weights", "shape": [3, 3, 16, 1], "dtype": "float32"}, {"name": "MMNet/enc_block0/branch3/depthwise_conv_stride/DepthwiseConv2dNative_bn_offset", "shape": [16], "dtype": "float32"}, {"name": "MMNet/enc_block0/branch0/depthwise_conv_dilation/DepthwiseConv2dNative_weights", "shape": [3, 3, 16, 1], "dtype": "float32"}, {"name": "MMNet/enc_block0/branch0/depthwise_conv_dilation/DepthwiseConv2dNative_bn_offset", "shape": [16], "dtype": "float32"}, {"name": "MMNet/enc_block0/merge/pointwise_conv/Conv2D_weights", "shape": [1, 1, 64, 16], "dtype": "float32"}, {"name": "MMNet/enc_block4/branch2/depthwise_conv_dilation/BatchNorm/FusedBatchNorm/Offset", "shape": [32], "dtype": "float32"}, {"name": "MMNet/enc_block0/merge/pointwise_conv/Conv2D_bn_offset", "shape": [16], "dtype": "float32"}, {"name": "MMNet/enc_block1/branch0/pointwise_conv/Conv2D_weights", "shape": [1, 1, 16, 16], "dtype": "float32"}, {"name": "MMNet/enc_block1/branch0/pointwise_conv/Conv2D_bn_offset", "shape": [16], "dtype": "float32"}, {"name": "MMNet/enc_block1/branch1/pointwise_conv/Conv2D_weights", "shape": [1, 1, 16, 16], "dtype": "float32"}, {"name": "MMNet/enc_block1/branch1/pointwise_conv/Conv2D_bn_offset", "shape": [16], "dtype": "float32"}, {"name": "MMNet/enc_block4/branch1/depthwise_conv_dilation/BatchNorm/FusedBatchNorm/Scaled", "shape": [32], "dtype": "float32"}, {"name": "MMNet/enc_block1/branch2/pointwise_conv/Conv2D_weights", "shape": [1, 1, 16, 16], "dtype": "float32"}, {"name": "MMNet/enc_block1/branch2/pointwise_conv/Conv2D_bn_offset", "shape": [16], "dtype": "float32"}, {"name": "MMNet/enc_block1/branch3/pointwise_conv/Conv2D_weights", "shape": [1, 1, 16, 16], "dtype": "float32"}, {"name": "MMNet/enc_block4/branch1/depthwise_conv_dilation/BatchNorm/FusedBatchNorm/Offset", "shape": [32], "dtype": "float32"}, {"name": "MMNet/enc_block1/branch3/pointwise_conv/Conv2D_bn_offset", "shape": [16], "dtype": "float32"}, {"name": "MMNet/dec_block1/shortcut/depthwise_conv/DepthwiseConv2dNative_weights", "shape": [3, 3, 16, 1], "dtype": "float32"}, {"name": "MMNet/dec_block1/shortcut/depthwise_conv/DepthwiseConv2dNative_bn_offset", "shape": [16], "dtype": "float32"}, {"name": "MMNet/enc_block1/branch0/depthwise_conv_dilation/DepthwiseConv2dNative_weights", "shape": [3, 3, 16, 1], "dtype": "float32"}, {"name": "MMNet/enc_block1/branch0/depthwise_conv_dilation/DepthwiseConv2dNative_bn_offset", "shape": [16], "dtype": "float32"}, {"name": "MMNet/dec_block1/shortcut/pointwise_conv/Conv2D_weights", "shape": [1, 1, 16, 40], "dtype": "float32"}, {"name": "MMNet/dec_block1/shortcut/pointwise_conv/Conv2D_bn_offset", "shape": [40], "dtype": "float32"}, {"name": "MMNet/enc_block1/merge/pointwise_conv/Conv2D_weights", "shape": [1, 1, 64, 24], "dtype": "float32"}, {"name": "MMNet/enc_block3/branch3/depthwise_conv_dilation/BatchNorm/FusedBatchNorm/Scaled", "shape": [24], "dtype": "float32"}, {"name": "MMNet/enc_block1/merge/pointwise_conv/Conv2D_bn_offset", "shape": [24], "dtype": "float32"}, {"name": "MMNet/enc_block2/branch0/pointwise_conv/Conv2D_weights", "shape": [1, 1, 24, 24], "dtype": "float32"}, {"name": "MMNet/enc_block2/branch0/pointwise_conv/Conv2D_bn_offset", "shape": [24], "dtype": "float32"}, {"name": "MMNet/enc_block2/branch1/pointwise_conv/Conv2D_weights", "shape": [1, 1, 24, 24], "dtype": "float32"}, {"name": "MMNet/enc_block3/branch3/depthwise_conv_dilation/BatchNorm/FusedBatchNorm/Offset", "shape": [24], "dtype": "float32"}, {"name": "MMNet/enc_block2/branch1/pointwise_conv/Conv2D_bn_offset", "shape": [24], "dtype": "float32"}, {"name": "MMNet/enc_block2/branch2/pointwise_conv/Conv2D_weights", "shape": [1, 1, 24, 24], "dtype": "float32"}, {"name": "MMNet/enc_block2/branch2/pointwise_conv/Conv2D_bn_offset", "shape": [24], "dtype": "float32"}, {"name": "MMNet/enc_block2/branch3/pointwise_conv/Conv2D_weights", "shape": [1, 1, 24, 24], "dtype": "float32"}, {"name": "MMNet/enc_block3/branch2/depthwise_conv_dilation/BatchNorm/FusedBatchNorm/Scaled", "shape": [24], "dtype": "float32"}, {"name": "MMNet/enc_block2/branch3/pointwise_conv/Conv2D_bn_offset", "shape": [24], "dtype": "float32"}, {"name": "MMNet/enc_block2/branch0/depthwise_conv_dilation/DepthwiseConv2dNative_weights", "shape": [3, 3, 24, 1], "dtype": "float32"}, {"name": "MMNet/enc_block2/branch0/depthwise_conv_dilation/DepthwiseConv2dNative_bn_offset", "shape": [24], "dtype": "float32"}, {"name": "MMNet/enc_block2/merge/pointwise_conv/Conv2D_weights", "shape": [1, 1, 96, 24], "dtype": "float32"}, {"name": "MMNet/enc_block2/merge/pointwise_conv/Conv2D_bn_offset", "shape": [24], "dtype": "float32"}, {"name": "MMNet/enc_block3/branch0/pointwise_conv/Conv2D_weights", "shape": [1, 1, 24, 24], "dtype": "float32"}, {"name": "MMNet/enc_block3/branch2/depthwise_conv_dilation/BatchNorm/FusedBatchNorm/Offset", "shape": [24], "dtype": "float32"}, {"name": "MMNet/enc_block3/branch0/pointwise_conv/Conv2D_bn_offset", "shape": [24], "dtype": "float32"}, {"name": "MMNet/enc_block3/branch1/pointwise_conv/Conv2D_weights", "shape": [1, 1, 24, 24], "dtype": "float32"}, {"name": "MMNet/enc_block3/branch1/pointwise_conv/Conv2D_bn_offset", "shape": [24], "dtype": "float32"}, {"name": "MMNet/enc_block3/branch2/pointwise_conv/Conv2D_weights", "shape": [1, 1, 24, 24], "dtype": "float32"}, {"name": "MMNet/enc_block3/branch1/depthwise_conv_dilation/BatchNorm/FusedBatchNorm/Scaled", "shape": [24], "dtype": "float32"}, {"name": "MMNet/enc_block3/branch2/pointwise_conv/Conv2D_bn_offset", "shape": [24], "dtype": "float32"}, {"name": "MMNet/enc_block3/branch3/pointwise_conv/Conv2D_weights", "shape": [1, 1, 24, 24], "dtype": "float32"}, {"name": "MMNet/enc_block3/branch3/pointwise_conv/Conv2D_bn_offset", "shape": [24], "dtype": "float32"}, {"name": "MMNet/enc_block3/branch1/depthwise_conv_dilation/BatchNorm/FusedBatchNorm/Offset", "shape": [24], "dtype": "float32"}, {"name": "MMNet/enc_block3/branch0/depthwise_conv_dilation/DepthwiseConv2dNative_weights", "shape": [3, 3, 24, 1], "dtype": "float32"}, {"name": "MMNet/enc_block3/branch0/depthwise_conv_dilation/DepthwiseConv2dNative_bn_offset", "shape": [24], "dtype": "float32"}, {"name": "MMNet/enc_block3/merge/pointwise_conv/Conv2D_weights", "shape": [1, 1, 96, 24], "dtype": "float32"}, {"name": "MMNet/enc_block3/merge/pointwise_conv/Conv2D_bn_offset", "shape": [24], "dtype": "float32"}, {"name": "MMNet/enc_block4/branch0/pointwise_conv/Conv2D_weights", "shape": [1, 1, 24, 32], "dtype": "float32"}, {"name": "MMNet/enc_block4/branch0/pointwise_conv/Conv2D_bn_offset", "shape": [32], "dtype": "float32"}, {"name": "MMNet/enc_block4/branch1/pointwise_conv/Conv2D_weights", "shape": [1, 1, 24, 32], "dtype": "float32"}, {"name": "MMNet/enc_block2/branch3/depthwise_conv_dilation/BatchNorm/FusedBatchNorm/Scaled", "shape": [24], "dtype": "float32"}, {"name": "MMNet/enc_block4/branch1/pointwise_conv/Conv2D_bn_offset", "shape": [32], "dtype": "float32"}, {"name": "MMNet/enc_block4/branch2/pointwise_conv/Conv2D_weights", "shape": [1, 1, 24, 32], "dtype": "float32"}, {"name": "MMNet/enc_block4/branch2/pointwise_conv/Conv2D_bn_offset", "shape": [32], "dtype": "float32"}, {"name": "MMNet/enc_block2/branch3/depthwise_conv_dilation/BatchNorm/FusedBatchNorm/Offset", "shape": [24], "dtype": "float32"}, {"name": "MMNet/enc_block4/branch0/depthwise_conv_stride/DepthwiseConv2dNative_weights", "shape": [3, 3, 32, 1], "dtype": "float32"}, {"name": "MMNet/enc_block4/branch0/depthwise_conv_stride/DepthwiseConv2dNative_bn_offset", "shape": [32], "dtype": "float32"}, {"name": "MMNet/enc_block4/branch1/depthwise_conv_stride/DepthwiseConv2dNative_weights", "shape": [3, 3, 32, 1], "dtype": "float32"}, {"name": "MMNet/enc_block4/branch1/depthwise_conv_stride/DepthwiseConv2dNative_bn_offset", "shape": [32], "dtype": "float32"}, {"name": "MMNet/enc_block4/branch2/depthwise_conv_stride/DepthwiseConv2dNative_weights", "shape": [3, 3, 32, 1], "dtype": "float32"}, {"name": "MMNet/enc_block4/branch2/depthwise_conv_stride/DepthwiseConv2dNative_bn_offset", "shape": [32], "dtype": "float32"}, {"name": "MMNet/enc_block4/branch0/depthwise_conv_dilation/DepthwiseConv2dNative_weights", "shape": [3, 3, 32, 1], "dtype": "float32"}, {"name": "MMNet/enc_block4/branch0/depthwise_conv_dilation/DepthwiseConv2dNative_bn_offset", "shape": [32], "dtype": "float32"}, {"name": "MMNet/enc_block4/merge/pointwise_conv/Conv2D_weights", "shape": [1, 1, 96, 40], "dtype": "float32"}, {"name": "MMNet/enc_block4/merge/pointwise_conv/Conv2D_bn_offset", "shape": [40], "dtype": "float32"}, {"name": "MMNet/enc_block5/branch0/pointwise_conv/Conv2D_weights", "shape": [1, 1, 40, 64], "dtype": "float32"}, {"name": "MMNet/enc_block5/branch0/pointwise_conv/Conv2D_bn_offset", "shape": [64], "dtype": "float32"}, {"name": "MMNet/enc_block5/branch1/pointwise_conv/Conv2D_weights", "shape": [1, 1, 40, 64], "dtype": "float32"}, {"name": "MMNet/enc_block2/branch2/depthwise_conv_dilation/BatchNorm/FusedBatchNorm/Scaled", "shape": [24], "dtype": "float32"}, {"name": "MMNet/enc_block5/branch1/pointwise_conv/Conv2D_bn_offset", "shape": [64], "dtype": "float32"}, {"name": "MMNet/enc_block5/branch2/pointwise_conv/Conv2D_weights", "shape": [1, 1, 40, 64], "dtype": "float32"}, {"name": "MMNet/enc_block5/branch2/pointwise_conv/Conv2D_bn_offset", "shape": [64], "dtype": "float32"}, {"name": "MMNet/enc_block2/branch2/depthwise_conv_dilation/BatchNorm/FusedBatchNorm/Offset", "shape": [24], "dtype": "float32"}, {"name": "MMNet/dec_block0/shortcut/depthwise_conv/DepthwiseConv2dNative_weights", "shape": [3, 3, 40, 1], "dtype": "float32"}, {"name": "MMNet/dec_block0/shortcut/depthwise_conv/DepthwiseConv2dNative_bn_offset", "shape": [40], "dtype": "float32"}, {"name": "MMNet/enc_block5/branch0/depthwise_conv_dilation/DepthwiseConv2dNative_weights", "shape": [3, 3, 64, 1], "dtype": "float32"}, {"name": "MMNet/enc_block5/branch0/depthwise_conv_dilation/DepthwiseConv2dNative_bn_offset", "shape": [64], "dtype": "float32"}, {"name": "MMNet/dec_block0/shortcut/pointwise_conv/Conv2D_weights", "shape": [1, 1, 40, 64], "dtype": "float32"}, {"name": "MMNet/dec_block0/shortcut/pointwise_conv/Conv2D_bn_offset", "shape": [64], "dtype": "float32"}, {"name": "MMNet/enc_block5/merge/pointwise_conv/Conv2D_weights", "shape": [1, 1, 192, 40], "dtype": "float32"}, {"name": "MMNet/enc_block5/merge/pointwise_conv/Conv2D_bn_offset", "shape": [40], "dtype": "float32"}, {"name": "MMNet/enc_block6/branch0/pointwise_conv/Conv2D_weights", "shape": [1, 1, 40, 64], "dtype": "float32"}, {"name": "MMNet/enc_block2/branch1/depthwise_conv_dilation/BatchNorm/FusedBatchNorm/Scaled", "shape": [24], "dtype": "float32"}, {"name": "MMNet/enc_block6/branch0/pointwise_conv/Conv2D_bn_offset", "shape": [64], "dtype": "float32"}, {"name": "MMNet/enc_block6/branch1/pointwise_conv/Conv2D_weights", "shape": [1, 1, 40, 64], "dtype": "float32"}, {"name": "MMNet/enc_block6/branch1/pointwise_conv/Conv2D_bn_offset", "shape": [64], "dtype": "float32"}, {"name": "MMNet/enc_block2/branch1/depthwise_conv_dilation/BatchNorm/FusedBatchNorm/Offset", "shape": [24], "dtype": "float32"}, {"name": "MMNet/enc_block6/branch2/pointwise_conv/Conv2D_weights", "shape": [1, 1, 40, 64], "dtype": "float32"}, {"name": "MMNet/enc_block6/branch2/pointwise_conv/Conv2D_bn_offset", "shape": [64], "dtype": "float32"}, {"name": "MMNet/enc_block6/branch0/depthwise_conv_dilation/DepthwiseConv2dNative_weights", "shape": [3, 3, 64, 1], "dtype": "float32"}, {"name": "MMNet/enc_block6/branch0/depthwise_conv_dilation/DepthwiseConv2dNative_bn_offset", "shape": [64], "dtype": "float32"}, {"name": "MMNet/enc_block6/merge/pointwise_conv/Conv2D_weights", "shape": [1, 1, 192, 40], "dtype": "float32"}, {"name": "MMNet/enc_block6/merge/pointwise_conv/Conv2D_bn_offset", "shape": [40], "dtype": "float32"}, {"name": "MMNet/enc_block7/branch0/pointwise_conv/Conv2D_weights", "shape": [1, 1, 40, 64], "dtype": "float32"}, {"name": "MMNet/enc_block1/branch3/depthwise_conv_dilation/BatchNorm/FusedBatchNorm/Scaled", "shape": [16], "dtype": "float32"}, {"name": "MMNet/enc_block7/branch0/pointwise_conv/Conv2D_bn_offset", "shape": [64], "dtype": "float32"}, {"name": "MMNet/enc_block7/branch1/pointwise_conv/Conv2D_weights", "shape": [1, 1, 40, 64], "dtype": "float32"}, {"name": "MMNet/enc_block7/branch1/pointwise_conv/Conv2D_bn_offset", "shape": [64], "dtype": "float32"}, {"name": "MMNet/enc_block1/branch3/depthwise_conv_dilation/BatchNorm/FusedBatchNorm/Offset", "shape": [16], "dtype": "float32"}, {"name": "MMNet/enc_block7/branch2/pointwise_conv/Conv2D_weights", "shape": [1, 1, 40, 64], "dtype": "float32"}, {"name": "MMNet/enc_block7/branch2/pointwise_conv/Conv2D_bn_offset", "shape": [64], "dtype": "float32"}, {"name": "MMNet/enc_block7/branch0/depthwise_conv_dilation/DepthwiseConv2dNative_weights", "shape": [3, 3, 64, 1], "dtype": "float32"}, {"name": "MMNet/enc_block7/branch0/depthwise_conv_dilation/DepthwiseConv2dNative_bn_offset", "shape": [64], "dtype": "float32"}, {"name": "MMNet/enc_block7/merge/pointwise_conv/Conv2D_weights", "shape": [1, 1, 192, 40], "dtype": "float32"}, {"name": "MMNet/enc_block7/merge/pointwise_conv/Conv2D_bn_offset", "shape": [40], "dtype": "float32"}, {"name": "MMNet/enc_block8/branch0/pointwise_conv/Conv2D_weights", "shape": [1, 1, 40, 80], "dtype": "float32"}, {"name": "MMNet/enc_block1/branch2/depthwise_conv_dilation/BatchNorm/FusedBatchNorm/Scaled", "shape": [16], "dtype": "float32"}, {"name": "MMNet/enc_block8/branch0/pointwise_conv/Conv2D_bn_offset", "shape": [80], "dtype": "float32"}, {"name": "MMNet/enc_block8/branch1/pointwise_conv/Conv2D_weights", "shape": [1, 1, 40, 80], "dtype": "float32"}, {"name": "MMNet/enc_block8/branch1/pointwise_conv/Conv2D_bn_offset", "shape": [80], "dtype": "float32"}, {"name": "MMNet/enc_block1/branch2/depthwise_conv_dilation/BatchNorm/FusedBatchNorm/Offset", "shape": [16], "dtype": "float32"}, {"name": "MMNet/enc_block8/branch0/depthwise_conv_stride/DepthwiseConv2dNative_weights", "shape": [3, 3, 80, 1], "dtype": "float32"}, {"name": "MMNet/enc_block8/branch0/depthwise_conv_stride/DepthwiseConv2dNative_bn_offset", "shape": [80], "dtype": "float32"}, {"name": "MMNet/enc_block8/branch1/depthwise_conv_stride/DepthwiseConv2dNative_weights", "shape": [3, 3, 80, 1], "dtype": "float32"}, {"name": "MMNet/enc_block8/branch1/depthwise_conv_stride/DepthwiseConv2dNative_bn_offset", "shape": [80], "dtype": "float32"}, {"name": "MMNet/enc_block8/branch0/depthwise_conv_dilation/DepthwiseConv2dNative_weights", "shape": [3, 3, 80, 1], "dtype": "float32"}, {"name": "MMNet/enc_block8/branch0/depthwise_conv_dilation/DepthwiseConv2dNative_bn_offset", "shape": [80], "dtype": "float32"}, {"name": "MMNet/enc_block8/merge/pointwise_conv/Conv2D_weights", "shape": [1, 1, 160, 80], "dtype": "float32"}, {"name": "MMNet/enc_block8/merge/pointwise_conv/Conv2D_bn_offset", "shape": [80], "dtype": "float32"}, {"name": "MMNet/enc_block9/branch0/pointwise_conv/Conv2D_weights", "shape": [1, 1, 80, 120], "dtype": "float32"}, {"name": "MMNet/enc_block9/branch0/pointwise_conv/Conv2D_bn_offset", "shape": [120], "dtype": "float32"}, {"name": "MMNet/enc_block9/branch1/pointwise_conv/Conv2D_weights", "shape": [1, 1, 80, 120], "dtype": "float32"}, {"name": "MMNet/enc_block1/branch1/depthwise_conv_dilation/BatchNorm/FusedBatchNorm/Scaled", "shape": [16], "dtype": "float32"}, {"name": "MMNet/enc_block9/branch1/pointwise_conv/Conv2D_bn_offset", "shape": [120], "dtype": "float32"}, {"name": "MMNet/enc_block9/branch0/depthwise_conv_dilation/DepthwiseConv2dNative_weights", "shape": [3, 3, 120, 1], "dtype": "float32"}, {"name": "MMNet/enc_block9/branch0/depthwise_conv_dilation/DepthwiseConv2dNative_bn_offset", "shape": [120], "dtype": "float32"}, {"name": "MMNet/enc_block9/merge/pointwise_conv/Conv2D_weights", "shape": [1, 1, 240, 80], "dtype": "float32"}, {"name": "MMNet/enc_block9/merge/pointwise_conv/Conv2D_bn_offset", "shape": [80], "dtype": "float32"}, {"name": "MMNet/enc_block1/branch1/depthwise_conv_dilation/BatchNorm/FusedBatchNorm/Offset", "shape": [16], "dtype": "float32"}, {"name": "MMNet/dec_block0/pointwise_conv/Conv2D_weights", "shape": [1, 1, 80, 64], "dtype": "float32"}, {"name": "MMNet/dec_block0/pointwise_conv/Conv2D_bn_offset", "shape": [64], "dtype": "float32"}, {"name": "MMNet/dec_block1/pointwise_conv/Conv2D_weights", "shape": [1, 1, 128, 40], "dtype": "float32"}, {"name": "MMNet/dec_block1/pointwise_conv/Conv2D_bn_offset", "shape": [40], "dtype": "float32"}, {"name": "MMNet/enc_block0/branch3/depthwise_conv_dilation/BatchNorm/FusedBatchNorm/Scaled", "shape": [16], "dtype": "float32"}, {"name": "MMNet/dec_block2/branch0/pointwise_conv/Conv2D_weights", "shape": [1, 1, 80, 40], "dtype": "float32"}, {"name": "MMNet/dec_block2/branch0/pointwise_conv/Conv2D_bn_offset", "shape": [40], "dtype": "float32"}, {"name": "MMNet/dec_block2/branch1/pointwise_conv/Conv2D_weights", "shape": [1, 1, 80, 40], "dtype": "float32"}, {"name": "MMNet/enc_block0/branch3/depthwise_conv_dilation/BatchNorm/FusedBatchNorm/Offset", "shape": [16], "dtype": "float32"}, {"name": "MMNet/dec_block2/branch1/pointwise_conv/Conv2D_bn_offset", "shape": [40], "dtype": "float32"}, {"name": "MMNet/dec_block2/branch2/pointwise_conv/Conv2D_weights", "shape": [1, 1, 80, 40], "dtype": "float32"}, {"name": "MMNet/dec_block2/branch2/pointwise_conv/Conv2D_bn_offset", "shape": [40], "dtype": "float32"}, {"name": "MMNet/dec_block2/branch0/depthwise_conv_dilation/DepthwiseConv2dNative_weights", "shape": [3, 3, 40, 1], "dtype": "float32"}, {"name": "MMNet/dec_block2/branch0/depthwise_conv_dilation/DepthwiseConv2dNative_bn_offset", "shape": [40], "dtype": "float32"}, {"name": "MMNet/dec_block2/merge/pointwise_conv/Conv2D_weights", "shape": [1, 1, 120, 40], "dtype": "float32"}, {"name": "MMNet/enc_block0/branch2/depthwise_conv_dilation/BatchNorm/FusedBatchNorm/Scaled", "shape": [16], "dtype": "float32"}, {"name": "MMNet/dec_block2/merge/pointwise_conv/Conv2D_bn_offset", "shape": [40], "dtype": "float32"}, {"name": "MMNet/dec_block3/branch0/pointwise_conv/Conv2D_weights", "shape": [1, 1, 40, 40], "dtype": "float32"}, {"name": "MMNet/dec_block3/branch0/pointwise_conv/Conv2D_bn_offset", "shape": [40], "dtype": "float32"}, {"name": "MMNet/dec_block3/branch1/pointwise_conv/Conv2D_weights", "shape": [1, 1, 40, 40], "dtype": "float32"}, {"name": "MMNet/enc_block0/branch2/depthwise_conv_dilation/BatchNorm/FusedBatchNorm/Offset", "shape": [16], "dtype": "float32"}, {"name": "MMNet/dec_block3/branch1/pointwise_conv/Conv2D_bn_offset", "shape": [40], "dtype": "float32"}, {"name": "MMNet/dec_block3/branch2/pointwise_conv/Conv2D_weights", "shape": [1, 1, 40, 40], "dtype": "float32"}, {"name": "MMNet/dec_block3/branch2/pointwise_conv/Conv2D_bn_offset", "shape": [40], "dtype": "float32"}, {"name": "MMNet/dec_block3/branch0/depthwise_conv_dilation/DepthwiseConv2dNative_weights", "shape": [3, 3, 40, 1], "dtype": "float32"}, {"name": "MMNet/dec_block3/branch0/depthwise_conv_dilation/DepthwiseConv2dNative_bn_offset", "shape": [40], "dtype": "float32"}, {"name": "MMNet/dec_block3/merge/pointwise_conv/Conv2D_weights", "shape": [1, 1, 120, 40], "dtype": "float32"}, {"name": "MMNet/enc_block0/branch1/depthwise_conv_dilation/BatchNorm/FusedBatchNorm/Scaled", "shape": [16], "dtype": "float32"}, {"name": "MMNet/dec_block3/merge/pointwise_conv/Conv2D_bn_offset", "shape": [40], "dtype": "float32"}, {"name": "MMNet/dec_block4/pointwise_conv/Conv2D_weights", "shape": [1, 1, 40, 16], "dtype": "float32"}, {"name": "MMNet/dec_block4/pointwise_conv/Conv2D_bn_offset", "shape": [16], "dtype": "float32"}, {"name": "MMNet/enc_block0/branch1/depthwise_conv_dilation/BatchNorm/FusedBatchNorm/Offset", "shape": [16], "dtype": "float32"}, {"name": "MMNet/dec_block3/branch2/depthwise_conv_dilation/BatchNorm/FusedBatchNorm/Scaled", "shape": [40], "dtype": "float32"}, {"name": "MMNet/dec_block3/branch2/depthwise_conv_dilation/BatchNorm/FusedBatchNorm/Offset", "shape": [40], "dtype": "float32"}, {"name": "MMNet/dec_block3/branch1/depthwise_conv_dilation/BatchNorm/FusedBatchNorm/Scaled", "shape": [40], "dtype": "float32"}, {"name": "MMNet/dec_block3/branch1/depthwise_conv_dilation/BatchNorm/FusedBatchNorm/Offset", "shape": [40], "dtype": "float32"}, {"name": "MMNet/dec_block2/branch2/depthwise_conv_dilation/BatchNorm/FusedBatchNorm/Scaled", "shape": [40], "dtype": "float32"}, {"name": "MMNet/dec_block2/branch2/depthwise_conv_dilation/BatchNorm/FusedBatchNorm/Offset", "shape": [40], "dtype": "float32"}, {"name": "MMNet/dec_block2/branch1/depthwise_conv_dilation/BatchNorm/FusedBatchNorm/Scaled", "shape": [40], "dtype": "float32"}, {"name": "MMNet/dec_block2/branch1/depthwise_conv_dilation/BatchNorm/FusedBatchNorm/Offset", "shape": [40], "dtype": "float32"}, {"name": "MMNet/enc_block9/branch1/depthwise_conv_dilation/BatchNorm/FusedBatchNorm/Scaled", "shape": [120], "dtype": "float32"}, {"name": "MMNet/enc_block9/branch1/depthwise_conv_dilation/BatchNorm/FusedBatchNorm/Offset", "shape": [120], "dtype": "float32"}, {"name": "MMNet/enc_block8/branch1/depthwise_conv_dilation/BatchNorm/FusedBatchNorm/Scaled", "shape": [80], "dtype": "float32"}, {"name": "MMNet/enc_block8/branch1/depthwise_conv_dilation/BatchNorm/FusedBatchNorm/Offset", "shape": [80], "dtype": "float32"}, {"name": "MMNet/enc_block7/branch2/depthwise_conv_dilation/BatchNorm/FusedBatchNorm/Scaled", "shape": [64], "dtype": "float32"}, {"name": "MMNet/enc_block7/branch2/depthwise_conv_dilation/BatchNorm/FusedBatchNorm/Offset", "shape": [64], "dtype": "float32"}, {"name": "MMNet/enc_block7/branch1/depthwise_conv_dilation/BatchNorm/FusedBatchNorm/Scaled", "shape": [64], "dtype": "float32"}, {"name": "MMNet/enc_block7/branch1/depthwise_conv_dilation/BatchNorm/FusedBatchNorm/Offset", "shape": [64], "dtype": "float32"}, {"name": "MMNet/enc_block6/branch2/depthwise_conv_dilation/BatchNorm/FusedBatchNorm/Scaled", "shape": [64], "dtype": "float32"}, {"name": "MMNet/enc_block6/branch2/depthwise_conv_dilation/BatchNorm/FusedBatchNorm/Offset", "shape": [64], "dtype": "float32"}, {"name": "MMNet/enc_block6/branch1/depthwise_conv_dilation/BatchNorm/FusedBatchNorm/Scaled", "shape": [64], "dtype": "float32"}, {"name": "MMNet/enc_block6/branch1/depthwise_conv_dilation/BatchNorm/FusedBatchNorm/Offset", "shape": [64], "dtype": "float32"}, {"name": "MMNet/enc_block5/branch2/depthwise_conv_dilation/BatchNorm/FusedBatchNorm/Scaled", "shape": [64], "dtype": "float32"}, {"name": "MMNet/enc_block5/branch2/depthwise_conv_dilation/BatchNorm/FusedBatchNorm/Offset", "shape": [64], "dtype": "float32"}]}]}